model/model_params.pt (torch, 744706 bytes, 12 tensors)

embeddings.0.weight f4 [61, 10]
0	0xbdcc1892	-0.09965624
1	0x3e0493e6	0.12947044
2	0x3e68ad3f	0.22722338
3	0xbe00f6ec	-0.12594193
4	0xbd7e814b	-0.062135022
5	0x3e5f52ec	0.21808976
6	0xbebe3921	-0.3715296
7	0xbcd76464	-0.026292987
8	0x3de94095	0.11389271
9	0xbd53e8db	-0.05173574
10	0x3d2defac	0.042464897
11	0x3d97648b	0.07392224
12	0x3e41a3a6	0.18910083
13	0xbbf7d9f2	-0.007563823
14	0xbdc4d06a	-0.09610064
15	0x3e4f3f29	0.20238937
16	0xbe8b0fcf	-0.27160498
17	0x3d3db7fa	0.04631803
18	0x3d832e2f	0.06405293
19	0xbe63e879	-0.2225665
20	0xbd449c81	-0.048000816
21	0x3dc26ba8	0.0949319
22	0x3e4c7e4a	0.1997005
23	0xbdda94c2	-0.106729046
24	0xbd86e3ab	-0.06586393
25	0x3e3a6f4b	0.18206517
26	0xbe87f8b6	-0.2655694
27	0xbc2331f0	-0.0099606365
28	0x3d847947	0.06468444
29	0xbcf57541	-0.029963138
30	0xbe1d31e6	-0.15351066
31	0x3dfdeab1	0.123982795
32	0x3eecd0a7	0.4625294
33	0x3cafdd1f	0.021467743
34	0xbeebc351	-0.46047452
35	0x3e7503a0	0.23927164
36	0xbf14b354	-0.58086133
37	0xbe3556dd	-0.17708917
38	0x3e9c636d	0.30544606
39	0xbdfd835d	-0.12378571
40	0xbe78e28c	-0.24305171
41	0x3c5fe63b	0.013665731
42	0x3edddde7	0.4333336
43	0xbe3818e2	-0.17978242
44	0xbeb2e7c3	-0.34942445
45	0x3e924f7b	0.28576264
46	0xbf0187fd	-0.50598127
47	0xbeb0c2cd	-0.3452362
48	0x3e0dcaca	0.13846889
49	0xbeb333bd	-0.3500041
50	0xbe852ff8	-0.2601316
51	0x3e46fe98	0.19433057
52	0x3f1b4a26	0.60660017
53	0xbca043cd	-0.01956358
54	0xbe9e8de8	-0.3096764
55	0x3e91311b	0.28357777
56	0xbe35b5f8	-0.17745197
57	0xbedb25c3	-0.42802247
58	0x3e4f2096	0.20227274
59	0xbe904e1a	-0.28184587
60	0x3d6ca46e	0.057774
61	0xbe3f04ab	-0.18654124
62	0x3e16fcea	0.14744917
63	0xbe19fa4e	-0.1503689
64	0xbe1878c6	-0.14889821
65	0x3dec4901	0.11537362
66	0xbf101210	-0.5627756
67	0xbd9532b2	-0.0728506
68	0x3d66a2a3	0.056307446
69	0xbea01740	-0.31267738
70	0xbebbc4eb	-0.36673674
71	0x3e79d8d1	0.24399115
72	0x3ef8e29e	0.48610395
73	0x3e58a02d	0.21154852
74	0xbe821068	-0.25403142
75	0x3eccc7c9	0.39996174
76	0xbedc6e63	-0.43052968
77	0xbc9af6f6	-0.018916588
78	0x3e3e2e0c	0.18572253
79	0xbe91026f	-0.2832217
80	0xbe832ee0	-0.256217
81	0xbefcf9b2	-0.49409252
82	0x3e8a7b84	0.2704736
83	0x3e9bf365	0.30459133
84	0xbe72eedf	-0.23723935
85	0x3ec20010	0.37890673
86	0xbeb28755	-0.34868875
87	0x3e76fd1b	0.2411999
88	0x3e8d7b31	0.2763305
89	0xbe85d3e9	-0.26138237
90	0xbee318cd	-0.4435486
91	0xbe1db827	-0.1540228
92	0x3e43f1fd	0.1913528
93	0xbe767c39	-0.24070825
94	0x3dfdd7a7	0.12394648
95	0x3eaee393	0.34158
96	0xbea9441f	-0.33059785
97	0xbe5feeac	-0.2186839
98	0x3e09e732	0.134671
99	0xbe2ce58a	-0.16884437
100	0xbf15d508	-0.58528185
101	0x3e4a3b6e	0.19749233
102	0x3e031b6d	0.12803431
103	0xbeb10552	-0.34574372
104	0x3d9b5374	0.07584277
105	0x3e95ce28	0.29258847
106	0xbec5e399	-0.38650206
107	0xbee10de1	-0.439559
108	0x3dc47d4e	0.095942125
109	0xbd063de6	-0.032773875
110	0x3b8b9b25	0.004260438
111	0xbd0871ff	-0.03331184
112	0x3dc80489	0.0976649
113	0xbe60b194	-0.2194274
114	0xbf397479	-0.7244335
115	0x3e9eac71	0.30990937
116	0x3def265a	0.11677237
117	0xbd051664	-0.032492056
118	0xbe51d26c	-0.20490426
119	0xbe398e2e	-0.18120643
120	0xbe0740f3	-0.1320837
121	0x3d875b52	0.06609215
122	0xbd4b2fe3	-0.049606215
123	0xbeb6c176	-0.35694474
124	0xbed0feb0	-0.4081931
125	0x3e868603	0.26274118
126	0x3e66c885	0.2253743
127	0xbe504bb2	-0.20341375
128	0xbe3e7057	-0.18597542
129	0xbe94bc4b	-0.29049906
130	0xbe38a80f	-0.1803286
131	0x3dafb9bc	0.08580348
132	0x3d2f6d05	0.04282858
133	0xbe65cb6f	-0.22440885
134	0xbe5c309a	-0.21502915
135	0x3e941903	0.28925332
136	0xbe67f75d	-0.22652955
137	0xbddc7aa0	-0.10765576
138	0xbec481e0	-0.38380337
139	0xbe0eb10b	-0.13934724
140	0xbd111ee8	-0.035429865
141	0xbbd22e59	-0.0064142165
142	0x3d9db71d	0.07700942
143	0xbe481765	-0.19540174
144	0xbe2b2650	-0.16713834
145	0x3e8dda51	0.27705625
146	0xbdbf6602	-0.09345628
147	0x3d75fd90	0.06005627
148	0xbeb3634d	-0.35036698
149	0xbdd1d893	-0.102463864
150	0xbc86a36a	-0.016435344
151	0xbd04ecde	-0.032452457
152	0xbed22742	-0.41045576
153	0xbe981d5a	-0.29709893
154	0xbf06ef2a	-0.52708685
155	0x3ea7d5ac	0.32780206
156	0xbdee56b9	-0.11637635
157	0xbd813d42	-0.06310512
158	0xbd747a07	-0.059686687
159	0xbe112b2f	-0.1417663
160	0xbe6c21b8	-0.23059738
161	0x3d7afdfe	0.061277382
162	0x3e24a550	0.16078687
163	0xbf121d50	-0.5707598
164	0xbe9c912a	-0.305795
165	0x3da6a583	0.081370376
166	0xbe61a2a5	-0.220347
167	0xbec9a806	-0.39386004
168	0xbd2edcf7	-0.042691197
169	0x3e3966f6	0.18105683
170	0x3dcaf481	0.09909917
171	0xbd8a8ea0	-0.06765485
172	0xbe5d7fa1	-0.21630718
173	0xbea444f8	-0.3208387
174	0xbe69a349	-0.22816195
175	0x3e93acd0	0.28842783
176	0x3e6a8603	0.22902684
177	0x3b9451ef	0.004526369
178	0xbef88331	-0.4853759
179	0xbeea6d7f	-0.45786664
180	0x3e3ac0c3	0.18237595
181	0x3d6ca04d	0.057770062
182	0xbea9f24f	-0.3319268
183	0xbf2385ea	-0.6387621
184	0x3ca931ca	0.020653624
185	0x3eab9356	0.33510846
186	0xbe4b429c	-0.19849628
187	0x3e5bc310	0.21461129
188	0xbebee2be	-0.37282366
189	0xbc8d0969	-0.017216401
190	0x3e6890ef	0.22711538
191	0x3c7eef6a	0.01556001
192	0xbe17fa8d	-0.14841671
193	0xbf2fa693	-0.6861355
194	0x3defe701	0.117139824
195	0x3e973a58	0.295367
196	0xbe43f577	-0.19136606
197	0x3e89e48a	0.26932174
198	0xbebd793b	-0.37006554
199	0xbdf0cbbe	-0.11757611
200	0x3e3648bc	0.17801183
201	0x3e3b3658	0.18282449
202	0x3e5ea73a	0.2174348
203	0xbf2aab43	-0.66667575
204	0x3e650e47	0.22368728
205	0x3eb60ee9	0.3555825
206	0x3e6bdd27	0.23033582
207	0x3eceda55	0.4040095
208	0xbe243e3d	-0.16039367
209	0x3e20d8a6	0.15707645
210	0x3dbec0d4	0.09314123
211	0x3e875432	0.26431423
212	0xbcd4b1f6	-0.025963765
213	0xbf305b1b	-0.68889016
214	0x3eb79002	0.35852057
215	0x3e22d180	0.1590023
216	0x3ea5d46e	0.32388633
217	0x3eb8b6c3	0.36076936
218	0xbd7c4547	-0.061589506
219	0x3e6cf648	0.23140824
220	0x3e655651	0.22396208
221	0x3e56bc20	0.20970201
222	0xbe5f4b20	-0.21806002
223	0xbf259315	-0.64677554
224	0x3e74bd7d	0.23900409
225	0x3e9396ba	0.28825933
226	0x3e784e31	0.24248578
227	0x3ee7bd7f	0.45261762
228	0xbd3d9f70	-0.04629463
229	0x3e3cbf77	0.18432413
230	0x3e393bfb	0.18089287
231	0x3e924a1b	0.28572163
232	0xbe55a647	-0.20864211
233	0xbf286481	-0.65778357
234	0x3e7d84a5	0.24757631
235	0x3e53d27c	0.20685762
236	0x3e73d1e6	0.23810539
237	0x3ee841ac	0.45362604
238	0xbcdd2ff4	-0.027000405
239	0x3e5238dd	0.20529504
240	0x3e44bfb2	0.19213751
241	0x3e9487fd	0.2901
242	0xbe40c381	-0.18824579
243	0xbf2a30ee	-0.6648091
244	0x3e6e6487	0.23280536
245	0x3e8323d0	0.2561326
246	0x3e5a7412	0.2133334
247	0x3eeb8ef5	0.46007505
248	0xbd818029	-0.06323273
249	0x3e12be95	0.14330514
250	0xbdf09580	-0.11747265
251	0x3e5e1b1e	0.21690032
252	0xbea1bcd3	-0.31589374
253	0xbf04d576	-0.51888216
254	0xbe01af95	-0.12664635
255	0x3e9d5021	0.30725196

encoder.FC.L0.expr_L.weight f4 [45, 2000]
0	0x3bf31072	0.007417732
1	0xba9680d2	-0.0011482483
2	0xbc172396	-0.009224793
3	0xbca0a01f	-0.019607602
4	0xbcd8c07b	-0.02645897
5	0xb9f190de	-0.00046075037
6	0xbacd58b8	-0.0015666699
7	0xbca9a44b	-0.020708224
8	0x3c458464	0.01205549
9	0xbc198709	-0.009370574
10	0xbc0fc775	-0.008775582
11	0x3b16de90	0.0023020841
12	0x3b84d086	0.0040531782
13	0xb9fa96cb	-0.00047796065
14	0x3ccfb281	0.025353672
15	0xbafffd57	-0.0019530457
16	0x3b2dcdc8	0.002652036
17	0x3c12c169	0.008957245
18	0xbced5b8f	-0.028974323
19	0xbb97f578	-0.0046374165
20	0x3d129beb	0.035793226
21	0xbcce106e	-0.025154319
22	0xbd55e7a8	-0.052222878
23	0xbc0f5418	-0.008748077
24	0x3c9f4240	0.01944077
25	0x3c341ea6	0.010993635
26	0xbce7ec19	-0.028310822
27	0x3ce81dd1	0.02833453
28	0xbbcd4323	-0.006264107
29	0xbd0f13aa	-0.034930862
30	0xbc944845	-0.018100867
31	0x3c0c8ec1	0.008578957
32	0x3c0d30c4	0.008617584
33	0xbc6f4317	-0.014603398
34	0xbcabbee7	-0.020965053
35	0xbb8d524e	-0.00431279
36	0x3c6d45df	0.014481991
37	0x3b5225e3	0.003206604
38	0xbc5874bc	-0.013211425
39	0x3b0f0be7	0.0021827163
40	0x3bc91a38	0.0061371587
41	0xbca5511e	-0.020180281
42	0x3cd6e4e3	0.026232189
43	0x3adb167b	0.0016715074
44	0x3cd4a7cf	0.025958924
45	0x3b929763	0.004473613
46	0x3b3159fe	0.0027061696
47	0x3ce2b6e5	0.027675102
48	0xbc864271	-0.016389104
49	0xbcd13f66	-0.025542926
50	0x3b0129f4	0.0019708844
51	0x3cef5051	0.029213103
52	0x3b3c5bfa	0.0028741346
53	0xbbbf42cc	-0.00583682
54	0xbba8ea29	-0.005154867
55	0xbb756efe	-0.003745019
56	0xbc82d957	-0.015972776
57	0xbb9a24f0	-0.0047041103
58	0x3c047489	0.008084425
59	0xbb70f9fe	-0.00367701
60	0x3b0cd4f4	0.0021489235
61	0x3b98005f	0.004638716
62	0x3ce39787	0.027782215
63	0xbba57b3b	-0.0050500906
64	0xbc85c2a6	-0.016328167
65	0xbb6dff06	-0.0036315336
66	0x3d206b4a	0.03916482
67	0xbc2fc489	-0.01072801
68	0xbb70cf8c	-0.0036744801
69	0x3be90123	0.007110731
70	0x3c8273da	0.015924383
71	0xbaab2acb	-0.0013059018
72	0xb8bb9012	-8.94369e-05
73	0x3c47971e	0.012182025
74	0xbc49e16c	-0.012321811
75	0xbc591ac4	-0.01325101
76	0xbbd1b932	-0.006400251
77	0x3cd1108e	0.02552059
78	0xbb25b467	-0.002528453
79	0xba660bef	-0.0008775582
80	0x3c672a5d	0.014109221
81	0x3beea4fc	0.0072828513
82	0x3c54ebd8	0.012995683
83	0x3c16474c	0.009172272
84	0xbb6d4fd9	-0.0036210923
85	0x3c04d347	0.008107013
86	0xbb8c6a4e	-0.0042851334
87	0x3c073bf4	0.00825404
88	0x3b3f4646	0.0029186173
89	0xba465071	-0.0007565087
90	0xbc44975b	-0.011998977
91	0x3cc1e2fe	0.023667809
92	0x3a95d176	0.0011430222
93	0x3be13032	0.0068722004
94	0x3c8b1635	0.016978363
95	0x3ccf160e	0.025279071
96	0x3c88a974	0.016682364
97	0x3b153ce3	0.0022771887
98	0xbc570bc3	-0.013125363
99	0x3c4bd83f	0.012441694
100	0x3c6f4c55	0.014605601
101	0xbc0ea1f0	-0.008705601
102	0xbcd2f7b2	-0.025752876
103	0xbcecb508	-0.028894916
104	0xbc7ab510	-0.015301958
105	0x3bcd31e9	0.0062620533
106	0x3c0681d9	0.008209669
107	0x3cb23a9f	0.021756468
108	0x3bbf230a	0.0058330344
109	0xbc938907	-0.018009676
110	0xbc4ccab6	-0.012499502
111	0xbc88efe6	-0.016715955
112	0xbb8da7dd	-0.0043229894
113	0xbc9a74d4	-0.018854536
114	0xba40fbad	-0.00073617214
115	0x3cc8193d	0.024426097
116	0xbc61eff4	-0.013790119
117	0x3c4e2afa	0.012583489
118	0xbc8a521f	-0.016884862
119	0xbc3a47a9	-0.011369624
120	0xbc1e2ecc	-0.009654712
121	0xb977e284	-0.00023640139
122	0x3be859d5	0.007090787
123	0x3b3c8a44	0.0028768936
124	0xbc07a175	-0.00827824
125	0x3b9126fe	0.004429697
126	0x3ba63aac	0.005072912
127	0xba1cb6ec	-0.0005978185
128	0xbb1959f4	-0.0023399564
129	0x3c19dcf3	0.009391057
130	0x3c18d9e1	0.00932929
131	0xbc824ae7	-0.015904857
132	0x3c08ce12	0.008349912
133	0xbaf9c54b	-0.001905599
134	0x3c88a58c	0.016680501
135	0x3b9ae480	0.0047269464
136	0xbcc6d978	-0.024273619
137	0xbd822762	-0.06355168
138	0xbc6fd39f	-0.014637857
139	0x3b014a73	0.0019728213
140	0xbb256f66	-0.00252434
141	0xbc9df472	-0.0192816
142	0x3bf095db	0.007342083
143	0xb9d84670	-0.0004125121
144	0x3b8d71ac	0.0043165293
145	0xbc0d34e2	-0.008618565
146	0x3c535ad0	0.012900069
147	0x397b48c5	0.00023964334
148	0xbc73fc0a	-0.014891634
149	0x3c16bce8	0.009200312
150	0x3bdeba20	0.00679709
151	0x3bb94d75	0.0056549856
152	0xbc6cf24c	-0.014462065
153	0xbc16a8d2	-0.009195523
154	0xbbb129ba	-0.0054065855
155	0xbc103945	-0.008802717
156	0x3af0f1cb	0.0018382607
157	0x3a765e5e	0.0009398217
158	0x3cb6bd95	0.022307197
159	0x3c10a2ad	0.008827847
160	0x3c85e2db	0.016343525
161	0xbbf05df1	-0.0073354174
162	0xbbb3d70c	-0.005488282
163	0xbcfafb5e	-0.03063744
164	0x3bffd884	0.007807793
165	0xbc2b2c01	-0.010447503
166	0xbcd70915	-0.026249448
167	0x3c722f35	0.014781763
168	0xbd914ac4	-0.070943385
169	0x3c9bfff8	0.019042954
170	0x38da7a04	0.00010417777
171	0xbcf4359e	-0.029810723
172	0x3c777323	0.015103134
173	0xb900b0ef	-0.00012272944
174	0xbc35aa42	-0.011087956
175	0xbcb40485	-0.021974811
176	0xb953f982	-0.00020215477
177	0xbc82c858	-0.015964672
178	0xbbb53d14	-0.0055309627
179	0x3c56130a	0.013066063
180	0xbc299a5b	-0.010351743
181	0xba6bf1f4	-0.00090005924
182	0xbc9536ad	-0.018214548
183	0x3cf895ae	0.03034481
184	0xbd5413d1	-0.05177671
185	0xbc2b406d	-0.010452372
186	0xbb9e018c	-0.0048219617
187	0xba5953c1	-0.00082903734
188	0xbb9c2e98	-0.0047662966
189	0x3c5e305d	0.013561335
190	0xbb9cbc69	-0.0047832024
191	0x3ba748ec	0.0051051285
192	0xb921ee44	-0.00015442917
193	0x3a31d6ae	0.0006784004
194	0x3a081641	0.00051913044
195	0xbc1ca9de	-0.009561984
196	0x3d1d07cc	0.038337514
197	0xbd22a6f9	-0.03971002
198	0x3be6a74d	0.007038987
199	0xbd367172	-0.044541784
200	0x3d06ce7e	0.03291177
201	0x3bbc2187	0.0057413015
202	0xbbad5753	-0.005289951
203	0xbbbc9fa8	-0.005756337
204	0xbcade6a6	-0.021228146
205	0xbb92e4f8	-0.0044828616
206	0x3c3e24e6	0.011605477
207	0xbc67d6da	-0.014150346
208	0x3abe6fe2	0.0014529193
209	0xbb431c23	-0.002977141
210	0x3daa53ca	0.08316763
211	0xbccfcb48	-0.025365487
212	0x3b41faeb	0.0029599022
213	0x3c0bd4c3	0.008534613
214	0xbc805cdc	-0.015669279
215	0x3ca7c5b9	0.020480024
216	0x3a796ee6	0.00095151213
217	0x3c65c77c	0.014024612
218	0xbc5e37be	-0.013563095
219	0x3cfca8a1	0.030842127
220	0xbc5f89b2	-0.013643669
221	0x3cc97654	0.024592556
222	0xbc39269b	-0.011300708
223	0x3cefb6e7	0.02926202
224	0xbba72c67	-0.0051017287
225	0x3c759c44	0.01499087
226	0xbd2fad97	-0.042890158
227	0x3c5c7787	0.013456232
228	0x3beab301	0.007162452
229	0x3c03493d	0.008013067
230	0xbd0b5578	-0.034017056
231	0x3d3bb144	0.04582335
232	0xbcacb0ce	-0.0210804
233	0xbca90603	-0.02063275
234	0xbc7611f1	-0.015018926
235	0xbc8d0ce0	-0.017218053
236	0x3af38b45	0.0018580934
237	0xba7df3f4	-0.0009687536
238	0x3c822340	0.01588595
239	0xbcef48d3	-0.02920953
240	0x3bf5e2fe	0.007503866
241	0x3cdb8862	0.02679843
242	0xbc92834c	-0.017884873
243	0x3ba38c2f	0.0049910764
244	0x3a1dde27	0.0006022178
245	0xbc91249d	-0.017717654
246	0xbd3c9b8b	-0.046046775
247	0x3cb24d81	0.021765472
248	0xbcc57ad4	-0.02410642
249	0xbbf9bb23	-0.0076211854
250	0xbc0387e3	-0.008028003
251	0x3ca0658c	0.019579671
252	0x3cb21d4b	0.021742484
253	0x3bddfef6	0.0067747785
254	0xbbc96949	-0.006146584
255	0xbcbe5353	-0.023233091

encoder.FC.L0.expr_L.bias f4 [45]
0	0x3d46367e	0.04839181
1	0xbdfe66d8	-0.1242196
2	0x3d837074	0.06417933
3	0xbde8322b	-0.11337694
4	0xbe08d9d0	-0.13364339
5	0xbe03cd66	-0.12871322
6	0x3c9a9bf7	0.018873198
7	0x3e2f2b38	0.1710633
8	0x3c1e9756	0.009679636
9	0xbdc361b5	-0.095401205
10	0xbe6d089e	-0.23147818
11	0xbcc2ae62	-0.023764793
12	0xbd34cd25	-0.044140954
13	0xbe45d5d7	-0.19319855
14	0x3e977cd4	0.29587424
15	0xbe042085	-0.1290303
16	0xbd5b61d4	-0.053560093
17	0x3d7231b1	0.05912942
18	0x3dc5db8c	0.09661016
19	0x3de577c9	0.11204488
20	0xbca90f0f	-0.020637063
21	0xbcee34d1	-0.02907792
22	0x3f0836ab	0.53208417
23	0xbdc8f62c	-0.098125786
24	0x3fc76191	1.557665
25	0x3c009ea0	0.007850319
26	0xbe720722	-0.23635533
27	0x3d0bf2a6	0.034166954
28	0xbde4706a	-0.11154254
29	0xbebd186a	-0.3693269
30	0x3de54ce9	0.1119631
31	0x3ec11890	0.37714052
32	0x3e3bbe0a	0.18334213
33	0xbe8b0bf8	-0.2715757
34	0xbe952b28	-0.29134488
35	0x3ca80294	0.020509042
36	0xbd7351c8	-0.059404165
37	0xbd438e60	-0.0477432
38	0xbebcf2c9	-0.3690398
39	0xbc524372	-0.012833463
40	0x3dad2333	0.08453979
41	0x3cbbdbe4	0.022932
42	0xbd4d0143	-0.05005003
43	0xbe2f20f1	-0.1710241
44	0xbe1354f3	-0.14387874

encoder.FC.L0.cond_L.weight f4 [45, 10]
0	0x3cae9e24	0.021315642
1	0x3dcd4fa9	0.100249596
2	0xbd28b94c	-0.041192338
3	0x3d0d0376	0.03442713
4	0x3d1a3b51	0.037654225
5	0x3dd63f65	0.1046131
6	0x3dc7374e	0.097273454
7	0xbcd5c04c	-0.02609267
8	0xbd9e186f	-0.07719504
9	0x3e1f7bb1	0.15574528
10	0x3dbb2312	0.091375485
11	0xbbb4eb22	-0.005521194
12	0x3d065d45	0.032803793
13	0x3c43a8f5	0.011942138
14	0x3dab5112	0.08365072
15	0x3c17300a	0.009227762
16	0x3d0aa0d1	0.033844773
17	0xbdbe1db0	-0.09283006
18	0xbd833781	-0.06407071
19	0x3d86896d	0.06569181
20	0x3cf6dac7	0.030133618
21	0x3d62dc41	0.05538583
22	0x3caa1473	0.020761704
23	0x3c18c83f	0.009325086
24	0x3c25a072	0.010109054
25	0x3da663a4	0.08124474
26	0x3b33f8ec	0.0027461601
27	0xbdaf10d6	-0.08548133
28	0xbe0738a4	-0.132052
29	0x3de73f07	0.112913184
30	0x3cd4f50b	0.025995752
31	0xbcbf639d	-0.023362929
32	0x3d4c65af	0.04990166
33	0xbcd93336	-0.026513677
34	0x3cea03e0	0.0285663
35	0x3bd640f0	0.006538503
36	0x3c7f0d0a	0.015567074
37	0x3d60c9b0	0.054879844
38	0x3d10e103	0.035370838
39	0x3d26155d	0.040547717
40	0x3bc3af0c	0.005971795
41	0xbdb6936e	-0.08914839
42	0xbdab6799	-0.08369369
43	0xbd81aafc	-0.06331441
44	0xbd8433ab	-0.064551674
45	0xbd4e7d07	-0.050412204
46	0xbd542aea	-0.05179874
47	0x3cf3e583	0.029772526
48	0x3c6def75	0.014522423
49	0x3d4a23cc	0.049350545
50	0xbc718b16	-0.014742633
51	0xbccbc3ef	-0.024873702
52	0xbe22f0b6	-0.15912136
53	0x3d88c718	0.06678599
54	0xbdfdf12d	-0.12399516
55	0x3cbefe50	0.023314625
56	0x3ccf65ea	0.025317151
57	0xbcd68518	-0.02618651
58	0xbe3f60a6	-0.18689212
59	0x3e2f160c	0.17098254
60	0xbc0b42a0	-0.008499771
61	0xbdc871ae	-0.09787308
62	0x3d83e683	0.06440451
63	0xbc86f7aa	-0.016475517
64	0x3afd6a85	0.0019334113
65	0xbbe16fa8	-0.0068797655
66	0xbc47e957	-0.012201629
67	0x3dd58fee	0.10427843
68	0x3d5ad5af	0.05342644
69	0x3c0ebb3f	0.008711635
70	0xbc5d3071	-0.013500319
71	0xbccdbec7	-0.025115384
72	0x3c8371a9	0.016045408
73	0x3cb84388	0.022493139
74	0x3b9b8336	0.004745866
75	0x3c06618a	0.008201966
76	0xbe1b3d07	-0.15159999
77	0xbd4d370f	-0.050101336
78	0x3c12fed2	0.008971887
79	0xbd8a9fb5	-0.06768743
80	0xbd464002	-0.048400886
81	0x3cf136f6	0.029445153
82	0x3cabe763	0.020984357
83	0xbcac3283	-0.02102018
84	0xbb63fb81	-0.003478736
85	0xbc73ad5b	-0.014872874
86	0xbcb481b1	-0.022034498
87	0x3cd3d768	0.02585955
88	0x3cca41b9	0.024689542
89	0x3ce27b6f	0.027646748
90	0x3c6c76ab	0.0144325895
91	0x3d2207bb	0.039558154
92	0x3d19879a	0.037482835
93	0x3c3474e1	0.011014194
94	0xbcbe4458	-0.023225948
95	0xbd47144e	-0.04860335
96	0x3dd904bd	0.10596607
97	0xbd3ec09c	-0.046570405
98	0xbd1bc229	-0.038026962
99	0x3cf41ced	0.02979895
100	0xbe0767d3	-0.132232
101	0x3e4b161a	0.1983265
102	0xbd31a580	-0.043370724
103	0xbe14e9e0	-0.14542341
104	0xbd822a58	-0.06355733
105	0xbd7a55fe	-0.061117165
106	0x3dc49584	0.0959883
107	0xbe63602d	-0.22204657
108	0xbda0a7f2	-0.07844533
109	0x3e6ed47c	0.23323244
110	0x3d7a4e09	0.061109576
111	0xbdb56f90	-0.088591695
112	0x3e23fbd4	0.16014034
113	0x3dd4c534	0.10389176
114	0x3dc7786a	0.09739764
115	0xbdbf9687	-0.09354883
116	0x3c40e341	0.011772932
117	0x3e56c5af	0.20973848
118	0xbdb2c79f	-0.08729481
119	0xbe6412fe	-0.2227287
120	0xbce5c5ef	-0.028048484
121	0x3d1bcd19	0.038037393
122	0x3c2a6e57	0.010402284
123	0xbc587e3b	-0.013213689
124	0x3d68123f	0.056658026
125	0xbc7a2fcf	-0.0152701875
126	0x3d9ce9a5	0.07661752
127	0xbe138a1a	-0.1440815
128	0x3cdf82a7	0.02728398
129	0xbdd51afa	-0.10405536
130	0xbc8710c0	-0.01648748
131	0xbc7e8cb4	-0.015536476
132	0x3be4d5e7	0.006983507
133	0x3c991763	0.01868791
134	0x3d2d30af	0.042282756
135	0xbd733c2e	-0.059383564
136	0xbb8261d6	-0.003978948
137	0x3d0e34ef	0.03471845
138	0x3c5320d8	0.0128862485
139	0xbad41001	-0.0016179086
140	0xbb84c41f	-0.0040517
141	0xbcbe520c	-0.023232482
142	0xbdf36857	-0.118851356
143	0x3d39b8e4	0.04534234
144	0xbe2d5376	-0.16926369
145	0x3de250a8	0.1105054
146	0xbd8535b2	-0.06504382
147	0x3e0b755d	0.1361899
148	0xbdfd30ce	-0.123628244
149	0x3dbd0873	0.09230127
150	0x3d1c2b71	0.038127366
151	0xbc37a504	-0.011208776
152	0x3d28728f	0.041124877
153	0xbbe21c5d	-0.006900354
154	0x3c52a415	0.012856503
155	0xbd02e6dc	-0.031958446
156	0x3d72f632	0.05931682
157	0xbd3b8115	-0.0457774
158	0x3d1db4d7	0.03850254
159	0x3d0ffda9	0.03515402
160	0xbd421c7c	-0.047390446
161	0x3c41cfbd	0.011829314
162	0x3c9a9e71	0.018874379
163	0xbdd42315	-0.10358254
164	0x3df80ce3	0.12111833
165	0xbda24fac	-0.079253525
166	0x3dc0999e	0.094043
167	0x3e25ac21	0.16178943
168	0x3e3c00e3	0.18359713
169	0xbe885124	-0.26624405
170	0xbd42b52e	-0.047536068
171	0xbd13926b	-0.036028307
172	0xbd8fc03e	-0.07019089
173	0x3dc96345	0.09833387
174	0xbca961f4	-0.02067659
175	0x3c95e966	0.01829977
176	0x3ccbdb4b	0.02488484
177	0xbd026441	-0.03183389
178	0xbd9dedb7	-0.07711356
179	0x3cae77f2	0.021297429
180	0x3d068c86	0.032848857
181	0x3d34915b	0.044083934
182	0x3d26bf89	0.040710006
183	0x3d4008bf	0.04688334
184	0x3d0ac1ae	0.033876114
185	0x3d34e794	0.044166163
186	0x3b4aacae	0.003092568
187	0xbd5e6416	-0.05429467
188	0x3d255dcb	0.04037265
189	0x3d15d39a	0.036578752
190	0x3d0b32f8	0.033984154
191	0x3c1dbcb1	0.009627507
192	0x3c25fcb5	0.010131051
193	0x3cf79ac7	0.03022517
194	0xbc11eedc	-0.008907046
195	0xbbd7f3e1	-0.006590352
196	0xbc8e57cc	-0.01737585
197	0x3c83e733	0.016101455
198	0xbd84465d	-0.06458733
199	0xbd8f7490	-0.070046544
200	0xbcc0fcde	-0.023558076
201	0xbd3af475	-0.04564329
202	0x3bf946f1	0.007607334
203	0x3c5d983a	0.013525063
204	0xb9ebde03	-0.00044988104
205	0xbc6cb2d0	-0.014446929
206	0xbc8e9125	-0.017403195
207	0x3d58e3ac	0.0529515
208	0x3ce0888d	0.027408862
209	0xbd1802a5	-0.037111897
210	0x3c1416b3	0.009038615
211	0xbc125ad3	-0.008932787
212	0xbcda2926	-0.02663095
213	0x3cdc1d0a	0.026869316
214	0x3d141267	0.036150362
215	0x3d646b12	0.055766173
216	0x3d2500c5	0.040283937
217	0xbd650cc5	-0.05592038
218	0x3cb6bed7	0.022307796
219	0x3d311f28	0.043242604
220	0xbdba755f	-0.09104418
221	0xbe1651f5	-0.14679702
222	0x3e120ceb	0.1426274
223	0x3d31b063	0.043381106
224	0xbd19c5f2	-0.03754229
225	0xbc7c971e	-0.0154168885
226	0xbec6b523	-0.3881007
227	0x3d84c258	0.06482381
228	0x3e263fd0	0.1623528
229	0xbe8fe1f0	-0.28102064
230	0x3d74ee06	0.05979731
231	0x3d896563	0.06708791
232	0x3c63ba27	0.013899363
233	0xbdb2ea65	-0.087361135
234	0x3d4bb4ad	0.049732853
235	0x3c3fca57	0.011705956
236	0x3da66e5a	0.08126517
237	0xbdd74253	-0.10510697
238	0x3da87a5c	0.08226463
239	0xbc1acb6b	-0.009447913
240	0xbdee91bd	-0.11648891
241	0xbae49ae9	-0.0017441186
242	0xbda06988	-0.078326285
243	0xbdd7bbe3	-0.105338834
244	0xbd87acf6	-0.066247866
245	0x3ea25ccb	0.3171142
246	0xbe4e5ae9	-0.20151867
247	0x3e8ee00a	0.27905303
248	0x3e857545	0.26066032
249	0xbeef1f93	-0.46703777
250	0xb9b0fd41	-0.00033758025
251	0x3c2be92f	0.010492607
252	0x3d2bb667	0.041922
253	0xbc9a6aa6	-0.018849682
254	0x3c7ca0f7	0.015419236
255	0x3bcccf1c	0.0062502753

encoder.mean_encoder.weight f4 [10, 45]
0	0xbb999995	-0.004687498
1	0xbb918d15	-0.004441867
2	0xb722f27f	-9.712413e-06
3	0xbbea9709	-0.007159118
4	0xbd64ff54	-0.055907562
5	0x3c752ff3	0.014965045
6	0xbd056d71	-0.032575075
7	0x3bd6a493	0.0065503805
8	0xb9ab3dbd	-0.0003266166
9	0x3c863a65	0.016385267
10	0x3c2fa67f	0.010720848
11	0xbc627663	-0.013822171
12	0xbc881b0b	-0.016614458
13	0x3e47982b	0.19491641
14	0x3da95804	0.08268741
15	0x3ac32fbb	0.0014891544
16	0xbd00e7c2	-0.03147102
17	0x3da22eec	0.07919106
18	0xbbb50269	-0.005523969
19	0x3c386863	0.0112553565
20	0xbd29143a	-0.041279055
21	0xbc537d8b	-0.01290835
22	0x3be61960	0.007022068
23	0xbcb3cebf	-0.02194917
24	0x3db7780e	0.089584455
25	0x3bed051e	0.007233276
26	0x3ca2f5ef	0.01989266
27	0x3bbdf3d2	0.005796888
28	0x3d230d18	0.03980741
29	0xbd36f8ee	-0.04467099
30	0x3bbba0b5	0.005725945
31	0xbc242643	-0.010018888
32	0x3c8a955c	0.016916923
33	0x3c6593ba	0.014012272
34	0xbbe737d4	-0.007056216
35	0x3cf52ca3	0.029928511
36	0x3e0994c9	0.13435663
37	0xb9c5b5b4	-0.00037710147
38	0xbe6e2444	-0.23256022
39	0x392b55d3	0.00016339803
40	0xbbaf4314	-0.0053485725
41	0xbbbcee3c	-0.0057657044
42	0xbbe74450	-0.007057704
43	0x3e8af88b	0.27142748
44	0xbca1160c	-0.019663833
45	0xbc250ddb	-0.010074104
46	0x3bd58013	0.006515512
47	0xbb44ebb8	-0.0030047726
48	0x3a9cca96	0.0011962231
49	0x3d86acd0	0.0657593
50	0x3c0eebef	0.008723243
51	0x3d3d5d23	0.0462314
52	0x3b5965bb	0.0033172208
53	0xbd77c6fd	-0.060492504
54	0xbaccec5e	-0.0015634408
55	0xbd37dc35	-0.04488774
56	0xbc1920d3	-0.009346205
57	0x3db003a3	0.08594444
58	0xbd10ed35	-0.03538247
59	0xbc4d320b	-0.012524138
60	0x3ba5fcac	0.005065521
61	0xbcf9c9e5	-0.030491779
62	0xbceae2cd	-0.0286726
63	0xbb1f1850	-0.0024275966
64	0x3ca3ae15	0.01998047
65	0x3e10ef76	0.14153847
66	0xbb4857d4	-0.0030569928
67	0xbbb78fc2	-0.005601854
68	0x3c1e71f2	0.009670721
69	0x3d076fe7	0.033065703
70	0xba220ac6	-0.0006181415
71	0x3c4f11b3	0.012638497
72	0xbb515d97	-0.0031946653
73	0xbe018e50	-0.12651944
74	0xbc8a401a	-0.01687627
75	0xbcd1d5a7	-0.025614573
76	0x3c07be0c	0.008285057
77	0x3d0f1c74	0.034939244
78	0xbd11b407	-0.035572078
79	0x3c6e9f27	0.014564312
80	0xbd07b925	-0.033135552
81	0xbc932952	-0.017964039
82	0x3c737f5f	0.014861911
83	0x3e43bdb5	0.19115336
84	0x3be265ee	0.0069091236
85	0x3952ef87	0.00020116392
86	0x3ce117db	0.027477195
87	0x3a55c327	0.0008154385
88	0x3e2d1404	0.16902167
89	0xbb2aa941	-0.0026040825
90	0xbc1b9d2c	-0.009497922
91	0xbcdac979	-0.026707398
92	0x3cf19846	0.029491555
93	0xbbb7d375	-0.0056099244
94	0x3d47b81a	0.048759557
95	0x3a332f80	0.0006835386
96	0x3d5103fe	0.051029198
97	0xbadf6d4c	-0.0017046123
98	0x3cf80814	0.03027729
99	0x3905cd7a	0.00012760414
100	0x3db4924f	0.08816969
101	0xbcb97825	-0.022640297
102	0xbc9eaa21	-0.019368233
103	0x3a44c491	0.00075060973
104	0xbcbdc29c	-0.023164086
105	0xbce87a30	-0.028378576
106	0xbc939594	-0.01801566
107	0xbd873852	-0.06602539
108	0x3c583402	0.013195993
109	0x3c55883e	0.013032971
110	0x3daf9a34	0.08574334
111	0xbb5e27f7	-0.0033898333
112	0xbc07e3eb	-0.008294086
113	0xbcc28851	-0.023746641
114	0xbc7e0937	-0.015505127
115	0xbbade6e6	-0.0053070663
116	0x3b7e2427	0.0038778873
117	0xbc721a7c	-0.014776822
118	0x3d8172f8	0.06320757
119	0xbbaf6f35	-0.005353833
120	0x3bc99b51	0.0061525484
121	0xbc2d1c86	-0.010565883
122	0x3bfc9a4c	0.0077088233
123	0xba310f71	-0.0006754315
124	0xbdc5bf90	-0.09655678
125	0x3cdb63c8	0.026780978
126	0x3c5e4311	0.013565795
127	0xbd74b4d2	-0.059742756
128	0x3e90f323	0.283105
129	0x3bff6844	0.007794412
130	0xbbe5f3c6	-0.0070175854
131	0xbb984f85	-0.0046481513
132	0xba146f41	-0.000566233
133	0x3da7649e	0.08173488
134	0xbbe92952	-0.0071155215
135	0x3db76565	0.08954886
136	0xbb9070b3	-0.004407966
137	0x3c34b4a0	0.0110293925
138	0xbaac0294	-0.0013123327
139	0x3d250592	0.040288515
140	0x3bf57d67	0.0074917558
141	0xbc24d8c8	-0.01006145
142	0xbc46102c	-0.012088817
143	0x3d66e45d	0.056370128
144	0xbd618e3e	-0.055067293
145	0xbdacb3fb	-0.08432766
146	0x3b30c050	0.0026970096
147	0x3e00ae9b	0.12566607
148	0xbca12f4c	-0.019675873
149	0x3be501ff	0.0069887633
150	0xbd1ef674	-0.038809255
151	0x3df67fb5	0.12036077
152	0xbaaa25df	-0.0012981257
153	0x3dce24d5	0.10065619
154	0x3d6e9593	0.058248114
155	0x3cdadbe5	0.026716182
156	0x3c4da4a9	0.012551465
157	0x39d1c2b1	0.00040008643
158	0xbd3b0924	-0.045663014
159	0x3d21a7d3	0.03946669
160	0x3b463d76	0.0030249036
161	0xbbac5dfd	-0.0052602277
162	0xbca62ac8	-0.020284072
163	0x3e071eb5	0.13195308
164	0xbd749a37	-0.059717383
165	0x3d8c7a58	0.06859273
166	0x3a60e46a	0.0008578958
167	0x3c92f0e9	0.01793714
168	0xbbb35dce	-0.005473829
169	0xbd5fd25b	-0.05464397
170	0x3dd0640a	0.10175331
171	0xbc1b3310	-0.0094726235
172	0xbd095b44	-0.033534303
173	0xbbf87186	-0.0075818924
174	0xba76435f	-0.00093941943
175	0x3b0e2723	0.0021690808
176	0x3c2059b5	0.009787013
177	0xbc2a9169	-0.010410645
178	0xbc02a735	-0.007974436
179	0x3c14d96a	0.009085039
180	0x3bc7b469	0.0060945046
181	0x3b9c5cbf	0.0047717984
182	0x3b0a38c8	0.0021090973
183	0x3d005de9	0.03133956
184	0xbd04cf9e	-0.03242456
185	0xbc1e050b	-0.009644757
186	0xbd5000e9	-0.050782118
187	0xbba1c390	-0.004936643
188	0x3c1ec3ba	0.00969022
189	0x3ba7f793	0.0051259487
190	0x3d5b4e3a	0.0535414
191	0xbd3aa589	-0.045568023
192	0x3c1db6a5	0.009626065
193	0xbdd81603	-0.105510734
194	0xbd8aad81	-0.067713745
195	0x3b06f4e5	0.0020592746
196	0xbc6e403a	-0.01454168
197	0xbe053049	-0.130067
198	0x3caa66e6	0.020801019
199	0xbd102da2	-0.03519977
200	0xbe28fb07	-0.1650201
201	0x3d056685	0.032568473
202	0xbc70917a	-0.014683122
203	0x3c080b22	0.0083034355
204	0xbb9a6702	-0.0047119865
205	0x3c535ef9	0.012901061
206	0x3c2843b3	0.010270047
207	0xbacf3d07	-0.0015811034
208	0x3bfb3d88	0.007667247
209	0xbde98914	-0.11403099
210	0x3b8b48bc	0.004250614
211	0xbbd35665	-0.006449508
212	0x3d27622c	0.04086511
213	0xbc0455d5	-0.008077105
214	0x3be5eb5d	0.007016583
215	0x3cc0a288	0.023515001
216	0xbd3c895f	-0.046029445
217	0xbc904bc3	-0.017614251
218	0xbd53ba95	-0.05169161
219	0x3cd2a0f0	0.025711507
220	0x3d0aa277	0.033846345
221	0x3d1c7a69	0.038202677
222	0xbbb792ec	-0.0056022312
223	0x3d5142f9	0.05108926
224	0x3d0f67b1	0.035010997
225	0x3cdbe79c	0.026843838
226	0x3abd07fd	0.0014421936
227	0x3ce60608	0.028079048
228	0x3c74d1d1	0.014942602
229	0xbd00483d	-0.03131889
230	0xbc985027	-0.018592907
231	0x3b99ce10	0.004693754
232	0xbbe06635	-0.0068481215
233	0x3c237c3b	0.009978349
234	0x3c331c2a	0.010932008
235	0x3d0e9ffe	0.03482055
236	0x3cc700b1	0.024292322
237	0x3d52a7a3	0.051429402
238	0xbe0bc3dd	-0.13648935
239	0xbd2b4c34	-0.04182072
240	0xbb3ae2bc	-0.0028516492
241	0x3c9ad967	0.018902494
242	0xbcf3b41a	-0.029748965
243	0x3c84e813	0.016223943
244	0xbb6b4e5d	-0.0035904862
245	0xbbb03ad3	-0.005378106
246	0x3b87af7f	0.004140794
247	0xbcdebfba	-0.027191032
248	0x3cfba76c	0.030719481
249	0x3d85a9b2	0.065265074
250	0xbaba02b5	-0.0014191481
251	0x3c1deea6	0.009639418
252	0x3bf256c0	0.0073955953
253	0x3be2c0c3	0.0069199516
254	0x3e23cb7a	0.15995589
255	0xba230d5b	-0.00062199467

encoder.mean_encoder.bias f4 [10]
0	0xbd4af06a	-0.049545683
1	0xbd5a3e7c	-0.053282246
2	0xbe7728e2	-0.2413669
3	0xbe3e5902	-0.18588641
4	0xbe03b4fd	-0.1286201
5	0x3d17ba7a	0.037043072
6	0xbd5c2728	-0.05374828
7	0x3db2be88	0.08727747
8	0x3c88c15d	0.016693765
9	0xbd92d647	-0.071697764

encoder.log_var_encoder.weight f4 [10, 45]
0	0xbe0676aa	-0.13131204
1	0xbeee4675	-0.4653813
2	0xbeec044c	-0.46097028
3	0xbeb332dd	-0.34999743
4	0xbe7d07f8	-0.24710071
5	0xbf2228e2	-0.6334363
6	0xbebf41b0	-0.37354803
7	0xbf668e02	-0.90060437
8	0xbe7dc585	-0.24782379
9	0xbe56e071	-0.20984055
10	0xbd3b8668	-0.045782477
11	0xbece8bee	-0.40341133
12	0xbe2ccb1b	-0.16874354
13	0xbe554c53	-0.20829897
14	0xbedbc21c	-0.4292153
15	0xbe9dae17	-0.30796883
16	0xbe137acb	-0.1440231
17	0xbea5d6da	-0.3239048
18	0xbe4f8e53	-0.20269136
19	0xbe893ff8	-0.26806617
20	0xbe288602	-0.1645737
21	0xbeca5bee	-0.39523262
22	0xbe7bf3a4	-0.2460466
23	0xbe83807b	-0.2568396
24	0xbe4d8848	-0.20071518
25	0xbef10248	-0.47072053
26	0xbe27d01d	-0.16387983
27	0xbefa9e0a	-0.489487
28	0xbe0107e5	-0.12600668
29	0xbd13dc52	-0.036098786
30	0xbe67622d	-0.22596045
31	0xbe912101	-0.28345492
32	0xbe7da65f	-0.24770497
33	0xbee4260b	-0.44560274
34	0xbe17a7d1	-0.1481011
35	0xbe424349	-0.1897098
36	0xbe8a9509	-0.2706683
37	0xbe858acc	-0.26082456
38	0xbe89bffe	-0.2690429
39	0xbe32de9a	-0.17467728
40	0xbe8c481a	-0.2739876
41	0xbe3bf233	-0.1835411
42	0xbf0ead30	-0.55733013
43	0xbe8a70e6	-0.2703926
44	0xbefaef5e	-0.49010748
45	0xbe407026	-0.18792781
46	0xbefb839f	-0.49123856
47	0xbef26b20	-0.47347355
48	0xbeb1d24f	-0.34730765
49	0xbe55a376	-0.20863137
50	0xbf2c8e3e	-0.67404544
51	0xbeb97cbb	-0.36227974
52	0xbf61b068	-0.881598
53	0xbe5b04ae	-0.21388504
54	0xbe4536cd	-0.19259186
55	0xbd033a69	-0.032038126
56	0xbed31356	-0.4122569
57	0xbde76392	-0.112982884
58	0xbe6037b2	-0.21896246
59	0xbee91299	-0.45522
60	0xbeac4261	-0.33644393
61	0xbe2ee38b	-0.17078988
62	0xbea9107b	-0.33020386
63	0xbe71b270	-0.23603225
64	0xbe8f4bad	-0.27987424
65	0xbe1ee173	-0.1551569
66	0xbeea4d21	-0.4576197
67	0xbe60b478	-0.21943843
68	0xbe970ae5	-0.295005
69	0xbe4a5d81	-0.19762231
70	0xbef93a64	-0.4867736
71	0xbe348cc7	-0.17631827
72	0xbefbbab8	-0.49165893
73	0xbd21892f	-0.03943747
74	0xbd5a028a	-0.053225078
75	0xbe936e17	-0.2879493
76	0xbe7f4969	-0.24930348
77	0xbe3be1da	-0.18347874
78	0xbed283f0	-0.41116285
79	0xbe236898	-0.15957868
80	0xbe84e6a6	-0.2595722
81	0xbe91d995	-0.28486314
82	0xbe89e298	-0.2693069
83	0xbe885120	-0.26624393
84	0xbe3a83e4	-0.18214375
85	0xbe8b21a2	-0.27174097
86	0xbe446492	-0.1917899
87	0xbf11d60c	-0.56967235
88	0xbe8e02f2	-0.27736622
89	0xbf059c25	-0.5219138
90	0xbdbd56b7	-0.09245055
91	0xbedd8fb1	-0.4327369
92	0xbeede753	-0.4646555
93	0xbeaa4995	-0.33259264
94	0xbe224c5d	-0.15849443
95	0xbf20ab39	-0.62761265
96	0xbecc2a3d	-0.39875975
97	0xbf6c92c7	-0.92411464
98	0xbe625c7b	-0.22105591
99	0xbe5b539c	-0.21418613
100	0xbd1f89be	-0.03894972
101	0xbecba9ce	-0.39777988
102	0xbe8df0d0	-0.27722788
103	0xbe6e92cd	-0.23298188
104	0xbee46866	-0.446109
105	0xbe9ae739	-0.30254534
106	0xbd6e37dd	-0.058158744
107	0xbeb569af	-0.35432193
108	0xbdffde7e	-0.12493609
109	0xbe5bebbb	-0.21476643
110	0xbe524ab2	-0.20536307
111	0xbec9dcb8	-0.39426208
112	0xbde9b5f0	-0.11411655
113	0xbe9e9c5a	-0.30978662
114	0xbde8af51	-0.11361564
115	0xbef79196	-0.4835326
116	0xbe1b0455	-0.15138371
117	0xbf04ad16	-0.5182661
118	0xbe246cba	-0.16057101
119	0xbd610458	-0.054935783
120	0xbe0c92e6	-0.13727912
121	0xbe7942bf	-0.24341868
122	0xbe60df72	-0.21960238
123	0xbeecab4f	-0.46224448
124	0xbdda2fd8	-0.10653657
125	0xbda3d04b	-0.07998713
126	0xbe95bc08	-0.2924502
127	0xbe7c4166	-0.24634323
128	0xbea0087c	-0.31256473
129	0xbe07fa39	-0.13279046
130	0xbe7e8564	-0.24855572
131	0xbe4ff87e	-0.20309636
132	0xbf0b6b7a	-0.5446087
133	0xbe9725b0	-0.2952094
134	0xbee24007	-0.44189474
135	0xbc8b1a26	-0.016980242
136	0xbecf724f	-0.40516898
137	0xbee9ffa2	-0.45702845
138	0xbea599b7	-0.32343838
139	0xbdfa9260	-0.1223495
140	0xbf1df337	-0.6169924
141	0xbecff6bd	-0.40617934
142	0xbf6b9a72	-0.9203254
143	0xbe804dcb	-0.2505935
144	0xbe391c22	-0.18077138
145	0xbccd08fb	-0.025028696
146	0xbed77c7b	-0.4208716
147	0xbe8b9149	-0.2725928
148	0xbe5d109a	-0.21588364
149	0xbede751c	-0.43448722
150	0xbe9139bd	-0.28364363
151	0xbd72e485	-0.059299964
152	0xbeaee7f3	-0.34161338
153	0xbe021084	-0.12701613
154	0xbe55928e	-0.20856687
155	0xbe5fc726	-0.21853313
156	0xbec6c59e	-0.38822645
157	0xbe24a417	-0.1607822
158	0xbe9a9047	-0.301882
159	0xbe1bbbfe	-0.15208432
160	0xbef5bd61	-0.47996047
161	0xbe1b5364	-0.1516853
162	0xbef65e94	-0.48119032
163	0xbe194b80	-0.14970207
164	0xbd753d83	-0.059873115
165	0xbe032270	-0.12806106
166	0xbe81879a	-0.25298768
167	0xbe608502	-0.21925738
168	0xbef10e47	-0.47081205
169	0xbe047f87	-0.12939273
170	0xbd90d6b3	-0.070722006
171	0xbe93fe4c	-0.2890495
172	0xbe8c7c15	-0.27438417
173	0xbea0c585	-0.31400695
174	0xbe20eba2	-0.15714887
175	0xbe76e9e0	-0.24112654
176	0xbe413268	-0.18866885
177	0xbf10d2f0	-0.56571865
178	0xbea65f44	-0.32494557
179	0xbed90935	-0.42389837
180	0xbe21b9e0	-0.15793562
181	0xbf0010c0	-0.5002556
182	0xbef3381e	-0.47503752
183	0xbeb45490	-0.35220766
184	0xbe60c901	-0.21951677
185	0xbf2d8f32	-0.67796624
186	0xbeb406a7	-0.35161325
187	0xbf6a4c3b	-0.9152257
188	0xbe56ad16	-0.20964465
189	0xbe81aba2	-0.25326258
190	0xbd5352a0	-0.05159247
191	0xbedb07af	-0.427793
192	0xbe13acc7	-0.14421378
193	0xbe5555d9	-0.2083353
194	0xbeeb9f92	-0.4602018
195	0xbecd47c7	-0.40093824
196	0xbdd7d7c9	-0.105392046
197	0xbe9f3fcf	-0.3110337
198	0xbe3b8e74	-0.1831606
199	0xbe866ae6	-0.26253432
200	0xbe139014	-0.1441043
201	0xbedf0132	-0.435556
202	0xbe4d6379	-0.20057477
203	0xbeabf828	-0.33587766
204	0xbe237205	-0.15961464
205	0xbefab6c7	-0.48967573
206	0xbe464f58	-0.19366205
207	0xbf1596b6	-0.5843309
208	0xbdca12a7	-0.09866839
209	0xbcd37136	-0.02581082
210	0xbe387592	-0.180136
211	0xbe80c55b	-0.2515057
212	0xbe584169	-0.21118702
213	0xbeed00fb	-0.4628981
214	0xbe208140	-0.15674305
215	0xbe121fe3	-0.14269976
216	0xbe91714c	-0.2840675
217	0xbe9cbfe8	-0.30615163
218	0xbe95c875	-0.292545
219	0xbe321721	-0.17391635
220	0xbe859438	-0.26089644
221	0xbe400ce2	-0.18754914
222	0xbf207f51	-0.6269427
223	0xbe78e561	-0.24306251
224	0xbee2865b	-0.4424313
225	0xbe00df5b	-0.12585203
226	0xbeed3242	-0.46327406
227	0xbee3ed27	-0.4451687
228	0xbec953cc	-0.39321744
229	0xbe744b70	-0.23856902
230	0xbf2dd74f	-0.6790666
231	0xbebd8cd5	-0.3702151
232	0xbf7a08fa	-0.9766995
233	0xbe5ce2f2	-0.21570948
234	0xbe695201	-0.22785188
235	0xbcef7e09	-0.029234903
236	0xbed49a67	-0.4152405
237	0xbe3f1514	-0.18660384
238	0xbe4e766d	-0.20162363
239	0xbedc1097	-0.42981407
240	0xbeb13d2c	-0.34616983
241	0xbddfa566	-0.10920219
242	0xbe9c50e8	-0.30530477
243	0xbe264efa	-0.16241065
244	0xbe668cff	-0.22514723
245	0xbe204de7	-0.15654717
246	0xbeea2b58	-0.45736194
247	0xbe4537f9	-0.19259633
248	0xbe8df64f	-0.2772698
249	0xbe19485b	-0.14969008
250	0xbf0c7b00	-0.54875183
251	0xbe3c3711	-0.18380381
252	0xbf03730a	-0.5134741
253	0xbdfb8e1d	-0.12282965
254	0xbd23a4c7	-0.039952066
255	0xbe3c2ece	-0.1837723

encoder.log_var_encoder.bias f4 [10]
0	0xbf813fa8	-1.0097551
1	0xbf82ee72	-1.0229018
2	0xbf708020	-0.93945503
3	0xbf793da1	-0.97359663
4	0xbf83643f	-1.0264968
5	0xbf823436	-1.0172184
6	0xbf8baa62	-1.0911372
7	0xbf5c1b3b	-0.8597905
8	0xbf857847	-1.0427331
9	0xbf890f6e	-1.0707834

decoder.FirstL.L0.expr_L.weight f4 [45, 10]
0	0xbdc97840	-0.09837389
1	0x3c48f360	0.012265056
2	0xbe0e3b3b	-0.13889782
3	0x3dccfe6c	0.100094646
4	0xbdf7a722	-0.12092425
5	0xbce18fe5	-0.027534435
6	0x3e4bdac5	0.19907673
7	0x3c1d031e	0.009583263
8	0xbdf1e930	-0.11812055
9	0xbe8368cc	-0.2566589
10	0xbcc38f16	-0.02387194
11	0x3e2f7436	0.17134175
12	0xbe4afece	-0.19823763
13	0x3d999f93	0.075011395
14	0xbce3ded3	-0.027816212
15	0x3cff12ec	0.031136952
16	0xbed4e8ab	-0.41583762
17	0x3c79fff3	0.015258777
18	0x3ee455c2	0.44596678
19	0xbdcd1ad5	-0.100148834
20	0xbdf35aa6	-0.11882524
21	0xbe19f3b8	-0.15034378
22	0xbc3ee379	-0.011650913
23	0x3d36402f	0.044494804
24	0x3d3f6c78	0.046734303
25	0xbc86bc41	-0.016447188
26	0xbda235ca	-0.07920416
27	0x3d11bfcc	0.035583302
28	0x3cea44dc	0.028597288
29	0x3de7c1e4	0.113162786
30	0x3e01aa33	0.12662582
31	0xbe091189	-0.13385595
32	0xbcd23ea7	-0.02566464
33	0x3d7a609e	0.061127298
34	0xbe159389	-0.14607061
35	0x3ddd5856	0.10807864
36	0x3e854fb9	0.26037386
37	0xbc5b3ff1	-0.013381944
38	0x3da88549	0.08228547
39	0x3df39a16	0.11894624
40	0xbc92b7d6	-0.017909925
41	0x3d35fa0e	0.044427924
42	0x3e41f911	0.18942668
43	0xbe03e95c	-0.12881988
44	0x3de23e5f	0.110470526
45	0x3d4c84a7	0.049931195
46	0xbd73c8da	-0.05951772
47	0xbd6508ac	-0.055916473
48	0x3cefb7db	0.029262474
49	0xbda54028	-0.080688775
50	0xbc40844b	-0.011750291
51	0x3c4283a1	0.011872203
52	0x3d0ec5c7	0.034856584
53	0x3dc6dd3d	0.097101666
54	0x3e2a2f5a	0.16619626
55	0xbea185a1	-0.31547263
56	0x3e336e35	0.1752251
57	0xbd24c683	-0.040228378
58	0x3dfd78c6	0.12376551
59	0x3d4a1fcd	0.049346734
60	0x3afe6cc8	0.0019411081
61	0x3c892a85	0.016743908
62	0xbc88744b	-0.016657015
63	0x3d3f7a42	0.046747454
64	0xbbc8f434	-0.006132627
65	0x3c944364	0.01809854
66	0x3cb4fbc4	0.022092707
67	0xbc842dc4	-0.016135104
68	0x3d5e3533	0.054249953
69	0x3b8d7bd0	0.004317738
70	0xbe06f27e	-0.13178441
71	0x3e6deb1f	0.23234223
72	0xbda417bf	-0.08012342
73	0x3dad423b	0.08459898
74	0x3e7846ef	0.24245809
75	0x3e070c80	0.13188362
76	0x3dd19034	0.10232583
77	0xbd8c1429	-0.06839783
78	0x3c4139c9	0.011793562
79	0x3d665804	0.056236282
80	0x3c9fbd9a	0.019499589
81	0x3d157e7a	0.03649757
82	0xbcd4d114	-0.025978602
83	0x3d67beb9	0.05657837
84	0xbc4ac092	-0.012375014
85	0x3ca56202	0.020188335
86	0xbcf9a3da	-0.030473638
87	0xbc14f111	-0.009090678
88	0x3bff00ae	0.0077820634
89	0x3d25d73b	0.040488463
90	0xbe19871d	-0.14992948
91	0x3c68195f	0.014166205
92	0xbdad183c	-0.08451888
93	0xbd9d21c6	-0.076724574
94	0x3e03ef08	0.12884152
95	0xbe98de14	-0.29856932
96	0xbdd87185	-0.10568527
97	0x3c7beab8	0.0153757855
98	0xbd42153d	-0.047383536
99	0x3d9cc111	0.07654012
100	0x3e0ccada	0.13749257
101	0xbe440d34	-0.19145662
102	0x3ca9609b	0.020675948
103	0x3c758935	0.014986326
104	0xbe15c5ed	-0.14626284
105	0xbdf203ce	-0.11817132
106	0xbd52a314	-0.051425055
107	0x3c976caf	0.018484442
108	0x3d94f76a	0.07273753
109	0xbdb16691	-0.08662141
110	0x3e471281	0.19440652
111	0xbd8bd77f	-0.06828212
112	0xbd86f315	-0.06589333
113	0xbd69df41	-0.057097677
114	0xbe15377b	-0.14571945
115	0xbe6cc75f	-0.23122929
116	0x3e0abc5a	0.13548413
117	0xbb93dd1d	-0.0045124427
118	0x3da5adf7	0.08089822
119	0xbdbaf89b	-0.09129449
120	0x3df1b7d4	0.118026406
121	0xbd4cc11d	-0.049988855
122	0x3d5ab397	0.053393926
123	0xbdb24d4d	-0.0870615
124	0xbcd92c77	-0.02651046
125	0xbe9f4f12	-0.31115013
126	0xbdb86edf	-0.09005522
127	0x3d936a7f	0.07198047
128	0x3e398d1b	0.18120234
129	0xbb043231	-0.0020171518
130	0xbda727ab	-0.08161863
131	0xbbb78e3d	-0.005601673
132	0xbd74c61a	-0.059759237
133	0x3cf64bbe	0.030065414
134	0xbcd508c3	-0.026005154
135	0x3e743311	0.23847605
136	0xbe36ae40	-0.17839909
137	0x3d319966	0.043359183
138	0xbe70475d	-0.23464723
139	0x3daef129	0.085420914
140	0xbe62d00e	-0.22149679
141	0x3d8b5f2d	0.06805263
142	0x3df2263d	0.118236996
143	0xbd939917	-0.07206934
144	0xbc4760c3	-0.012169066
145	0xbdee166d	-0.11625371
146	0xbe1b2ddb	-0.15154211
147	0x3baaf5d5	0.0052172937
148	0x3c9bc6ef	0.019015757
149	0xbe3d633a	-0.18494883
150	0x3cfebd3d	0.031096095
151	0x3d03c769	0.032172594
152	0x3d20e408	0.039279968
153	0x3d28261f	0.04105198
154	0x3d900fa5	0.07034234
155	0xbd81a80f	-0.06330883
156	0xbc580eae	-0.013187094
157	0xbd03162c	-0.032003567
158	0x3dae3b1d	0.08507369
159	0x3ced4fc4	0.0289687
160	0xbdc9d9c2	-0.09855987
161	0xbde962df	-0.11395811
162	0xbd8b83db	-0.06812259
163	0xbdd0a97e	-0.10188578
164	0xbe417b55	-0.18894704
165	0x3e940381	0.28908923
166	0xbd9c5c59	-0.076348014
167	0x3d3d16c7	0.0461643
168	0x3e0896f4	0.13338834
169	0xbd73b16d	-0.05949538
170	0x3e616ea1	0.22014858
171	0x3de5a2d6	0.11212699
172	0xbc7b356f	-0.015332564
173	0x3d898777	0.06715291
174	0x3ddf52a6	0.10904436
175	0x3d6e922b	0.058244865
176	0xbdb6069d	-0.0888798
177	0xbd1f8df1	-0.038953725
178	0xbe469a27	-0.19394742
179	0xbe13d734	-0.14437562
180	0xbdd2e933	-0.102983855
181	0xbd5442f3	-0.05182166
182	0x3d1f472c	0.038886234
183	0x3cae533d	0.021279925
184	0xbd08ffa1	-0.03344691
185	0x3cc28f7e	0.023750063
186	0x3ed241fe	0.41065973
187	0xbd9e9cf5	-0.07744781
188	0x3dcab61d	0.098980166
189	0xbec87c0e	-0.39157146
190	0xbd33a3cb	-0.043857377
191	0xbccf4496	-0.025301259
192	0xbcf4809c	-0.029846482
193	0xbd74152a	-0.059590496
194	0xbe980271	-0.29689363
195	0x3d4c8304	0.049929634
196	0x3d21d2a4	0.039507523
197	0x3bcf8f5e	0.0063342294
198	0x3d1e604d	0.03866606
199	0x3e2f28bd	0.17105384
200	0xbddfc696	-0.10926549
201	0xbe26d2b7	-0.16291319
202	0xbd906977	-0.07051366
203	0xba8f2b4a	-0.0010922935
204	0xbdd874e1	-0.10569168
205	0xbe40b4f0	-0.18819022
206	0xbdc2c833	-0.09510841
207	0xba89c7cf	-0.0010511818
208	0xbe2be8a2	-0.16787961
209	0x3e768dc6	0.2407752
210	0x3cf87523	0.030329293
211	0x3d0d64c2	0.03451992
212	0x3df60aea	0.120138004
213	0x3cf8c277	0.030366166
214	0x3d6c2952	0.057656594
215	0xbd7ec2ba	-0.062197424
216	0x3d20c9b9	0.039254878
217	0xbce86f2e	-0.028373327
218	0x3e15c92a	0.14627519
219	0x3cc82816	0.024433177
220	0x3bad3a91	0.0052865227
221	0xbb2034d6	-0.0024445555
222	0x3ba258a6	0.0049544154
223	0x3d188ba0	0.03724253
224	0x3c543f6d	0.012954575
225	0x3ca3fbe6	0.020017575
226	0xbce05421	-0.027383866
227	0x3b179f01	0.0023135545
228	0xbc8fcad7	-0.017552776
229	0x3cb4c471	0.022066327
230	0xbe559a00	-0.20859528
231	0x3de4c7ba	0.11170907
232	0xbcdf2ef5	-0.02724407
233	0x3d91002b	0.0708011
234	0x3e0675fc	0.13130945
235	0xbdd59d1c	-0.10430357
236	0xbe6eaab8	-0.23307312
237	0xbc966aa8	-0.018361405
238	0xbdecd23b	-0.11563536
239	0xbde77f77	-0.11303609
240	0xbcac00dc	-0.020996504
241	0xbe64e319	-0.22352256
242	0x3dab21d9	0.08356065
243	0xbd6fb038	-0.058517665
244	0x3d9e98ff	0.077440254
245	0x3d52d068	0.051468283
246	0xbe5a4157	-0.21313988
247	0xbc82cb33	-0.015966034
248	0xbd898dff	-0.06716537
249	0xbd326914	-0.04355724
250	0xbda2287e	-0.079178795
251	0xbe28d600	-0.16487885
252	0xbccfbd61	-0.025358858
253	0xbdce7771	-0.100813754
254	0xbdd5f6ba	-0.1044745
255	0xbd91d935	-0.07121507

decoder.FirstL.L0.cond_L.weight f4 [45, 10]
0	0xbcb56715	-0.02214388
1	0xbc3b709e	-0.011440424
2	0xbbe389de	-0.0069439253
3	0x3d90f059	0.07077093
4	0x3b1c6cab	0.0023868482
5	0xbd8f513b	-0.06997915
6	0x3c0b51ca	0.008503387
7	0xbcd52ad0	-0.026021391
8	0x3d309e70	0.043119848
9	0x3cf1bcb7	0.029508932
10	0xbba1482e	-0.0049219346
11	0xbc79df7a	-0.015251035
12	0xbd5a443c	-0.05328773
13	0x3cf662b2	0.030076358
14	0x3d9dd50a	0.077066496
15	0xbe028073	-0.12744312
16	0x3d02936a	0.031878866
17	0xbce1a564	-0.027544685
18	0xbc68eb59	-0.0142162675
19	0x3ca2e862	0.0198862
20	0xbbf36d35	-0.00742879
21	0xbc6d9e17	-0.014503024
22	0xbcc2cd09	-0.023779409
23	0x3d78bad9	0.060725067
24	0xbd4a6061	-0.04940832
25	0xbca04036	-0.019561868
26	0xbcd5afdf	-0.026084838
27	0xbcb54cb2	-0.022131298
28	0xb9d5fa93	-0.00040813218
29	0xbd562174	-0.052277997
30	0xba34f50a	-0.0006902969
31	0xbcbecdf5	-0.023291567
32	0xbb3e2422	-0.0029013236
33	0x3ae15535	0.0017191531
34	0x3c1017e9	0.008794763
35	0xbbe7a912	-0.0070697153
36	0x3c02da3f	0.007986604
37	0xbbc28872	-0.0059366757
38	0xbc0e3fa3	-0.008682164
39	0x3c940ad8	0.018071577
40	0x3c4b5251	0.0124097625
41	0x3d520378	0.05127284
42	0x3bac988c	0.0052672084
43	0xbd503bd4	-0.050838307
44	0xbbb9a289	-0.0056651277
45	0x3e18fd8b	0.14940469
46	0xbc943b38	-0.018094644
47	0x3cdcedd9	0.026968883
48	0xbcd5ab0a	-0.026082534
49	0x3cb824d1	0.022478493
50	0x3cef01f4	0.029175736
51	0x3ae04fba	0.0017113604
52	0x3dd9fda2	0.1064408
53	0xbde0fbda	-0.10985537
54	0xbd544e2f	-0.051832374
55	0x3de4d039	0.11172528
56	0xbd41a1c5	-0.047273416
57	0x3d90e51d	0.0707495
58	0xbd819246	-0.063267276
59	0xbda7a4a1	-0.08185697
60	0xbcfd3367	-0.0309083
61	0x3de32170	0.11090362
62	0xbd65dcdf	-0.056118842
63	0xbd53ec40	-0.051738977
64	0x3d47daf6	0.0487928
65	0x3d872f53	0.06600823
66	0x3d3a34a3	0.045460355
67	0x3e07a8cd	0.13247986
68	0x3d4415c3	0.047872316
69	0x3d5d1a5f	0.053980228
70	0xbc3819b1	-0.011236594
71	0xbc1a3c1a	-0.009413743
72	0xbbb5629c	-0.005535437
73	0x3b03d0af	0.0020113399
74	0xbc33c0c9	-0.0109712565
75	0xb95d587d	-0.00021109167
76	0xbbd202ad	-0.0064090104
77	0x3cc5f8c1	0.024166467
78	0xbb207084	-0.0024481127
79	0xbbb54d20	-0.0055328757
80	0x3df77425	0.120827
81	0xbdc6324c	-0.09677562
82	0x3d5f6a97	0.05454501
83	0xbdd9e536	-0.10639422
84	0xbdcd8ce2	-0.10036637
85	0xbd4bde8f	-0.049772795
86	0xbd342bb1	-0.04398698
87	0xbe2b32fd	-0.16718669
88	0x3d585357	0.052813854
89	0xbc609806	-0.01370812
90	0xbc421ade	-0.011847226
91	0xbc0ba126	-0.0085223075
92	0xbc1d310e	-0.009594215
93	0xbcce030b	-0.025147935
94	0xbc150f77	-0.009097925
95	0xbad182f8	-0.0015984466
96	0xbcd25ded	-0.025679553
97	0xbc512612	-0.012765424
98	0xbcb684e6	-0.022280168
99	0xbcd7f3c7	-0.02636136
100	0x3c2df20b	0.01061679
101	0x3c7e83d1	0.015534357
102	0x3d00d745	0.031455297
103	0x3c407d20	0.011748582
104	0x3c52c117	0.012863419
105	0x3c85833f	0.016297935
106	0x3b39a2b3	0.0028325736
107	0xbc15773f	-0.009122669
108	0x3c572ee0	0.013133734
109	0xbbb10da1	-0.005403236
110	0x3cb4782a	0.022029955
111	0x3cc1ed63	0.023672765
112	0xbd003676	-0.031301938
113	0xbd579110	-0.052628577
114	0x3cba9c0b	0.022779485
115	0xbc172e70	-0.00922738
116	0xbaf94e1c	-0.0019020471
117	0x3a0594d6	0.00050957256
118	0x3bbd2d7a	0.0057732435
119	0x3c67417e	0.014114736
120	0x3c97f13f	0.018547652
121	0xbcdac3ee	-0.026704755
122	0xbc52ca5b	-0.012865628
123	0x3d72844b	0.059208196
124	0xbdab8e97	-0.08376806
125	0x3cdbed04	0.026846416
126	0xbd398337	-0.04529115
127	0xbc3b1579	-0.011418694
128	0x3c063e75	0.008193602
129	0xbd079b3b	-0.033107024
130	0x3d0d3130	0.034470737
131	0xbd3f001b	-0.04663096
132	0xbd990736	-0.074720785
133	0xbceffc33	-0.029295063
134	0x3dd0f16d	0.10202298
135	0xbde8b8bc	-0.1136336
136	0xbc90ee88	-0.017691866
137	0xbda0fea0	-0.07861066
138	0xbda5052d	-0.08057628
139	0x3c5e365f	0.013562768
140	0x3b51799a	0.003196335
141	0xbb6b0b1d	-0.0035864778
142	0xbca2a425	-0.01985366
143	0xbc33c2d6	-0.0109717455
144	0x3ab5629f	0.0013838595
145	0x3ab8d31d	0.0014101003
146	0xbc49407a	-0.012283439
147	0xbc192c46	-0.0093489345
148	0xbca16a9d	-0.019704157
149	0xba257475	-0.0006311604
150	0xbe3648ee	-0.17801258
151	0x3d5ca966	0.05387249
152	0x3ce6b8fc	0.02816438
153	0xbd71245b	-0.058872562
154	0x3bf19464	0.007372426
155	0x3dae55da	0.08512469
156	0xbc4c93ed	-0.01248644
157	0xbb1f516a	-0.0024310001
158	0x3d55915b	0.052140575
159	0xbd91baef	-0.07115733
160	0xbd6744a2	-0.056461938
161	0xbca1dba3	-0.019758051
162	0xbd8642ca	-0.06555708
163	0x3d4fc55f	0.050725337
164	0x3d86a1e1	0.06573845
165	0xbe23d7ff	-0.16000365
166	0x3d404f57	0.046950664
167	0xbd5a56ac	-0.053305313
168	0x3bf966ed	0.0076111467
169	0x3dc12ce1	0.09432388
170	0x3d0f0da7	0.03492513
171	0xbce72f82	-0.028220896
172	0xbbb6b9cb	-0.0055763475
173	0xbd7dd0e9	-0.06196681
174	0x3bbf7db8	0.0058438443
175	0x3d6bb268	0.05754319
176	0xbb2df149	-0.0026541522
177	0xbc66ea01	-0.014093877
178	0xbce25a68	-0.027631
179	0xbc866e01	-0.016409876
180	0x3bb5f5fa	0.0055530043
181	0x3d8491a0	0.06473088
182	0x3c408441	0.011750282
183	0xbc22ac08	-0.009928711
184	0xbce9b16f	-0.02852699
185	0x3d661c74	0.05617948
186	0xbd0f3079	-0.034958337
187	0xbbeb0191	-0.0071718176
188	0xbb9bda08	-0.004756216
189	0xbd2a1567	-0.041524317
190	0x3c1cc53a	0.009568507
191	0xbc90e814	-0.017688788
192	0xbd6aeb68	-0.057353407
193	0xbca62a11	-0.02028373
194	0x3d7772d2	0.060412236
195	0xbda9d951	-0.08293403
196	0x3cc75ed3	0.024337208
197	0xbc720570	-0.014771804
198	0xbc954b98	-0.018224522
199	0x3cf41149	0.029793398
200	0x3be12cb4	0.006871784
201	0x3d217012	0.03941352
202	0xbcc30b2b	-0.023809036
203	0x3c230ea4	0.009952221
204	0x3ce4fe51	0.027953299
205	0xbb3a86a9	-0.0028461611
206	0x3c98754f	0.018610625
207	0x3a82dae8	0.0009983452
208	0x3ccf076d	0.025272096
209	0xba30ae57	-0.0006739846
210	0x3d1a01ca	0.037599362
211	0x3d3461e1	0.044038657
212	0x3cdbba9b	0.026822379
213	0xbbceee04	-0.006314995
214	0xbc238939	-0.009981447
215	0x3dc7f16c	0.097628444
216	0xbd727ea2	-0.059202798
217	0x3d3046d5	0.0430363
218	0x3d8c080c	0.06837472
219	0xbdf37288	-0.118870795
220	0x3d5d6aa9	0.054056797
221	0x3dcb3234	0.09921685
222	0xbc6961cb	-0.014244507
223	0x3d327aac	0.04357402
224	0xbdb379d2	-0.0876347
225	0xbca68ec5	-0.02033175
226	0xbdc5be80	-0.096554756
227	0x3dd4a50e	0.10383044
228	0x3d12302f	0.035690483
229	0x3dae09f8	0.08497995
230	0x3aff2a18	0.0019467501
231	0xbb865d8a	-0.004100506
232	0x3c379e47	0.01120717
233	0x3a833411	0.0010010024
234	0xbb91f622	-0.00445439
235	0x3ce7888e	0.028263357
236	0xbb8531f6	-0.0040647937
237	0x3b9a7e91	0.004714795
238	0xbc87db18	-0.016583964
239	0xbc0b5e9f	-0.008506446
240	0x3ca53019	0.020164536
241	0xba45eef3	-0.000755056
242	0x3c99368d	0.01870277
243	0xbc0760f5	-0.008262862
244	0x3b035a92	0.0020042998
245	0x3c859171	0.016304703
246	0x3c36f75e	0.011167375
247	0xbc31682b	-0.010828058
248	0xbcadae9e	-0.021201428
249	0x3b01ec32	0.0019824621
250	0xbc4a4c3a	-0.012347275
251	0xbd007602	-0.03136254
252	0xbcb64a50	-0.022252232
253	0x3d216d71	0.039411012
254	0x3d94268e	0.07233916
255	0x3c629131	0.013828562
