models/reference_retraining22/model_params.pt (torch, 745346 bytes, 12 tensors)

embeddings.0.weight f4 [79, 10]
0	0xbe84624c	-0.25856245
1	0xbe77b42b	-0.24189822
2	0xbc20a57e	-0.009805081
3	0xbeb32998	-0.3499267
4	0xbd401561	-0.04689539
5	0xbd9b59ad	-0.07585464
6	0xbe1f2a9d	-0.155436
7	0xbe5b522e	-0.21418068
8	0x3e3505e0	0.17678022
9	0x3e8b15da	0.2716511
10	0xbe884f32	-0.2662292
11	0xbe523f83	-0.2053204
12	0xbc80181b	-0.015636494
13	0xbe890cf5	-0.26767698
14	0x3d9393e7	0.072059445
15	0xbddb351a	-0.10703488
16	0xbdac28ad	-0.08406196
17	0xbe9a9ad9	-0.30196264
18	0x3e25bb9b	0.16184847
19	0x3e84c329	0.25930145
20	0xbe912387	-0.28347418
21	0xbe5a1883	-0.21298413
22	0x3d474839	0.04865286
23	0xbeacab07	-0.33724234
24	0xbc40739f	-0.011746316
25	0xbd75987b	-0.05995987
26	0xbdc1ecb0	-0.09468973
27	0xbe79f0fb	-0.24408333
28	0x3e3b4264	0.18287045
29	0x3e8d62b5	0.2761437
30	0xbe78297a	-0.24234572
31	0xbecbdb79	-0.39815882
32	0xbe145f6a	-0.14489523
33	0xbefa9e9f	-0.48949143
34	0x3bc641f2	0.0060503418
35	0xbd108d0a	-0.035290755
36	0x3d32c26f	0.043642458
37	0xbe160bb6	-0.14652905
38	0x3e2bff8d	0.16796704
39	0xbb9a9a09	-0.0047180695
40	0xbe739305	-0.23786552
41	0xbea75918	-0.3268516
42	0xbe4e8c31	-0.20170666
43	0xbec37b6a	-0.38180095
44	0x3dac28da	0.08406229
45	0x3ccbe077	0.024887307
46	0x3d2eec53	0.042705845
47	0xbe342c4a	-0.1759502
48	0x3e4bdc0c	0.1990816
49	0x3e67d009	0.22637953
50	0xbd56bf7c	-0.052428707
51	0xbe2aebc0	-0.16691494
52	0xbe82be39	-0.25535753
53	0xbef684c3	-0.48148164
54	0x3cd594c5	0.026071915
55	0xbd6ac1c4	-0.057313696
56	0x3d669f18	0.056304067
57	0xbd8086b0	-0.062756896
58	0x3e57576b	0.21029441
59	0x3e130792	0.14358357
60	0xbe7faf16	-0.24969134
61	0xbdf839b9	-0.12120385
62	0xbe7b9801	-0.24569704
63	0xbeabfab6	-0.33589715
64	0x3e2aac6f	0.1666734
65	0x3e1ce442	0.15321448
66	0x3e4d8c52	0.20073059
67	0x3e0f731d	0.14008756
68	0x3f0bf749	0.546742
69	0x3e68aaa6	0.22721347
70	0xbe9ffcc8	-0.31247544
71	0xbe329610	-0.17440057
72	0xbe260af6	-0.16215119
73	0xbef72adb	-0.48274884
74	0xbd330012	-0.04370124
75	0xbd9f2046	-0.077698275
76	0xbb845f2c	-0.0040396657
77	0xbd6f2fce	-0.0583952
78	0x3df0a883	0.11750891
79	0x3daa4fcd	0.08316002
80	0xbeb0da0b	-0.34541354
81	0x3e9d8e92	0.30772835
82	0xbd888017	-0.06665056
83	0xbe05eb12	-0.13077953
84	0xbc674d90	-0.014117613
85	0xbd9f8233	-0.077885054
86	0xbe426e5c	-0.18987411
87	0xbeec8e96	-0.46202534
88	0x3e910d18	0.28330302
89	0xbe08a015	-0.13342316
90	0xbeb34ba5	-0.3501865
91	0x3e9da4fc	0.30789936
92	0xbea9cf6c	-0.33166063
93	0xbd1893c2	-0.037250288
94	0xbd280ecc	-0.041029736
95	0xbda13900	-0.078722
96	0x3c69bff2	0.014266955
97	0xbed24237	-0.41066143
98	0x3ea5aa29	0.32356384
99	0x3e13f616	0.14449343
100	0xbe9bdfd6	-0.3044421
101	0x3e1f3fb8	0.1555165
102	0xbecaa793	-0.39580974
103	0xbe3b9c01	-0.1832123
104	0xbe24af21	-0.16082431
105	0xbe1e9d0c	-0.15489596
106	0x3dbcb6d2	0.09214558
107	0xbe6cf545	-0.23140438
108	0x3e3fad6f	0.18718503
109	0x3e6697a4	0.22518784
110	0xbe904e58	-0.28184772
111	0xbdcc895c	-0.09987137
112	0xbe02e4f1	-0.12782647
113	0xbe7f0e6b	-0.24907844
114	0x3d8b7d71	0.068110354
115	0xbe938605	-0.28813186
116	0x3eb66811	0.3562627
117	0x3e4c0654	0.19924289
118	0x3ee689af	0.4502692
119	0xbe00eb55	-0.12589772
120	0xbe357896	-0.17721781
121	0x3b690ed4	0.0035561817
122	0xbe101ca1	-0.14073421
123	0xbe86e089	-0.26343182
124	0xbe0b5219	-0.13605537
125	0xbeb15484	-0.34634793
126	0x3e80d2f3	0.2516094
127	0x3e5a264a	0.21303669
128	0x3ea4f420	0.32217503
129	0xbdd96cad	-0.106164314
130	0xbef1a43d	-0.47195616
131	0x3db3cd4e	0.08779393
132	0xbc34f2cf	-0.011044218
133	0xbe750d4f	-0.23930858
134	0xbe0cadbf	-0.13738154
135	0xbea4286d	-0.32062092
136	0x3e2ce475	0.16884024
137	0x3b7b9d27	0.003839323
138	0x3ea42c03	0.32064828
139	0xbd896ca3	-0.06710174
140	0xbe8166b7	-0.25273678
141	0x3dcefddf	0.10107016
142	0x3dcc06cc	0.09962234
143	0xbe9242a6	-0.28566474
144	0xbe131162	-0.143621
145	0xbeab0d24	-0.33408463
146	0x3e1718a7	0.14755498
147	0x3d0cf91b	0.034417253
148	0x3e95f7b1	0.29290536
149	0xbe244a57	-0.16043983
150	0xbee01552	-0.43766266
151	0xbbabae1d	-0.005239262
152	0xbcac8418	-0.021059081
153	0xbd91f612	-0.07127012
154	0xbd9836af	-0.07432305
155	0xbeaea2d8	-0.34108615
156	0x3e8caf0f	0.2747731
157	0x3ced8d3c	0.02899801
158	0x3edbd723	0.42937574
159	0xbd675bcc	-0.05648403
160	0xbea656ad	-0.32488003
161	0xbdd7bb25	-0.10533742
162	0xbe46594e	-0.19370005
163	0xbebaa78c	-0.36455953
164	0xbc2a72df	-0.010403364
165	0xbe8e0e47	-0.27745268
166	0x3e96d05d	0.29455844
167	0x3ebcc9a6	0.36872596
168	0x3ec6019d	0.38673106
169	0xbe3a458a	-0.1819059
170	0xbbc25f5a	-0.005931777
171	0x3e00c5ba	0.12575427
172	0x3e202980	0.15640831
173	0xbeec6a79	-0.46174982
174	0xbeefbb1c	-0.4682244
175	0xbeb669f5	-0.35627714
176	0x3e5f13a1	0.21784832
177	0x3e647eda	0.22314015
178	0x3ea612ba	0.32436162
179	0xbe84ce5d	-0.25938693
180	0x3d1e0dce	0.038587384
181	0xbe153a0a	-0.14572921
182	0xbdc5f352	-0.0966555
183	0x3e675dcc	0.22594374
184	0xbde69952	-0.11259712
185	0xbf21bce0	-0.63178825
186	0xbceebf47	-0.029143943
187	0xbe6af189	-0.22943701
188	0x3ef237b6	0.4730813
189	0xbeb8f5e0	-0.36125088
190	0x3d3d3ecb	0.046202462
191	0xbdcbd2a6	-0.099522874
192	0xbdaa12d4	-0.083043724
193	0x3e8121b5	0.2522103
194	0xbe28183f	-0.16415499
195	0xbf152ebb	-0.5827443
196	0xbc7d9418	-0.015477203
197	0xbe6f278b	-0.23354928
198	0x3ee65fcb	0.4499496
199	0xbe8fa59d	-0.2805604
200	0x3ea26d89	0.31724194
201	0xbd10d2a2	-0.035357125
202	0xbe4981d7	-0.19678436
203	0x3dcc259e	0.099681124
204	0xbea6b4da	-0.32559854
205	0xbf08e1b8	-0.5346942
206	0xbe22bdca	-0.15892711
207	0xbc423792	-0.011854069
208	0x3f043d72	0.5165626
209	0xbe15b618	-0.14620245
210	0x3ea84717	0.32866737
211	0xbc67609a	-0.014122153
212	0xbe529ff7	-0.20568834
213	0x3db4626f	0.08807837
214	0xbeaa78a9	-0.3329518
215	0xbf0ccb5d	-0.5499781
216	0xbe21dfe4	-0.15808064
217	0x3c53c85f	0.01292619
218	0x3f0614c0	0.5237541
219	0xbe217042	-0.15765479
220	0x3df43ebe	0.119260296
221	0x3c48e2c7	0.012261099
222	0xbe117119	-0.142033
223	0x3e6fb8d6	0.23410353
224	0xbe919c28	-0.2843945
225	0xbf0bb3c8	-0.545712
226	0xbe0663ad	-0.13123961
227	0xbe44543b	-0.19172756
228	0x3f065fde	0.5249003
229	0xbdc6c4f8	-0.097055376
230	0x3dfc0e3f	0.12307405
231	0x3c803c3c	0.015653722
232	0xbe0335f6	-0.12813553
233	0x3e69bb46	0.22825345
234	0xbe921ed2	-0.2853914
235	0xbf09b45f	-0.5379085
236	0xbdf0bb53	-0.11754479
237	0xbe25ddcd	-0.16197892
238	0x3f07b23a	0.5300633
239	0xbdc00eff	-0.0937786
240	0x3dffb1bc	0.12485072
241	0xbb83c3fc	-0.004021166
242	0xbde84b62	-0.11342503
243	0x3e73163c	0.2373895
244	0xbe89d024	-0.2691661
245	0xbf092af6	-0.5358118
246	0xbdf16903	-0.117876075
247	0xbe30f5c9	-0.1728126
248	0x3f03213f	0.51222605
249	0xbd83fa45	-0.064442195
250	0xbe13f0d3	-0.14447336
251	0xbd0c63e5	-0.034274954
252	0x3cd82a13	0.02638725
253	0x3e7035ae	0.23457977
254	0xbdcfaa0b	-0.10139855
255	0xbf1c6c62	-0.6110288

encoder.FC.L0.expr_L.weight f4 [45, 2000]
0	0x3ce21b1d	0.02760082
1	0x3c3b3620	0.011426479
2	0xbccb5660	-0.02482146
3	0xbd2c8861	-0.04212225
4	0xbc3ef736	-0.011655619
5	0xbb7a2182	-0.0038166945
6	0xbcc4f60c	-0.024043106
7	0x3c21243c	0.009835299
8	0x3d3615de	0.044454448
9	0xbc47e7fd	-0.012201306
10	0x3c04b46e	0.008099658
11	0x3a8f22ab	0.0010920366
12	0x3c947482	0.018121962
13	0xbbe452bb	-0.00696787
14	0x3b5b0324	0.003341862
15	0x3bd929f7	0.006627317
16	0x3c5e5355	0.013569673
17	0xbc2bc84d	-0.010484767
18	0xbd278681	-0.040899757
19	0x3d7edcc5	0.06222226
20	0x3c18fdf1	0.009337888
21	0xbc961b8e	-0.018323686
22	0x3b423a86	0.0029636933
23	0x3bb0513d	0.005380778
24	0xbd10993a	-0.03530238
25	0xbd0f6020	-0.03500378
26	0xbd1c6f81	-0.038192276
27	0xbd81b0b3	-0.06332531
28	0x3c28fd65	0.01031432
29	0x3d1b7e12	0.037962027
30	0x3d0dceab	0.034620922
31	0x3d01dcd3	0.031704735
32	0xbc8113dc	-0.01575654
33	0xbb11370b	-0.0022158052
34	0xb9874d38	-0.0002580674
35	0x3ba7c186	0.0051195053
36	0xbc85f580	-0.016352415
37	0xbb04e683	-0.0020278997
38	0xbb859a4e	-0.0040772324
39	0x3d1a5ec7	0.037688043
40	0xb8b2416b	-8.4998865e-05
41	0xbd8ef933	-0.06981125
42	0xbda96926	-0.082720086
43	0xbd317cdd	-0.04333197
44	0xbd7ef4c8	-0.06224516
45	0xbbe6e2b8	-0.00704607
46	0xbd62c223	-0.055360924
47	0xbd35e047	-0.04440334
48	0x3c87744b	0.016534945
49	0x3d30693c	0.04306911
50	0x3c53a397	0.012917421
51	0x3c57c5f5	0.013169755
52	0xbc9e017b	-0.019287815
53	0xbd20a106	-0.039216064
54	0xbb3c3f3f	-0.002872422
55	0xbb86af1f	-0.0041102315
56	0xbd20c497	-0.039249983
57	0xbb3e5018	-0.0029039439
58	0xbd8fac48	-0.07015282
59	0x3b3cfc30	0.002883684
60	0x3c0d99f7	0.008642665
61	0xbea0a162	-0.31373125
62	0xbdcd1c15	-0.10015122
63	0x3cf4b38b	0.029870769
64	0xbcb83e3d	-0.022490615
65	0x3c35541f	0.011067419
66	0xbd1a4c32	-0.03767032
67	0x3d030cb7	0.031994548
68	0x3cbddf19	0.02317767
69	0xbc20037c	-0.009766456
70	0x3d45348f	0.048145827
71	0xbd0bad01	-0.034100536
72	0xbc8720c8	-0.016495124
73	0xbc850bf5	-0.016241053
74	0x3be18a50	0.006882943
75	0x3c0584dd	0.008149353
76	0x3bfc37c5	0.007697078
77	0xbae0fafc	-0.0017164643
78	0x395ea293	0.00021232133
79	0xbc480f72	-0.012210714
80	0x3c288959	0.0102866525
81	0x3b98f144	0.004667433
82	0xbcd16aa8	-0.025563553
83	0x3b116d40	0.0022190362
84	0xbca31c24	-0.01991088
85	0x3b5b5667	0.0033468248
86	0x3d3c4a90	0.045969546
87	0xbcf9b8d2	-0.030483637
88	0x3d5e9312	0.054339476
89	0xbc088872	-0.008333312
90	0x3db6a2d4	0.08917776
91	0xbb919393	-0.004442641
92	0xbcf63580	-0.030054808
93	0xbd12e9c8	-0.035867482
94	0xbc0192d1	-0.007908539
95	0x3bba59d4	0.005686978
96	0xbbc30bea	-0.005952348
97	0xbbcae796	-0.006192158
98	0x3c1fcb57	0.00975307
99	0x3c85774c	0.016292237
100	0x3d081b54	0.033229187
101	0x3b8dc9df	0.0043270434
102	0xbd2f74ae	-0.042835884
103	0xbc6b5abe	-0.014364896
104	0xbb4329fd	-0.0029779666
105	0xbba8c845	-0.005150827
106	0xbc0ee06d	-0.008720499
107	0xbcc4e310	-0.024034053
108	0xbc309e12	-0.010779874
109	0xbda86af2	-0.08223523
110	0x3d46d009	0.04853824
111	0xbc22b0f1	-0.009929881
112	0x3a2c3dad	0.00065704697
113	0x3b86efc1	0.0041179364
114	0xbc196b9b	-0.009364034
115	0xba9c5c84	-0.0011929427
116	0x3a9e3572	0.0012070371
117	0xbd3c833c	-0.046023592
118	0xbba7a97d	-0.00511664
119	0xbc49a414	-0.012307186
120	0xbc82bf9e	-0.01596051
121	0x3c96727d	0.01836514
122	0xbb4fc33e	-0.0031702067
123	0x3c24058b	0.010011087
124	0xbcab64a7	-0.020922018
125	0x3bd5ac20	0.006520763
126	0x3b90ac06	0.004415038
127	0xb9f48df8	-0.00046645082
128	0x3ba8884e	0.005143202
129	0x3af4a073	0.001866354
130	0x3bb8420f	0.005623109
131	0x3d14b00c	0.036300704
132	0xbd1c3e22	-0.038145192
133	0xbca8f228	-0.020623282
134	0x3bcee834	0.006314302
135	0xbae47c4d	-0.0017432064
136	0xbcf99add	-0.030469352
137	0x3d5cf39d	0.053943265
138	0xbba31460	-0.004976794
139	0x3c7eabc0	0.015543878
140	0xbb06e9de	-0.0020586173
141	0x3b301929	0.0026870465
142	0x3d9868f3	0.074418925
143	0xbbc1f2f5	-0.0059188553
144	0xbafebd76	-0.0019435126
145	0xbcafa4f1	-0.021440955
146	0x3cf2d68b	0.029643318
147	0x39abab6d	0.00032743384
148	0xbbad4aaf	-0.005288444
149	0x3c48b1b7	0.012249402
150	0xbc91ddf3	-0.017806029
151	0xbd1b819e	-0.03796541
152	0xbb9b19d5	-0.004733304
153	0x3ba17fbb	0.0049285567
154	0x3bd5aea7	0.0065210643
155	0x3ba775ac	0.005110463
156	0x3c4b5fcc	0.0124129765
157	0xbc874c16	-0.016515773
158	0x3d36b0bd	0.044602145
159	0x3b9c851f	0.0047766115
160	0xbb7faecd	-0.0039014101
161	0xbcc01efe	-0.023452278
162	0x3c8aa0f9	0.01692246
163	0xbd15196c	-0.036401197
164	0x3cad6c9e	0.021169957
165	0xbccceb84	-0.025014646
166	0xbd09d35b	-0.03364883
167	0xbc8404c1	-0.016115548
168	0xbd0325df	-0.03201854
169	0xbbf265c5	-0.007397386
170	0x3c09fd84	0.008422259
171	0xbb0ec96c	-0.0021787537
172	0x3bbaf02c	0.0057049002
173	0xbadd6856	-0.0016892056
174	0xbb9c8895	-0.004777024
175	0xbc61b7c4	-0.013776723
176	0xbb2ec5ec	-0.0026668264
177	0xbe31ca81	-0.17362405
178	0x3bcc5f08	0.0062369145
179	0xbc253ace	-0.010084821
180	0x3a87b306	0.0010353036
181	0x3d3c021e	0.045900457
182	0x3d0d1488	0.03444341
183	0xbcaa6f9f	-0.020805178
184	0xbc1e53f7	-0.0096635735
185	0xbb1e84ab	-0.0024187963
186	0x3cc39315	0.023873845
187	0x3c427e88	0.011870988
188	0x3b58f3e6	0.003310436
189	0x3b93a89a	0.004506183
190	0xbaa7d78b	-0.0012805326
191	0x3c91ab4f	0.017781882
192	0xbbbc744c	-0.0057511684
193	0xbbed0f8d	-0.00723452
194	0x390b8407	0.00013305257
195	0xbd177a22	-0.03698171
196	0xbd5b5526	-0.053548
197	0x3ca8bf93	0.020599162
198	0xbcd1b704	-0.025599964
199	0xbdb3f683	-0.08787253
200	0xbc83c087	-0.016083015
201	0xbba7ab48	-0.005116854
202	0x3b3fa7b5	0.0029244248
203	0xbc93b42a	-0.018030245
204	0xbc5893cb	-0.01321883
205	0x3c0ad555	0.008473714
206	0x3b916426	0.0044369875
207	0x3c3aa7ef	0.011392578
208	0xbc212ddc	-0.009837594
209	0x3ce63634	0.028102018
210	0xbd7ac28c	-0.06122069
211	0xbd86437a	-0.06555839
212	0x3d293f7d	0.041320313
213	0xbc4c534e	-0.012471033
214	0xba1c170c	-0.0005954362
215	0xbc0f10e1	-0.008732052
216	0x3c88bb55	0.01669089
217	0x3ccbb470	0.024866313
218	0x3ba409bd	0.0050060437
219	0x3a6b7065	0.00089812867
220	0x3ba6e47b	0.005093155
221	0xbc78967a	-0.015172595
222	0xbaf872ad	-0.0018955074
223	0xbcbd8694	-0.02313546
224	0x3b5c0b93	0.0033576235
225	0xbc5a81c1	-0.0133366
226	0xbc865b45	-0.016400943
227	0x3c8535a1	0.016260924
228	0x3c41ac90	0.011820927
229	0x3c9b098d	0.018925453
230	0xbb897342	-0.004194648
231	0xbdf43b04	-0.11925319
232	0xbd7b09b5	-0.061288554
233	0x393947a7	0.00017669667
234	0xba9a0e31	-0.0011753497
235	0x3c41e80e	0.011835111
236	0x3a617463	0.0008600412
237	0xbd06a66b	-0.032873552
238	0xbbc09d20	-0.0058781058
239	0xbd06c42a	-0.03290192
240	0x3c5c0fad	0.013431472
241	0xbb00187a	-0.001954584
242	0x3cc876be	0.024470683
243	0xbc109a43	-0.008825841
244	0x3c696971	0.014246331
245	0xbbe415b3	-0.0069605946
246	0x3d128d9a	0.035779573
247	0x3c34271d	0.010995653
248	0xbccaff44	-0.024779923
249	0xbc38facc	-0.011290263
250	0x3d9a16b2	0.0752386
251	0xbc5aa8f3	-0.013345945
252	0x3c00f24e	0.00787027
253	0xbd09891e	-0.03357803
254	0x3d98d363	0.07462194
255	0xbc955529	-0.018229084

encoder.FC.L0.expr_L.bias f4 [45]
0	0xbdef9a80	-0.116993904
1	0xbcd8ae15	-0.026450196
2	0x3c881bc1	0.016614797
3	0xbc3df12f	-0.011593147
4	0x3d162f09	0.03666595
5	0xbeb91b62	-0.36153704
6	0x3e3820d3	0.17981271
7	0x3ee069bd	0.43830672
8	0xbd9719a3	-0.07377937
9	0xbc9ffb93	-0.01952914
10	0x3cb5b138	0.022179231
11	0x3d040dda	0.032239772
12	0xbd2a3124	-0.04155077
13	0x3d291448	0.041279107
14	0xbda103a1	-0.0786202
15	0xbd491eb1	-0.049101535
16	0xbd40dd7f	-0.047086235
17	0x3d43cf53	0.04780514
18	0xbe89e412	-0.26931816
19	0x3d0416b1	0.032248203
20	0xbe0a392a	-0.13498369
21	0x3cc4d4ef	0.024027316
22	0xbde8028d	-0.113286115
23	0xbd0f9837	-0.035057273
24	0x3d39d78e	0.045371585
25	0xbdb79c1a	-0.08965321
26	0xbe4e16ef	-0.20125936
27	0x3dc61793	0.09672465
28	0xbe31f0dd	-0.17377038
29	0xbd5761e8	-0.052583605
30	0x3d6633a6	0.0562016
31	0x3fd0a2e9	1.6299716
32	0xbe421e50	-0.18956876
33	0xbdfabfd5	-0.1224362
34	0x3e3417ba	0.17587176
35	0x3d328eec	0.043593332
36	0xbe8f9acf	-0.28047797
37	0x3e18b129	0.14911331
38	0x3e3676e6	0.17818794
39	0xbf2e4e22	-0.6808797
40	0xbdb48c22	-0.08815791
41	0x3e580ef1	0.2109945
42	0x3e0ac220	0.13550615
43	0x39131382	0.0001402628
44	0xbe550081	-0.20800973

encoder.FC.L0.cond_L.weight f4 [45, 10]
0	0xbb5a9c05	-0.0033357155
1	0x3cb406db	0.021975925
2	0x3bd3668c	0.0064514335
3	0x3dba3ce7	0.090936475
4	0x3d687b22	0.056758054
5	0x3ca247d2	0.019809637
6	0xbb48438e	-0.0030557844
7	0x3cab322a	0.020897944
8	0xbc206dd9	-0.009791815
9	0x3dcd378f	0.100203626
10	0x3e44354b	0.19160955
11	0xbd14cacf	-0.036326226
12	0xbe412b45	-0.18864162
13	0xbd42b71f	-0.04753792
14	0xbd383021	-0.044967774
15	0x3d7bc488	0.061466724
16	0xbd650d5b	-0.05592094
17	0xbdace7a0	-0.084426165
18	0xbd3dbbf6	-0.04632183
19	0x3db13c3e	0.086540684
20	0x3bfeb88a	0.0077734636
21	0xbcdafbb7	-0.026731355
22	0xbc33e12c	-0.010978978
23	0xbc98716e	-0.018608775
24	0x3bff4353	0.007790008
25	0x3cfd51c4	0.030922778
26	0xbb83017c	-0.0039979797
27	0x3cc121a0	0.023575604
28	0x3d01d900	0.031701088
29	0x3ca6b2d7	0.02034895
30	0xbce07256	-0.02739827
31	0x3c9ae224	0.01890666
32	0xbc7ed7e7	-0.015554405
33	0x3d5c0293	0.053713392
34	0x3d47212e	0.048615627
35	0x3bf491e7	0.007463682
36	0xbb956e19	-0.004560244
37	0x3cc00f6f	0.02344486
38	0x3d4a3579	0.0493674
39	0x3d215a6f	0.039392885
40	0xbd6bbad0	-0.057551205
41	0x3c9fa750	0.01948896
42	0x3ca75413	0.020425832
43	0xbc9a7a18	-0.018857047
44	0xbc90c46d	-0.017671788
45	0xbcc61fe5	-0.02418513
46	0x3d34e992	0.044168063
47	0x3c724da8	0.0147890225
48	0xbbdf7380	-0.0068191886
49	0xbd6154e0	-0.055012584
50	0x3d891e71	0.06695259
51	0x3e1564ff	0.14589308
52	0x3d8ec3a8	0.06970912
53	0x3d7417ae	0.059592895
54	0xbe08e254	-0.13367587
55	0xbd8ccbe1	-0.06874824
56	0x3d9d12fc	0.076696366
57	0x3df727d6	0.12068145
58	0xbe617c00	-0.22019958
59	0xbe3464cb	-0.17616574
60	0xbc14dd5e	-0.009085981
61	0xbd68f79a	-0.056876756
62	0xbddc6646	-0.107616946
63	0x3ca58d30	0.020208925
64	0xbcd5823e	-0.02606308
65	0xbcc2db73	-0.023786282
66	0xbe0b41fe	-0.13599393
67	0x3cff5d14	0.031172313
68	0x3d0a2fa5	0.033736844
69	0xbd17bac8	-0.037043363
70	0xba2ba4cc	-0.0006547689
71	0xbdf73a15	-0.12071625
72	0xbe64a72c	-0.22329396
73	0xbcb0c5f9	-0.021578776
74	0x3e89ba16	0.26899785
75	0x3b3e96f2	0.002908167
76	0xbe0e8739	-0.13918771
77	0xbe720d8d	-0.23637982
78	0x3d84a078	0.064759195
79	0x3ec46c4b	0.3836387
80	0x3d5855d1	0.052816216
81	0xbc9ae851	-0.018909605
82	0xbd555f39	-0.052092765
83	0xbd379e6f	-0.04482883
84	0xbd1deec6	-0.03855779
85	0x3d09586c	0.03353159
86	0x3d561e34	0.052274898
87	0x3d8a164c	0.06742534
88	0xbbd4c655	-0.0064933696
89	0xbd8cc4b7	-0.06873458
90	0x3d029de5	0.03188886
91	0x3c991d2d	0.01869067
92	0xbdb29590	-0.08719933
93	0xbc3e3bda	-0.011610949
94	0xbdd2e335	-0.102972426
95	0xbc48754b	-0.012234996
96	0xbb9da667	-0.0048110965
97	0x3d043bda	0.03228364
98	0x3a950b99	0.0011371254
99	0xbdc2dca2	-0.095147386
100	0xbd1c3af1	-0.03814215
101	0xbba3f57b	-0.005003629
102	0x3c1f1450	0.009709433
103	0xbd0ab777	-0.033866372
104	0x3ba4343d	0.00501111
105	0x3c78b23b	0.015179212
106	0x39c5cdad	0.00037728008
107	0x3cecafdc	0.02889245
108	0x3c3ff737	0.011716655
109	0xbc35af19	-0.01108911
110	0x3d30cd3a	0.04316447
111	0x3c9141d5	0.017731586
112	0x3c3ebcc2	0.011641683
113	0x3d022ebe	0.031782858
114	0xbd3f1771	-0.046653215
115	0xbc3efc63	-0.011656853
116	0xbd55d9d2	-0.052209683
117	0x3c3e71a0	0.01162377
118	0x3d950885	0.072770156
119	0x3d56dec4	0.05245854
120	0x3d0975a5	0.03355946
121	0x3bdffb7b	0.0068353987
122	0xbd2b0d47	-0.04176071
123	0x3d40c598	0.04706344
124	0xbc7a72a6	-0.015286123
125	0xbd39f705	-0.04540159
126	0x3d6a1dc2	0.057157286
127	0xbd77e377	-0.06051966
128	0xbd092662	-0.03348387
129	0xbd2281a8	-0.03967443
130	0xbd1ebe6f	-0.03875583
131	0x3d22a023	0.0397035
132	0xbc1705db	-0.009217705
133	0x3c437988	0.011930831
134	0xbbdb491d	-0.0066920654
135	0xbc929422	-0.0178929
136	0x3c7f7c24	0.015593562
137	0xbd2789ae	-0.040902786
138	0x3c314e3c	0.010821875
139	0x3d0e8669	0.034796152
140	0x3d3eda3e	0.04659485
141	0x3bb1e904	0.005429389
142	0xbce7f08a	-0.02831294
143	0xbd0e31a7	-0.03471532
144	0xbbecb79c	-0.0072240364
145	0x3c9311ea	0.017952878
146	0x3d1807e2	0.037116893
147	0x3d4b8b69	0.0496935
148	0xbd19157e	-0.037374012
149	0xbcfd85ad	-0.03094753
150	0x3bf3c71d	0.0074395076
151	0xbd38a6ae	-0.045080833
152	0xbd46fb67	-0.0485796
153	0x3cfdefd2	0.030998144
154	0x3dbfd323	0.09366443
155	0x3d18589d	0.037193883
156	0x3c7fa280	0.015602708
157	0x3cd7fac3	0.02636469
158	0xbc8069ea	-0.015675504
159	0x3d91a13a	0.0711083
160	0x3c2d539b	0.010579015
161	0x3c989130	0.018623918
162	0x3cf26a34	0.029591657
163	0xbcde1d08	-0.027113453
164	0x3d2eb190	0.042649806
165	0x3c49a137	0.012306503
166	0x3c035645	0.008016174
167	0x3cc6e602	0.024279598
168	0xbd0a7c95	-0.033810217
169	0x3cd14d94	0.025549687
170	0x3cf2a9c7	0.029621972
171	0xbc6c764e	-0.014432503
172	0xbd063c35	-0.03277226
173	0xbcf0ede3	-0.029410308
174	0xbd3ffe89	-0.046873603
175	0xbc2d47e1	-0.010576219
176	0xbcbd99c7	-0.023144616
177	0x3c5fc6a5	0.0136582
178	0x3b2fef5b	0.0026845548
179	0x3a337a1a	0.00068465027
180	0x3cf42ab0	0.029805511
181	0xbd601f09	-0.054717097
182	0x3ddb93b7	0.10721534
183	0x3d09677e	0.033545963
184	0x3d3575bc	0.044301733
185	0x3d9c97d6	0.07646148
186	0xbd139f56	-0.036040626
187	0x3d8bbf8f	0.06823646
188	0xbc16872b	-0.0091875
189	0xbd4524d0	-0.04813081
190	0x3c3f02df	0.011658399
191	0x3d581da2	0.052762635
192	0xbb807cc6	-0.003921124
193	0x3daccd0e	0.084375486
194	0x3af2cc27	0.0018523977
195	0xbd80862f	-0.062755935
196	0xbda7dbf9	-0.08196253
197	0xbd116912	-0.035500593
198	0x3d31204b	0.043243688
199	0x3d9c5ff0	0.07635486
200	0x3c9d2c63	0.019186204
201	0xbd49a2b8	-0.049227446
202	0xbd1636f1	-0.03667349
203	0xbd0e7a92	-0.03478486
204	0xbc9e9bf2	-0.01936147
205	0x3da10142	0.07861568
206	0xbb4e3c36	-0.0031468994
207	0x3daa29af	0.08308732
208	0xbbe53826	-0.006995219
209	0xbd47fbfd	-0.0488243
210	0x3ba78f2c	0.005113503
211	0xbbf97c4b	-0.007613694
212	0xbcb17157	-0.02166049
213	0xbbeb0803	-0.007172586
214	0xbd21b64b	-0.03948049
215	0x3baafb88	0.005217973
216	0xbca19e9e	-0.019728955
217	0x3d258b1e	0.040415876
218	0x3d26449c	0.040592775
219	0xbc620aeb	-0.013796548
220	0x3ba65aeb	0.0050767562
221	0xbb1fc8ea	-0.0024381229
222	0xbc9b846b	-0.01898404
223	0x3d84c56c	0.06482968
224	0x3d623233	0.055223655
225	0x3d406db7	0.046979632
226	0x3cd8b97d	0.026455635
227	0xbc0cf492	-0.008603232
228	0xbc9b55b8	-0.018961772
229	0x3cb0a338	0.021562204
230	0xbc6882cc	-0.014191341
231	0xbc3e048c	-0.011597764
232	0xbd10da76	-0.03536459
233	0xbc6a455a	-0.014298761
234	0xbb26fcb2	-0.0025480208
235	0x3cb9b181	0.022667648
236	0xbab28983	-0.0013621304
237	0x3ace1705	0.0015723413
238	0xbb677430	-0.0035317056
239	0xbbfba964	-0.007680105
240	0xbddcb4be	-0.10776661
241	0xbbccb89c	-0.006247593
242	0x3d0b65e6	0.034032725
243	0xbd7d6117	-0.06186017
244	0xbc248d44	-0.010043446
245	0x3d713e46	0.05889728
246	0xbb17e3b3	-0.002317649
247	0x3d3bdbc1	0.04586387
248	0x3ca146a0	0.019686997
249	0xbcbcfc62	-0.023069564
250	0xbc423116	-0.011852523
251	0x3bc57915	0.006026397
252	0x3b1b11d1	0.0023661742
253	0x3ca35a22	0.01994044
254	0xbb2dcefd	-0.002652108
255	0x3d1c4019	0.038147066

encoder.mean_encoder.weight f4 [10, 45]
0	0x3cf5cab2	0.03000388
1	0xbd3768ac	-0.044777557
2	0x3e0d5aa4	0.13804108
3	0x3e174ff1	0.14776589
4	0xbba42ac2	-0.00500998
5	0x3cec67b2	0.02885804
6	0x3c0e7348	0.008694477
7	0xbd1a3c97	-0.03765544
8	0xbc975e8c	-0.0184777
9	0xbd4ce1ba	-0.050019957
10	0x3af78a62	0.0018885846
11	0xbbf4abea	-0.007466783
12	0xbceed0da	-0.029152323
13	0x3cba27eb	0.022724112
14	0xbc19e725	-0.009393488
15	0x3adebdc6	0.0016993813
16	0x3d02b7e4	0.031913653
17	0xbbc99f5b	-0.00615303
18	0x3e207ca0	0.1567254
19	0x3c830baa	0.015996773
20	0xbd51a3df	-0.05118167
21	0xbc2e81ca	-0.010651061
22	0x3e8b1bec	0.2716974
23	0xbc7a9476	-0.015294185
24	0x3a458fab	0.0007536362
25	0xbd5dca47	-0.054147985
26	0x3c785211	0.015156285
27	0xbd23b6b3	-0.039969157
28	0xbcc0b41a	-0.02352338
29	0x3d546112	0.051850386
30	0x3bc05b94	0.005870292
31	0x3d72da1e	0.059290044
32	0xbc297a04	-0.010344032
33	0xbb52648d	-0.003210339
34	0x3bc4f43a	0.0060105594
35	0x3c36455d	0.011124936
36	0xbe2e20bd	-0.17004676
37	0x3c94981a	0.018138934
38	0x3c4de322	0.01256636
39	0xbd40bdbe	-0.047055952
40	0xbbf66fca	-0.0075206505
41	0x3d3c6780	0.045997143
42	0x3c50a80e	0.01273538
43	0xbbccd730	-0.0062512383
44	0x3db01231	0.0859722
45	0xbdabaf4f	-0.08383047
46	0xbbf3f3cc	-0.0074448343
47	0x3d401d2a	0.046902813
48	0x3d403865	0.046928782
49	0xbba68e2b	-0.0050828657
50	0xbcd8adb4	-0.026450016
51	0x3ce04bce	0.027379896
52	0x3cc71d3e	0.024305936
53	0xbd06d715	-0.032919962
54	0xbd2c14aa	-0.042011894
55	0xbae378f9	-0.0017354778
56	0xbd2fe6e9	-0.042944822
57	0xbc804320	-0.015657008
58	0x3c680751	0.014161901
59	0xbc911d46	-0.017714154
60	0x3d5e59f4	0.054285005
61	0x3c20062b	0.009767096
62	0xbc80d5fe	-0.01572704
63	0x3e508c5c	0.20366043
64	0x3b580ade	0.0032965462
65	0xbd6ed7d6	-0.058311306
66	0xbcefdc10	-0.029279739
67	0x3e7742c7	0.24146567
68	0xbd232730	-0.039832294
69	0xbacc28be	-0.0015576107
70	0x3d98633b	0.07440802
71	0xbcc7bb96	-0.02438144
72	0xbcbc9999	-0.02302246
73	0xbd84b83d	-0.06480453
74	0x3d3fd666	0.046835326
75	0x3cf7cb26	0.030248236
76	0xbddc8806	-0.10768132
77	0xbb863c14	-0.0040965173
78	0x3c02cb9a	0.007983113
79	0x3c789f43	0.01517469
80	0xba07f199	-0.0005185842
81	0x3e70cf33	0.2351654
82	0xbd341ce4	-0.043972865
83	0x3bdf2cac	0.006810745
84	0x3ca53b8c	0.020169996
85	0xbc9f1f81	-0.019424202
86	0xbbbc9a0a	-0.0057556676
87	0x3c641fe7	0.013923622
88	0x3c7c5fd2	0.015403705
89	0xbb028221	-0.0019913989
90	0x3c0c422b	0.008560698
91	0xbc1cbc7e	-0.009566424
92	0x3c2e3783	0.010633352
93	0x39db40c4	0.0004181919
94	0xbd1f5807	-0.03890231
95	0xba11a104	-0.0005555304
96	0x3d7b2948	0.061318666
97	0x3c3cd6d4	0.011525828
98	0x3d652b44	0.055949464
99	0x3d727712	0.059195586
100	0x3c956f12	0.018241439
101	0xbe4f4a75	-0.20243247
102	0xbcd8c43d	-0.026460761
103	0xbd90308f	-0.07040512
104	0x3d4e7232	0.050401874
105	0xbd9aefa4	-0.07565239
106	0x3d4f4be2	0.050609477
107	0xbdd009fc	-0.10158154
108	0x3d6a930c	0.05726914
109	0x3d43b84b	0.047783177
110	0x3d91463f	0.070934765
111	0xbe009b7c	-0.12559313
112	0xbd533493	-0.05156381
113	0xbe305432	-0.17219618
114	0xbc0e4738	-0.008683972
115	0x3b215de5	0.0024622616
116	0xbc337b57	-0.0109546995
117	0x3c8835d7	0.016627235
118	0x3cabe563	0.020983404
119	0x3d28c63b	0.041204672
120	0xbd3ba0cd	-0.04580765
121	0x3cb3393e	0.021877881
122	0x3d12d9c6	0.035852216
123	0x3d8a5a00	0.067554474
124	0x3d322ea4	0.04350151
125	0x3bb8335c	0.005621357
126	0xbc702dc4	-0.014659349
127	0x3d3bc410	0.045841277
128	0x3cd17bd6	0.025571745
129	0xbcfb6f22	-0.03069264
130	0x3d4d0609	0.050054584
131	0x3cdc3733	0.02688179
132	0x3cfa43ef	0.030549971
133	0xbdcbefba	-0.099578336
134	0xbd6027dc	-0.054725513
135	0xbe28ff48	-0.16503632
136	0x3ceb2621	0.028704705
137	0xbb83ee3a	-0.0040262016
138	0xbd12eddc	-0.03587137
139	0x3a2c388a	0.0006569704
140	0x3c9ec247	0.019379748
141	0xbbe5d49a	-0.0070138695
142	0xbcc19b3c	-0.023633592
143	0x3c74abed	0.014933568
144	0x3c82e3e5	0.01597781
145	0xbb54deb2	-0.003248137
146	0x3d31471e	0.043280713
147	0x3c928f48	0.017890587
148	0xbd77a34e	-0.060458474
149	0x3c850133	0.016235923
150	0x3b54144a	0.0032360726
151	0x3c937571	0.018000336
152	0x3d16714d	0.036729146
153	0x3e4322f0	0.19056296
154	0xbd8b3d2d	-0.06798778
155	0x3c83649f	0.01603919
156	0x3d0fd59e	0.03511583
157	0xbdcdafac	-0.100432724
158	0x3d6e3fcb	0.058166306
159	0xbac17564	-0.0014759717
160	0xbd833ec8	-0.06408459
161	0xbdc33dc9	-0.09533269
162	0x3c86af4f	0.016441016
163	0xba7e2d2c	-0.0009696062
164	0x3d022216	0.031770788
165	0xbcc543cd	-0.024080181
166	0x3ce67098	0.02812986
167	0xbca8fbd6	-0.020627897
168	0x3d27c322	0.040957578
169	0xbcc652f2	-0.024209473
170	0xbc9eef42	-0.019401196
171	0xbe527f51	-0.2055638
172	0xbcddfc94	-0.027097978
173	0xbcf19ce9	-0.029493766
174	0x3c332f6e	0.010936601
175	0x3c6d9633	0.014501142
176	0x3b8f189d	0.004366948
177	0xbcb92355	-0.022599855
178	0xbb86def1	-0.004115932
179	0xbe1ea7f6	-0.1549376
180	0xbcf2564e	-0.029582169
181	0x3cf7c779	0.030246483
182	0xbd34be48	-0.04412678
183	0xbd7042da	-0.058657505
184	0x3a82eb81	0.0009988399
185	0x3cc655cc	0.024210833
186	0x3c821030	0.01587686
187	0xbcdc4609	-0.026888864
188	0xbb936dfd	-0.0044991956
189	0x3cecc207	0.028901113
190	0x383f8dcc	4.5670007e-05
191	0xbd0afc4d	-0.03393202
192	0xbbb35154	-0.0054723416
193	0x3e2993f7	0.1656035
194	0xbb47c984	-0.0030485103
195	0xbb020c5a	-0.0019843788
196	0xbb05623c	-0.0020352742
197	0xbc14e60e	-0.009088052
198	0x3d1ad6ad	0.037802387
199	0x3ce62739	0.028094875
200	0xb9f2fcbb	-0.00046346136
201	0xbc29b21f	-0.010357409
202	0xbc8f400a	-0.01748659
203	0xbaad6514	-0.0013228976
204	0x3ad11d4a	0.0015954163
205	0xbccc9f07	-0.024978174
206	0xbd973a82	-0.07384206
207	0xbd35e459	-0.044407222
208	0xbc8678d4	-0.016415037
209	0x3b2ae239	0.002607478
210	0x3d9836f3	0.07432356
211	0x3cf42c91	0.029806407
212	0xbc2958e1	-0.010336132
213	0x3c05800d	0.0081482055
214	0x3c4d4038	0.012527518
215	0x3d1dd54f	0.038533505
216	0xbdc2fcc0	-0.095208645
217	0xbc4bce84	-0.012439374
218	0x3bdf351f	0.0068117524
219	0xbc12e1ed	-0.008964998
220	0xba6fb4cc	-0.00091440673
221	0xbd2adf5c	-0.04171692
222	0x3ab7cf4d	0.0014023572
223	0x3d92512f	0.07144391
224	0xbe032d63	-0.12810282
225	0x3d0cc19b	0.034364324
226	0x3b399252	0.0028315973
227	0xbc902f03	-0.017600542
228	0xbbe6922e	-0.007036469
229	0xbaaa500d	-0.0012993828
230	0x3d86164c	0.065472215
231	0x3cb289dc	0.021794252
232	0xbd9c9227	-0.07645064
233	0xbb9ed9e6	-0.004847753
234	0x3a026cea	0.0004975336
235	0xbb6c3cf9	-0.0036047085
236	0xbc9d1e0a	-0.019179363
237	0xbb9b984f	-0.004748381
238	0xbd156d1f	-0.03648102
239	0xbbd17db9	-0.006393161
240	0x3b514532	0.0031932113
241	0xbbda61fd	-0.006664513
242	0xbbc4f86f	-0.006011061
243	0xbd323864	-0.04351081
244	0x3cfa8263	0.030579751
245	0xbbd79981	-0.0065795784
246	0xbc6cc81d	-0.014452008
247	0xbd26614c	-0.040620133
248	0xbc80b929	-0.015713291
249	0xbb5da14b	-0.0033818062
250	0x3d9bdb32	0.076101676
251	0x3cbc5995	0.022991935
252	0x3c71aef2	0.014751183
253	0x3a0aeaa1	0.00052992447
254	0xbc150ce2	-0.00909731
255	0xbbbf833a	-0.005844501

encoder.mean_encoder.bias f4 [10]
0	0xbdaa90e5	-0.08328418
1	0xbd6ae955	-0.05735143
2	0xbdb6bcd9	-0.089227386
3	0xbd882efc	-0.066495866
4	0x3d2d89c5	0.042367715
5	0xbdc9da12	-0.09856047
6	0xbd182cfb	-0.03715227
7	0xbe05dcb7	-0.13072477
8	0x3e0ec8d4	0.13943797
9	0x3efa0e78	0.48839164

encoder.log_var_encoder.weight f4 [10, 45]
0	0xbe350092	-0.17675999
1	0xbe8cf45b	-0.27530178
2	0xbe713c89	-0.23558249
3	0xbeab6e21	-0.3348246
4	0xbf2a5c79	-0.6654735
5	0xbe0e72dc	-0.13911003
6	0xbe20a190	-0.15686631
7	0xbe2d4e8e	-0.16924497
8	0xbecdebcc	-0.4021896
9	0xbe8ab628	-0.270921
10	0xbf51b4e1	-0.81916624
11	0xbe8ea5bf	-0.2786083
12	0xbee941e5	-0.45558086
13	0xbdf788bb	-0.12086626
14	0xbef41085	-0.47668853
15	0xbe6bbf39	-0.23022164
16	0xbe8359bc	-0.256544
17	0xbf08c7ca	-0.53429854
18	0xbd0aef5d	-0.03391968
19	0xbe3d2a28	-0.18473113
20	0xbe88d1e3	-0.2672263
21	0xbef0bc96	-0.4701888
22	0xbdfc9627	-0.12333327
23	0xbea102df	-0.31447503
24	0xbf6c2ab4	-0.9225266
25	0xbe2ea4ec	-0.170551
26	0xbe30fc18	-0.17283666
27	0xbe99e66a	-0.30058604
28	0xbe1f031c	-0.1552853
29	0xbea9e75f	-0.33184335
30	0xbeb3ac3d	-0.35092345
31	0xbe185b70	-0.1487863
32	0xbf06f1a1	-0.52712446
33	0xbea54308	-0.32277703
34	0xbe62e6a3	-0.22158293
35	0xbecc6745	-0.39922538
36	0xbe74db83	-0.23911862
37	0xbe9747cc	-0.29546964
38	0xbe729338	-0.23688972
39	0xbe0aadec	-0.13542908
40	0xbefeb421	-0.49746802
41	0xbea7dc3c	-0.32785213
42	0xbe898858	-0.26861835
43	0xbe9c5881	-0.30536273
44	0xbe57c81a	-0.21072426
45	0xbe2e65ef	-0.17031072
46	0xbe8a3e6e	-0.27000755
47	0xbe780f64	-0.24224621
48	0xbea188ce	-0.31549686
49	0xbf28000e	-0.65625083
50	0xbe33332c	-0.1749999
51	0xbe20ecd3	-0.15715341
52	0xbde6e685	-0.11274437
53	0xbed27f4b	-0.41112742
54	0xbe86c24f	-0.2632012
55	0xbf495a4e	-0.7865342
56	0xbe8f0370	-0.2793231
57	0xbee3f4fe	-0.44522852
58	0xbe07d6f1	-0.13265587
59	0xbefbcc61	-0.49179366
60	0xbe52c504	-0.20582968
61	0xbe8dd1a7	-0.27699015
62	0xbf04c051	-0.5185595
63	0xbd5b262e	-0.053503208
64	0xbe3983cc	-0.18116683
65	0xbe7b0d09	-0.24516691
66	0xbeed05fc	-0.46293628
67	0xbdfff019	-0.12496967
68	0xbe9a2a2e	-0.30110306
69	0xbf6abdb2	-0.916957
70	0xbe2439d0	-0.16037679
71	0xbe32f693	-0.17476873
72	0xbe87cdff	-0.2652435
73	0xbe1977e4	-0.14987141
74	0xbec222f4	-0.37917292
75	0xbeadc42f	-0.3393874
76	0xbe282094	-0.16418678
77	0xbef752b4	-0.48305285
78	0xbeb66e37	-0.35630962
79	0xbe6c0e25	-0.2305227
80	0xbecc9c63	-0.39963064
81	0xbe60ebc8	-0.21964943
82	0xbe9d8f24	-0.3077327
83	0xbe840269	-0.2578309
84	0xbdf34d4a	-0.11879976
85	0xbf012d2b	-0.50459546
86	0xbeb37e9c	-0.35057533
87	0xbe874720	-0.26421452
88	0xbe92520e	-0.28578228
89	0xbe715969	-0.23569264
90	0xbe86d173	-0.26331672
91	0xbe2db6f5	-0.16964324
92	0xbe9c1322	-0.30483347
93	0xbecadc96	-0.3962142
94	0xbf0c5c4e	-0.54828346
95	0xbdac32a8	-0.084080994
96	0xbd0eb288	-0.03483823
97	0xbe05aec7	-0.13054954
98	0xbe8d7cd2	-0.27634293
99	0xbe4d0464	-0.20021206
100	0xbf49af84	-0.7878344
101	0xbe54063c	-0.20705503
102	0xbed32d25	-0.4124538
103	0xbe2e5d4d	-0.17027779
104	0xbed2c539	-0.41166094
105	0xbe7efe66	-0.24901733
106	0xbe637a6b	-0.22214667
107	0xbeda33ce	-0.4261765
108	0xbe1acb0d	-0.1511652
109	0xbe907605	-0.28215042
110	0xbe6d4c64	-0.23173672
111	0xbeb36c37	-0.350435
112	0xbe334a8e	-0.17508909
113	0xbe7c3a42	-0.24631599
114	0xbf5e8e57	-0.86935943
115	0xbe3bdd38	-0.18346107
116	0xbe482430	-0.19545054
117	0xbe5e1970	-0.21689391
118	0xbda41c5b	-0.08013221
119	0xbe997bc3	-0.29977235
120	0xbeb0d8e1	-0.34540465
121	0xbd9875a5	-0.07444314
122	0xbefc4339	-0.49270037
123	0xbe6bcafa	-0.23026648
124	0xbe1bbb1b	-0.15208094
125	0xbeb24810	-0.34820604
126	0xbe86f2f5	-0.26357237
127	0xbe5f91e2	-0.21832994
128	0xbe51573b	-0.20443432
129	0xbdaa7667	-0.08323365
130	0xbec14484	-0.37747586
131	0xbe6f2c07	-0.23356639
132	0xbe5ab00c	-0.21356219
133	0xbeb3c596	-0.35111684
134	0xbe84707c	-0.2586707
135	0xbe37d80b	-0.17953508
136	0xbe79c9a7	-0.2439333
137	0xbe8512d6	-0.25990933
138	0xbeb27c6f	-0.3486056
139	0xbf207bd5	-0.6268895
140	0xbe121130	-0.14264369
141	0xbda67ee3	-0.081296705
142	0xbe1e07f7	-0.15432726
143	0xbebc4470	-0.36770964
144	0xbe69a706	-0.2281762
145	0xbf446cda	-0.76728594
146	0xbe86b04c	-0.2630638
147	0xbee4d84f	-0.4469628
148	0xbe1af4f2	-0.15132502
149	0xbee1de60	-0.4411497
150	0xbe53dc36	-0.20689473
151	0xbe8b1da5	-0.27171054
152	0xbef3eb87	-0.4764063
153	0xbd9ec687	-0.0775271
154	0xbe6c7395	-0.23090966
155	0xbe5a8724	-0.21340615
156	0xbec61c91	-0.3869367
157	0xbe15405e	-0.14575335
158	0xbe836afd	-0.25667563
159	0xbf66f6ba	-0.90220225
160	0xbe2fd001	-0.17169191
161	0xbe39eeb4	-0.18157464
162	0xbe4f5fb7	-0.20251356
163	0xbddea259	-0.10870809
164	0xbea1f2d3	-0.31630573
165	0xbeb1d883	-0.34735498
166	0xbda72467	-0.0816124
167	0xbf0eeb14	-0.5582745
168	0xbe9b7b7b	-0.30367646
169	0xbe6f9d77	-0.23399912
170	0xbecea03d	-0.40356627
171	0xbe814744	-0.25249684
172	0xbe88553e	-0.26627535
173	0xbe853436	-0.26016396
174	0xbe0d10d5	-0.13775952
175	0xbedef0c5	-0.43543068
176	0xbe8c28a6	-0.27374762
177	0xbe909980	-0.2824211
178	0xbe9bac8d	-0.30405083
179	0xbe804cd7	-0.25058624
180	0xbe417658	-0.18892801
181	0xbe8e7b32	-0.27828366
182	0xbe7f31a7	-0.24921285
183	0xbeac606c	-0.33667314
184	0xbf22f3e2	-0.63653386
185	0xbe3b912b	-0.18317096
186	0xbdd4df35	-0.10394136
187	0xbe1d4d2a	-0.15361467
188	0xbebe112f	-0.37122485
189	0xbe851155	-0.25989786
190	0xbf4ad6ef	-0.7923421
191	0xbe734185	-0.23755462
192	0xbee86d3b	-0.45395836
193	0xbdd0678b	-0.10175999
194	0xbee4f4a3	-0.44717893
195	0xbe4ccd8e	-0.20000288
196	0xbe81481a	-0.25250322
197	0xbf073030	-0.52807903
198	0xbd80f06d	-0.062958576
199	0xbe3bd5c1	-0.1834326
200	0xbe806ee7	-0.25084612
201	0xbee625f9	-0.44950846
202	0xbe0cf93a	-0.13766947
203	0xbeaa2cd7	-0.33237335
204	0xbf6b585e	-0.9193171
205	0xbe1b48a0	-0.15164423
206	0xbe49dce5	-0.19713171
207	0xbe7ca166	-0.24670944
208	0xbe185026	-0.14874324
209	0xbeb20097	-0.34766075
210	0xbeae7086	-0.34070224
211	0xbdc5fcd8	-0.09667367
212	0xbf063092	-0.5241786
213	0xbe9bd47e	-0.30435556
214	0xbe5f98d4	-0.21835643
215	0xbeddc285	-0.4331247
216	0xbe5ab2a8	-0.21357214
217	0xbe919ade	-0.28438467
218	0xbe6ca9ac	-0.231116
219	0xbe08b1b0	-0.13349032
220	0xbeeff359	-0.46865347
221	0xbe9ac3a0	-0.30227375
222	0xbe797ade	-0.24363276
223	0xbe90dbcd	-0.28292695
224	0xbe70c6b2	-0.23513296
225	0xbda9f1f0	-0.08298099
226	0xbe972a2b	-0.2952436
227	0xbe6c7e04	-0.23094946
228	0xbea85d77	-0.32883808
229	0xbf44daa4	-0.7689612
230	0xbe5084ef	-0.2036321
231	0xbe573735	-0.21017154
232	0xbe160176	-0.14648995
233	0xbefa4db2	-0.48887402
234	0xbea08f9c	-0.31359565
235	0xbf615fa2	-0.8803655
236	0xbea35039	-0.31897143
237	0xbef47170	-0.47742796
238	0xbdbf7c2b	-0.09349855
239	0xbf193958	-0.59853125
240	0xbe2e5165	-0.17023237
241	0xbeac3dd7	-0.3364093
242	0xbf237d58	-0.63863134
243	0xbce6d5f5	-0.028178195
244	0xbe4ece95	-0.20195992
245	0xbe86ed8a	-0.26353103
246	0xbf040f43	-0.5158579
247	0xbd9aaa3d	-0.075520016
248	0xbeb9868f	-0.36235473
249	0xbf85f7c2	-1.0466235
250	0xbde1d69d	-0.11027262
251	0xbe32ae2a	-0.17449251
252	0xbeaa1383	-0.3321801
253	0xbe2f25f4	-0.17104322
254	0xbeeb181a	-0.45916826
255	0xbe9f655b	-0.31132016

encoder.log_var_encoder.bias f4 [10]
0	0xbf8be825	-1.093022
1	0xbf8991b4	-1.074759
2	0xbf6ed296	-0.9329008
3	0xbf8857a2	-1.0651743
4	0xbf8963f6	-1.0733631
5	0xbf97c242	-1.1856158
6	0xbf874d1c	-1.0570407
7	0xbf836f96	-1.0268428
8	0xbf86a290	-1.051836
9	0xbf856f00	-1.04245

decoder.FirstL.L0.expr_L.weight f4 [45, 10]
0	0xbeb102c8	-0.34572434
1	0xbc6a84ee	-0.0143139195
2	0x3c911b58	0.017713234
3	0x3d98e6bd	0.07465885
4	0xbcd3adfc	-0.025839798
5	0xbd6faefb	-0.058516484
6	0x3cb9cb9e	0.0226801
7	0xbe25b622	-0.1618276
8	0x3d19809d	0.03747617
9	0xbd0f5137	-0.034989562
10	0xbdc8ca87	-0.09804254
11	0x3e17fa26	0.14841518
12	0xbdd40611	-0.103527196
13	0xbd8786ff	-0.06617545
14	0xbe3438bc	-0.17599767
15	0x3dbfa2ae	0.093572006
16	0x3d3ba576	0.045812093
17	0x3e243263	0.16034846
18	0x3e4209fb	0.1894912
19	0x3d33a9af	0.043862995
20	0x3d8e0f09	0.069364615
21	0xbd9a2842	-0.0752721
22	0xbc2f20b0	-0.010688946
23	0x3c43b2d3	0.0119444905
24	0xbe3a76a8	-0.18209326
25	0x3d0c500b	0.034256022
26	0x3dcf113d	0.1011071
27	0x3e54de2a	0.20787874
28	0x3e043ba5	0.12913378
29	0xbda9f728	-0.082990944
30	0x3e021d72	0.12706545
31	0x3e173483	0.14766125
32	0xbd3ccde1	-0.04609478
33	0x3a225823	0.0006192943
34	0xbd2245bd	-0.03961729
35	0xbe496762	-0.19668344
36	0x3e5fe795	0.21865685
37	0x3d8862b9	0.06659455
38	0xbd78001a	-0.06054697
39	0x3e078166	0.13232955
40	0xbe5bd6a2	-0.21468595
41	0x3e815279	0.25258234
42	0xbd8ec743	-0.069716
43	0xbe0f5c70	-0.14000106
44	0xbd83ce14	-0.06435791
45	0x3ee0c647	0.43901274
46	0x3d822453	0.063545845
47	0x3dd88256	0.105717346
48	0xbd39128c	-0.045183703
49	0x3d452bad	0.048137356
50	0xbe098e07	-0.13433085
51	0x3e998993	0.29987773
52	0xbd3fe301	-0.046847347
53	0x3cd2ad2f	0.025717346
54	0xbdb6b692	-0.08921541
55	0x3ea55d44	0.3229772
56	0x3dcd4780	0.10023403
57	0x3d6b6f93	0.057479452
58	0xbd781b01	-0.060572628
59	0x3e3b1a70	0.18271804
60	0xbda305f6	-0.07960121
61	0x3d69f49e	0.05711805
62	0xbb9ecec4	-0.0048464257
63	0x3da5d724	0.080976754
64	0xbcbb7077	-0.022880776
65	0x3e4a7c49	0.19773974
66	0xbde495c8	-0.11161381
67	0xbcf0ae9e	-0.029380139
68	0xbcfb36cd	-0.03066578
69	0x3dfa600c	0.12225351
70	0x3d6a5e90	0.057219088
71	0xbe57b0f6	-0.21063599
72	0xbd0f8ce2	-0.035046466
73	0xbe8e078f	-0.27740142
74	0xbd2c11b7	-0.04200908
75	0xbce7d201	-0.02829838
76	0xbdcd17a0	-0.10014272
77	0x3d62d721	0.055380944
78	0x3c05c54c	0.008164715
79	0xbc802986	-0.0156448
80	0x3d254516	0.04034909
81	0xbd910c15	-0.070823826
82	0x3bd37469	0.006453086
83	0x3cab97e7	0.020946456
84	0x3cd82009	0.026382463
85	0xbd87b3d3	-0.066260956
86	0xba5a7b01	-0.0008334369
87	0xbbf561ae	-0.007488451
88	0x3cb91fd3	0.022598183
89	0xbce40470	-0.027834147
90	0x3dea46c8	0.11439282
91	0x3cdd5f03	0.027022844
92	0xbd254463	-0.04034842
93	0xbdaefe47	-0.08544593
94	0xbd92dacc	-0.071706384
95	0xbca58640	-0.020205617
96	0x3d580795	0.052741606
97	0xbe27cca5	-0.1638666
98	0xbd20447a	-0.039127804
99	0x3d84cb32	0.06484069
100	0x3ca17828	0.019710615
101	0xbd12bd79	-0.035825226
102	0xbd1fa7d3	-0.03897841
103	0xbe09f4eb	-0.13472335
104	0x3e126e74	0.14299947
105	0xbdc660d7	-0.096864395
106	0x3e0a50b7	0.13507353
107	0x3d427ad2	0.04748041
108	0x3da4a31e	0.08038925
109	0x3dacf28b	0.08444699
110	0x3e8322cd	0.25612488
111	0xbe5f84a5	-0.21827944
112	0xbd5696b4	-0.052389815
113	0x3e4c7a56	0.19968542
114	0x3e33bb3c	0.17551893
115	0x3f504330	0.8135252
116	0x3cde7d72	0.027159426
117	0xbbfd9cb2	-0.007739627
118	0x3d845a6b	0.06462558
119	0x3d995062	0.07486035
120	0x3d792660	0.060827613
121	0xbdb2b8d2	-0.08726658
122	0xbda3ec23	-0.08004024
123	0x3d25df76	0.040496312
124	0x3e8e2927	0.27765772
125	0x3d875f51	0.06609977
126	0x3d02c525	0.031926293
127	0xbdbc93a4	-0.09207848
128	0xbc4ac9cc	-0.012377214
129	0x3d26ae58	0.04069361
130	0xbe22623d	-0.15857787
131	0xbd1bb1cb	-0.038011353
132	0x3cd2938a	0.025705118
133	0xbe0ad00e	-0.13555929
134	0xbe75f00f	-0.24017356
135	0xbe373dd5	-0.17894681
136	0x3d4f9d61	0.050687198
137	0xbd917513	-0.07102408
138	0x3d35ae4a	0.044355668
139	0x3cb7b72b	0.022426208
140	0xbd3a3b71	-0.045466844
141	0x3bee047b	0.0072637177
142	0xbd6d10dc	-0.057877406
143	0xbb4bd0d6	-0.0031099818
144	0x3ea196b6	0.31560296
145	0xbddcf437	-0.10788768
146	0xbdc7181d	-0.09721396
147	0xbe649e86	-0.22326097
148	0xbd8dc8aa	-0.06923039
149	0x3d8c105a	0.06839056
150	0x3e14fccd	0.14549561
151	0xbde895b7	-0.11356681
152	0xbda79b3f	-0.08183908
153	0x3d5649d3	0.052316498
154	0xbd9a9cea	-0.0754946
155	0x3e43e3fb	0.19129936
156	0x3e61f49d	0.22065969
157	0x3dc38a8b	0.09547909
158	0x3b3a5462	0.0028431644
159	0x3dc28d4c	0.094996065
160	0x3e637678	0.22213161
161	0xbe6cb3a0	-0.23115396
162	0x3cdc6c5e	0.026907142
163	0x3c9490b3	0.018135404
164	0x3d0762f3	0.03305335
165	0x3de91443	0.11380818
166	0xbca7923c	-0.020455472
167	0x3d73eaec	0.05955021
168	0x3dbf73ec	0.09348282
169	0xbcc75140	-0.024330735
170	0x3ae86bae	0.0017732286
171	0xbc3b5daf	-0.01143591
172	0xbd7203c8	-0.059085637
173	0xbdd4d275	-0.10391704
174	0x3eb43a64	0.352008
175	0x3d055685	0.032553215
176	0x3dbae636	0.091259405
177	0xbdbd3fe7	-0.09240704
178	0xbea23d72	-0.31687504
179	0x3e27f7b3	0.16403084
180	0xbce4f7a0	-0.027950108
181	0x3e14a14f	0.1451466
182	0x3c6d078e	0.014467133
183	0x3e45d8b2	0.19320944
184	0xbca886dd	-0.02057212
185	0xbc29af53	-0.010356742
186	0xbe6b0719	-0.22951926
187	0xbd2ffa4e	-0.04296332
188	0x3dd6f561	0.10496021
189	0x3d14b65d	0.036306728
190	0x3aa4e7b6	0.0012581262
191	0x3e3b23ba	0.18275347
192	0x3cffdaa3	0.031232184
193	0x3e4ad534	0.19807893
194	0x3e38ea4b	0.18058126
195	0xbd4f9b74	-0.05068536
196	0x3dc3732f	0.09543454
197	0x3d0b08e2	0.03394402
198	0x3bef6b8f	0.007306523
199	0x3b6d7410	0.0036232509
200	0xbe1c6ca4	-0.15275818
201	0xbddd1cd0	-0.10796511
202	0x3db3b5e8	0.0877493
203	0x3e0e426c	0.13892525
204	0xbe44a243	-0.19202523
205	0x3dfc3299	0.12314338
206	0xbd3247a5	-0.043525357
207	0xbd584336	-0.052798472
208	0x3e96a420	0.29422092
209	0xbe3b4804	-0.1828919
210	0x3d017ee4	0.031615153
211	0xbc8d1022	-0.017219607
212	0xbbe8e642	-0.007107527
213	0xba86654c	-0.0010253577
214	0xbd05ae63	-0.03263701
215	0x3c49cfe2	0.0123176295
216	0x3d19d564	0.03755702
217	0x3d2c6582	0.042088993
218	0x3cf10610	0.029421836
219	0xbc8a99f2	-0.01691911
220	0x3d0b22b4	0.033968642
221	0xbb01f233	-0.00198282
222	0xbc0bcc35	-0.0085325735
223	0x3b92c514	0.00447906
224	0x3cc8a0db	0.024490764
225	0x3cbfb718	0.023402736
226	0x3cfe1ab6	0.031018596
227	0x3c20bd83	0.009810808
228	0x3c5d355d	0.013501492
229	0xbbf277e9	-0.0073995483
230	0xbe505ae0	-0.20347166
231	0x3e01aba1	0.12663127
232	0x3d094067	0.033508684
233	0xbe582350	-0.2110722
234	0xbe135c1f	-0.1439061
235	0xbf70ceca	-0.94065535
236	0x3d1c759a	0.03819809
237	0xbd1e4ace	-0.038645558
238	0xbdd66fc0	-0.10470533
239	0xbd6a9a9c	-0.057276353
240	0x3d93311d	0.07187102
241	0x3a086f58	0.000520458
242	0x3d1a05d1	0.037603203
243	0x3d7bb482	0.061451443
244	0xbda472ef	-0.08029734
245	0xbe636531	-0.2220657
246	0x3cdea4b1	0.02717814
247	0xbab8276f	-0.0014049838
248	0x3e926b54	0.2859751
249	0xbde1603d	-0.11004684
250	0xbcb29b73	-0.02180264
251	0xbceed6c1	-0.029155137
252	0xbd85db65	-0.06535987
253	0xbce9d2b6	-0.028542858
254	0xbe97e51d	-0.29666987
255	0xbe31f4a4	-0.17378479

decoder.FirstL.L0.cond_L.weight f4 [45, 10]
0	0x3c83e0ef	0.016098468
1	0xbb97642e	-0.0046200966
2	0x3c9ac727	0.018893791
3	0x3d952738	0.07282871
4	0x3b3f0572	0.0029147533
5	0x3d81ab44	0.063314945
6	0xbad2c33f	-0.0016079916
7	0x3d1c1fa5	0.038116116
8	0xbd3b3450	-0.045704186
9	0x3b3d08e5	0.0028844413
10	0xbd3b7311	-0.045764033
11	0xbc379f11	-0.011207358
12	0x3b4257d8	0.002965441
13	0x3bd3f928	0.0064689107
14	0x3b806075	0.0039177486
15	0xbb7fa2ed	-0.0039007023
16	0x3cbcf300	0.02306509
17	0xbd500060	-0.050781608
18	0xbc848979	-0.016178833
19	0xbbffe0cc	-0.0078087803
20	0x3c8cd784	0.01719261
21	0xbd3fff5d	-0.046874393
22	0x3d23a6fb	0.039954167
23	0x3cfa99bc	0.030590884
24	0xbb1a9391	-0.0023586492
25	0xbcbda9cc	-0.023152255
26	0x3b943951	0.004523434
27	0xbd1baad3	-0.038004708
28	0x3e71e073	0.23620777
29	0x3dabf4c3	0.08396294
30	0xbcbc2276	-0.022965651
31	0xb9c2e06c	-0.0003716977
32	0x3b29f78d	0.0025934905
33	0x3d05e24c	0.032686517
34	0xbc75f087	-0.0150109595
35	0x3c895904	0.016766079
36	0xbc674318	-0.0141151175
37	0x3ce9f6b9	0.02856003
38	0xb74a8200	-1.2070406e-05
39	0xbc10c21c	-0.008835342
40	0xbcad7133	-0.021172142
41	0xbc53f36a	-0.012936452
42	0xbc80244a	-0.015642304
43	0xbd876ff5	-0.06613151
44	0x3b952993	0.004552075
45	0xbd761202	-0.060075767
46	0xbd1bcaac	-0.03803508
47	0xbd42816f	-0.04748672
48	0x3db783ec	0.08960709
49	0x3bf8743b	0.007582215
50	0x3c1d5ca1	0.009604604
51	0x3c575866	0.013143634
52	0xbbd4af3d	-0.0064906166
53	0xbc995a5b	-0.018719843
54	0xbcd3a615	-0.02583603
55	0xbcefa1e2	-0.029251996
56	0xbceb8a93	-0.0287526
57	0xbd359879	-0.044334862
58	0xbc1964bf	-0.009362399
59	0x3c3f390f	0.011671319
60	0xbd8182cf	-0.06323778
61	0xbd6cc5fd	-0.057806004
62	0xbc343ff5	-0.011001577
63	0x3d52841a	0.051395513
64	0x3d645111	0.055741373
65	0x3d85ccae	0.0653318
66	0xbd56f6c4	-0.052481428
67	0x3dab36a8	0.08360034
68	0x3d24f48d	0.040272284
69	0x3be3e665	0.0069549554
70	0x3c94ca09	0.018162744
71	0x3be6eb69	0.007047106
72	0xbb5fdff8	-0.0034160595
73	0xbbfc3d37	-0.007697727
74	0x3b9ba99b	0.004750443
75	0x3d20b56e	0.039235525
76	0x3bc2cb80	0.0059446692
77	0xbc8ef3dc	-0.017450266
78	0xbc35534d	-0.011067224
79	0xbc5a62e1	-0.013329239
80	0xbaa79af5	-0.001278727
81	0xba3b33ad	-0.0007141184
82	0xbdba01fe	-0.09082411
83	0x3d49df2f	0.04928511
84	0xbd2a2a35	-0.041544158
85	0xbe15825c	-0.1460051
86	0xbda83eb0	-0.08215082
87	0x3d77275d	0.060340274
88	0x3ca91acd	0.020642662
89	0xbde6ec83	-0.1127558
90	0x3ca03c09	0.019559877
91	0xbcd30a03	-0.02576161
92	0x3bc10c4b	0.005891358
93	0x3d029c21	0.031887177
94	0xbd076b34	-0.03306122
95	0x3d8aa109	0.06768996
96	0xbcbf5cfb	-0.023359766
97	0xbbef1283	-0.007295908
98	0xbd479660	-0.048727393
99	0x3c3484df	0.011018007
100	0x3d22bde7	0.039731886
101	0xbd741270	-0.059587896
102	0x3d586a4f	0.05283576
103	0x3d92ed60	0.07174182
104	0x3ca6641f	0.020311413
105	0x3caec2fc	0.02133321
106	0x3d1af421	0.037830476
107	0x3d21c1f8	0.039491624
108	0xbd5702e5	-0.052492995
109	0xbc0455b6	-0.008077076
110	0xbd303e85	-0.043028373
111	0xbc38c579	-0.01127755
112	0xbb9d6fe1	-0.004804597
113	0xbd4bf091	-0.04978997
114	0xbcb5413b	-0.02212583
115	0xbc91cec9	-0.017798798
116	0x3c940a88	0.018071428
117	0xbd28c4a1	-0.041203145
118	0x3d955e5b	0.072933875
119	0x3bdb7e31	0.006698393
120	0x3d8bc216	0.06824128
121	0x3d088cf2	0.03333754
122	0x3d6fb091	0.058517996
123	0x3d6fa47f	0.058506485
124	0xbd5ed86f	-0.054405626
125	0x3db993ba	0.0906138
126	0x3b332d0f	0.002734009
127	0x3d3ddb02	0.04635144
128	0x3d3a6a18	0.045511335
129	0x3d16fd97	0.036862936
130	0x3cb56178	0.022141203
131	0x3d1ed4ff	0.038777348
132	0x3d07de7f	0.033171173
133	0x3d11e3e9	0.035617743
134	0xbd5c3cda	-0.05376897
135	0x3d35d2c6	0.044390462
136	0xbb4314a6	-0.0029766946
137	0x3d02d71c	0.031943426
138	0xbcf77905	-0.030209074
139	0xbbea6c8c	-0.007154053
140	0xbd22f128	-0.039780766
141	0x3dad7621	0.08469797
142	0x3d513981	0.05108023
143	0xbcc1c296	-0.023652356
144	0x3d6ddffc	0.058074936
145	0x3e35d5b0	0.17757297
146	0x3d911b81	0.07085324
147	0x3d654806	0.05597689
148	0xbe2c94e1	-0.16853668
149	0x3cbd4e1c	0.023108535
150	0xbc5050c1	-0.012714566
151	0xbbe044e4	-0.00684415
152	0xbc95cee1	-0.018287124
153	0xbb22d9c0	-0.0024849027
154	0x3d1454aa	0.036213554
155	0xbc2bb04d	-0.010479045
156	0x3a61de2f	0.0008616177
157	0xbc0e72ea	-0.00869439
158	0xbcb18c21	-0.021673264
159	0x3cb41490	0.021982461
160	0x3d367bad	0.04455154
161	0xbd027d98	-0.031858057
162	0xbd16d958	-0.03682837
163	0xbdaea42e	-0.085274085
164	0xbbcc168e	-0.0062282747
165	0xbd47060e	-0.04858976
166	0xbd620769	-0.055182848
167	0xbd162b70	-0.03666252
168	0xbdb06138	-0.08612293
169	0x3d32d62c	0.04366128
170	0x3d7918ed	0.060814787
171	0xbcd2aac8	-0.0257162
172	0x3d0c98d7	0.034325447
173	0x3dde6001	0.10858155
174	0xbcd5f50f	-0.02611783
175	0x3d9f1d62	0.07769276
176	0x3ce80478	0.028322443
177	0x3d0781de	0.033082835
178	0xbccb6696	-0.02482919
179	0xbc8308e1	-0.015995445
180	0x3bed8002	0.0072479257
181	0xbd012e35	-0.031538207
182	0xbc7c1435	-0.015385677
183	0xbd1d8a47	-0.03846195
184	0xbc611dc4	-0.013740007
185	0x3b7179e6	0.0036846339
186	0xbc91c462	-0.017793838
187	0xbb65f18f	-0.0035086607
188	0x3cafd480	0.021463633
189	0x3c8e43b0	0.01736626
190	0xbc5162c3	-0.012779894
191	0xbca64dac	-0.020300709
192	0xbc53c25a	-0.012924755
193	0xbd16d849	-0.03682736
194	0xbbeced85	-0.007230463
195	0xbd1e00c7	-0.03857496
196	0xbc03c8a0	-0.008043438
197	0xbd0a1ca3	-0.033718716
198	0x3d30fb37	0.043208327
199	0x3c57eff9	0.0131797725
200	0xbd31fba0	-0.04345286
201	0x3c42aff5	0.011882772
202	0xbcc3efc8	-0.023918048
203	0xbda8799e	-0.08226322
204	0x3cccb5e4	0.024989076
205	0xbd2bbfe4	-0.041931048
206	0xbd0f7ddf	-0.03503215
207	0xbd241775	-0.040061433
208	0x3d075669	0.03304139
209	0xbc169c05	-0.009192471
210	0xbdd920ed	-0.10601983
211	0xbe007430	-0.12544322
212	0x3dd8ea8d	0.10591612
213	0x3bd2d216	0.0064337356
214	0x3bee1321	0.007265464
215	0xbdfdf802	-0.12400819
216	0xbdd13cd9	-0.10216684
217	0x3d3abdbc	0.0455911
218	0xbca6d60a	-0.020365734
219	0xbda85b00	-0.08220482
220	0xbd9b6bc2	-0.075889125
221	0x3de1c8e9	0.11024649
222	0xbdfaf389	-0.12253482
223	0xbd0d0b65	-0.034434695
224	0xbd13b82e	-0.03606432
225	0x3dac9005	0.08425907
226	0xbddc56a1	-0.10758711
227	0xbdf4b81d	-0.11949179
228	0x3d2238f4	0.039605096
229	0xbdae7620	-0.08518624
230	0x3d4f5cca	0.0506256
231	0xbb7faf00	-0.003901422
232	0x3d07202c	0.032989666
233	0x3d84e85d	0.06489632
234	0x3b0814f9	0.0020764454
235	0x3d589043	0.052871954
236	0x3c26c08f	0.0101777455
237	0x3d7d7e31	0.061887924
238	0xbd57c7a4	-0.052680627
239	0x3b887962	0.0041648606
240	0xbb312519	-0.0027030169
241	0xba6e9b46	-0.0009102117
242	0x3b4760eb	0.0030422758
243	0xbc1828bb	-0.009287055
244	0xbc349aff	-0.011023282
245	0xbd4e90e4	-0.050431147
246	0x3bad402e	0.005287192
247	0xbc894ffd	-0.016761774
248	0xba822d6f	-0.0009931753
249	0xbc0c7aef	-0.0085742315
250	0xbd05e2a6	-0.032686852
251	0x3a16d383	0.00057535636
252	0xbcbdfb7a	-0.023191202
253	0xbd44be3d	-0.048032988
254	0x3c648ab5	0.013949086
255	0x3aaa3bbc	0.0012987773
