models/reference_retraining1/model_params.pt (torch, 745474 bytes, 12 tensors)

embeddings.0.weight f4 [79, 10]
-0.077538915 0.002677654 -0.22512692 -0.012172292 0.17686754 0.2274899 0.2954181 -0.19630338
-0.041213926 -0.2565639 -0.12466275 0.13229391 -0.21548516 -0.015413332 0.13278098 0.15889283
0.28125718 -0.21147205 0.059151568 -0.15655006 -0.12079887 0.043574017 -0.20722322 0.014025955
0.1554843 0.21639428 0.2929147 -0.20053044 -0.0117222 -0.19318943 -0.1076867 0.14370848
-0.29209504 -0.1945892 0.23068532 0.05690915 0.3311817 -0.013839171 -0.07309325 -0.4473555
-0.20406953 0.10238516 -0.26286352 -0.10281941 0.14641558 -0.0071442705 0.317787 -0.13657887
0.07399339 -0.3402691 -0.25437203 -0.029832067 -0.093376726 -0.028592821 0.26919684 -0.109814085
0.3405162 -0.15473665 0.08412027 -0.22541082 -0.42013976 -0.24650198 -0.3452458 -0.032225512
0.21337636 -0.10323888 0.32610077 0.02991261 0.093123645 -0.2340278 -0.26948923 0.10119883
-0.088273115 -0.13546826 0.24776833 0.14146733 0.3776084 -0.20509572 -0.0684903 -0.17309645
0.0665073 0.01737744 -0.21044353 -0.17345944 0.0964329 0.43541363 0.6105206 0.072216466
-0.07468882 0.31986836 -0.005810783 -0.27709994 -0.11035703 -0.12839954 0.12750025 0.22970504
0.59320974 -0.049528904 0.11758033 0.1939576 -0.03934852 -0.2055475 -0.004363855 -0.14027974
0.21282464 0.15791653 0.497481 -0.17574202 0.24248977 0.06971281 -0.18452953 -0.099065475
-0.20463322 -0.10372455 0.5221089 -0.1783085 0.16188276 -0.021658575 0.1510991 0.027979672
-0.14208683 -0.20479895 -0.072675645 -0.047782447 0.5896298 -0.18608518 0.1795034 -0.15193579
0.0247874 0.12810038 -0.06994116 0.104517154 -0.18209498 -0.07791404 0.34681728 0.47634253
0.27434775 -0.18534683 0.3218236 0.39789578 -0.08469284 0.082027875 -0.1346871 -0.0061135488
0.46946028 0.14384165 0.22465537 -0.12841715 -0.030111335 0.23825133 -0.1315979 -0.14019914
-0.265617 -0.13991614 0.50379 -0.0064514107 0.1989824 -0.04061032 0.24734125 0.14376369
-0.18509695 -0.31594142 -0.17288455 -0.1583892 0.6075583 -0.22704145 0.13155583 -0.081388466
-0.074599005 -0.03661606 -0.041703843 -0.06340453 0.0016220202 0.07752938 0.6995442 0.049619067
0.17746277 -0.09111837 -0.17445707 0.20486462 0.14161196 -0.041850585 -0.5418452 0.20828843
0.37759766 0.041423205 0.09156455 0.059703816 -0.13409343 0.4569813 0.19896212 -0.17964515
-0.50700223 0.2266215 0.30832085 0.021079076 0.10699793 -0.00031830577 -0.10203735 0.29323113
0.29406825 -0.4782352 -0.4101934 0.2251803 0.4367614 -0.09049867 0.12863229 -0.0006269335
-0.03514598 0.20841226 0.29515347 -0.47692284 -0.42469954 0.23015615 0.45384073 -0.099544026
0.11095849 -0.0072856057 -0.054551817 0.21975456 0.27584165 -0.4403487 -0.4333498 0.2295686
0.34826496 0.0018440218 0.16131936 -0.0075263972 0.031058162 0.27069998 0.25544012 -0.42531943
-0.4217111 0.21564695 0.36663505 0.0004813223 0.15835972 -0.008501011 0.014457353 0.2461116
0.256588 -0.44217646 -0.42146227 0.22211874 0.36673248 0.008787289 0.15016054 -0.003479888
0.022399927 0.2688615 0.2034261 0.042592343 -0.40635872 0.09819182 0.2765587 0.246898
00000000: b9cc 9ebd 947b 2f3b ac87 66be 4b6e 47bc
00000010: c41c 353e 1df3 683e 0b41 973e c103 49be
00000020: efcf 28bd 585c 83be 2f4f ffbd 0e78 073e
00000030: 24a8 5cbe 3388 7cbc bdf7 073e cdb4 223e
00000040: f100 903e 218c 58be ea48 723d a94e 20be
00000050: 6665 f7bd ab7a 323d 5332 54be 1fcd 653c
00000060: 4737 1f3e 7696 5d3e eaf8 953e da57 4dbe
00000070: 780e 40bc 73d3 45be d88a dcbd 5128 133e
00000080: 7b8d 95be 6442 47be c638 6c3e 9219 693d
00000090: a690 a93e b1bd 62bc eab1 95bd c80b e5be
000000a0: 9af7 50be 50af d13d 0c96 86be fc92 d2bd
000000b0: f7ed 153e 7c1a eabb fab4 a23e 55db 0bbe
000000c0: d989 973d c037 aebe 0d3d 82be 6162 f4bc
000000d0: 4c3c bfbd 7e3b eabc 2bd4 893e 35e6 e0bd
000000e0: 2458 ae3e 4973 1ebe 4047 ac3d 18d2 66be
000000f0: 8f1c d7be 046b 7cbe 0fc4 b0be e6fe 03bd
00000100: 557f 5a3e e86e d3bd aef6 a63e 4a0b f53c
00000110: 9cb7 be3d fca4 6fbe 7efa 89be 5541 cf3d
00000120: 89c8 b4bd 31b8 0abe fbb6 7d3e d0dc 103e
00000130: e355 c13e 9d04 52be a444 8cbd 3240 31be
00000140: fb34 883d 225b 8e3c 827e 57be 5a9f 31be
00000150: 9d7e c53d 89ee de3e 144b 1c3f 3ae6 933d
00000160: 74f6 98bd c9c5 a33e 6168 bebb 0be0 8dbe
00000170: de02 e2bd 2b7b 03be 6d8f 023e cc37 6b3e
00000180: 98dc 173f d2de 4abd f5cd f03d d29c 463e
00000190: ea2b 21bd 0b7b 52be abfe 8ebb 7ea5 0fbe
000001a0: b4ee 593e dfb4 213e d4b5 fe3e b7f5 33be
000001b0: 3d4f 783e 97c5 8e3d 4ff5 3cbe d7e2 cabd
000001c0: 5f8b 51be 896d d4bd eea8 053f 8196 36be
000001d0: 98c4 253e 536d b1bc b9b9 1a3e a035 e53c
000001e0: 367f 11be d1b6 51be f8d6 94bd 87b7 43bd
000001f0: fbf1 163f 1d8d 3ebe bdcf 373e 0e95 1bbe
00000200: f20e cb3c bf2c 033e 503d 8fbd 170d d63d
00000210: 1b77 3abe 6591 9fbd 0992 b13e 2be3 f33e
00000220: 4f77 8c3e 8fcb 3dbe 10c6 a43e ffb8 cb3e
00000230: 7173 adbd 3bfe a73d 6aeb 09be 2a54 c8bb
00000240: 195d f03e 3a4b 133e 0f0c 663e c97f 03be
00000250: 0cac f6bc 28f8 733e 9ac1 06be 5d90 0fbe
00000260: f4fe 87be 2d46 0fbe 62f8 003f 5b66 d3bb
00000270: 0bc2 4b3e 0257 26bd 0647 7d3e ca36 133e
00000280: 0e8a 3dbe 13c3 a1be a608 31be c730 22be
00000290: f188 1b3f 8e7d 68be 92b6 063e ffae a6bd
000002a0: 5dc7 98bd b9fa 15bd a6d1 2abd 3cda 81bd
000002b0: f799 d43a b9c7 9e3d 5415 333f 5d3d 4b3d
000002c0: cdb8 353e 459c babd e0a4 32be 08c8 513e
000002d0: ba02 113e 856b 2bbd 5eb6 0abf 9049 553e
000002e0: 7b54 c13e 61ab 293d 3286 bb3d fd8b 743d
000002f0: ca4f 09be 74f9 e93e babc 4b3e e6f4 37be
00000300: e6ca 01bf 770f 683e 3bdc 9d3e 07ae ac3c
00000310: bb21 db3d 47e2 a6b9 f5f8 d0bd 6422 963e
00000320: 1d90 963e 3edb f4be df04 d2be aa95 663e
00000330: 319f df3e 5e57 b9bd 2fb8 033e cc58 24ba
00000340: 3bf5 0fbd 066a 553e 5b1e 973e 3b2f f4be
00000350: 3872 d9be 0eae 6b3e d05d e83e bddd cbbd
00000360: 343e e33d 17bc eebb ba71 5fbd 5707 613e
00000370: 1e3b 8d3e 6375 e1be 06e0 ddbe 0814 6b3e
00000380: c94f b23e 1bb3 f13a e730 253e ff9f f6bb
00000390: b06d fe3c 3099 8a3e 0cc9 823e 78c3 d9be
000003a0: 84ea d7be 8ed2 5c3e 97b7 bb3e fc59 fc39
000003b0: 0d29 223e d347 0bbc 89de 6c3c ae04 7c3e
000003c0: 815f 833e f464 e2be e7c9 d7be 1873 633e
000003d0: 5cc4 bb3e 90f8 0f3c afc3 193e d50e 64bb
000003e0: 0d80 b73c 37a8 893e ee4e 503e 4f75 2e3d
000003f0: 400e d0be cb18 c93d 1a99 8d3e d4d2 7c3e

encoder.FC.L0.expr_L.weight f4 [45, 2000]
-0.022383446 -0.0045439713 0.009364748 0.031012248 -0.02480164 0.0010238239 -0.009035453 0.0011453894
-0.013571706 -0.014847871 0.0010859163 -0.0059234076 0.010900711 0.0006823826 -0.01378965 -0.020156402
0.005046235 0.009455783 -0.0057426803 0.013796424 0.07390487 0.0025173123 0.017344644 0.0070328373
-0.023163417 0.01660902 0.007148548 -0.019449228 -0.0122935735 -0.021210462 -0.021212287 -0.043186393
0.0109759355 0.006350795 0.003948456 -0.005258833 0.0006592757 0.00850377 0.009031563 0.006687844
-0.014596644 0.00029733495 0.008462214 -0.0004545553 -0.019160474 0.0042406796 -0.0048352517 0.0038671405
-0.0038712856 0.008922203 -0.01919178 -0.013477266 0.0058431756 0.0030205643 0.012351342 -0.004320956
0.0016403465 0.005369263 -0.0076825568 0.0061387303 -0.008958567 -0.044483352 0.034024388 -0.00065980596
0.004087507 -0.015395278 0.01758212 0.0070573413 0.021727331 0.005168422 0.009632273 -0.006319718
-0.008699677 0.008645335 -0.002142965 -0.0010510965 -0.0018919023 -0.012140471 0.017850233 0.03466745
-0.0016934014 -0.01325737 -0.019729072 -0.016749334 -0.01823234 -0.02261962 -0.010827238 0.01951651
-0.016155558 0.005317575 -0.0037726634 -0.008868181 -0.016190197 0.006954445 -0.004299346 -0.0048717824
0.0029057488 -0.0028382887 -0.0121612 -0.0014176003 0.0018457392 0.00093568955 0.02575607 0.008971372
0.0059542013 -0.015441124 -0.008019963 0.0098712975 0.004722147 0.018688042 -0.009470356 0.006169032
0.00039862894 -0.003685445 0.009302707 -0.014959585 0.00073644787 0.008747368 -0.015124055 0.008742286
0.007812465 -0.016779266 -0.0007045647 -0.0106152585 0.011518741 -0.0087564895 -0.011268858 0.018965395
-0.02015667 0.0017748686 -0.022124445 -0.022638567 -0.024530882 0.013726325 0.015478997 -0.005453047
-0.012025188 -0.009847469 -0.014464707 -0.018526418 -0.011997258 -0.0060918885 0.0067887045 0.014688048
-0.0343351 -0.02411148 0.0061794193 -0.001519624 -0.0007079587 0.0076625175 0.011040827 -0.003426777
0.0009072592 -0.009750188 -0.016170897 0.0040970393 -0.0068747057 8.073273e-05 0.026058247 0.0058510453
0.02302298 0.022610491 -0.0057364753 0.00085508556 -0.012179474 0.015101005 -0.015730733 -0.017970102
-0.006069883 -0.0010559715 0.010452274 0.0059099714 0.0051380177 -0.0038670835 -0.0062651066 0.011118419
-0.008519079 -0.02278553 0.01135606 0.0025200658 -0.0023807501 -0.015233076 -0.014063606 -0.001071479
-0.015706202 0.0049463734 -0.0034295514 -0.0009860855 0.010547033 0.003015999 0.01774592 -0.0003100978
0.019600937 -0.012642416 -0.0040965793 0.0032039476 0.044247095 -0.017220002 -0.022895213 -0.03357255
0.0040574786 0.015853422 0.01664009 -0.0057517723 0.016450925 0.019168114 -0.014642494 -0.016185444
-0.021175731 -0.0005277027 -0.040575817 -0.0067165354 -0.005722311 -0.017677132 -0.010433691 0.0014784208
0.0118130995 -0.030079043 -0.010802338 0.021837622 -0.0010085969 0.02910605 -0.013025763 -0.0034426756
0.009503675 -0.011938209 -0.02481808 0.011028253 -0.01508722 0.036444895 -0.048452977 0.012325653
0.014482622 0.006249133 -0.012117724 -0.008850265 0.0042767203 -0.0037136115 0.010604322 0.00572436
0.021282708 0.01617169 -0.010679264 -0.005886439 -0.0081138015 0.07236495 -0.015172089 -0.029108241
0.038536545 -0.0040858192 -0.008934493 0.005407356 -5.1877323e-05 0.045457684 0.005701884 0.005161343
00000000: 7d5d b7bc 98e5 94bb 9a6e 193c 660d fe3c
00000010: cf2c cbbc d431 863a 7009 14bc e420 963a
00000020: dc5b 5ebc 7c44 73bc 4e55 8e3a 2519 c2bb
00000030: e598 323c ece1 323a fced 61bc 0a1f a5bc
00000040: e35a a53b 6eec 1a3c 182d bcbb 650a 623c
00000050: 705b 973d 7ef9 243b 5b16 8e3c b773 e63b
00000060: 35c1 bdbc a40f 883c 5e3e ea3b fd53 9fbc
00000070: fc6a 49bc 90c1 adbc 64c5 adbc 37e4 30bd
00000080: 69d4 333c 541a d03b 0d62 813b 4a52 acbb
00000090: 3ed3 2c3a 6653 0b3c 1ff9 133c b425 db3b
000000a0: c326 6fbc 9fe3 9b39 19a5 0a3c 6151 eeb9
000000b0: 6df6 9cbc 66f5 8a3b 0871 9ebb da6f 7d3b
000000c0: 65b5 7dbb 6f2e 123c 1438 9dbc c0cf 5cbc
000000d0: 1c78 bf3b a9f4 453b 485d 4a3c ce96 8dbb
000000e0: e500 d73a a4f0 af3b f5bd fbbb 6727 c93b
000000f0: f4c6 12bc 2d34 36bd 285d 0b3d d4f6 2cba
00000100: 7ef0 853b 7a3c 7cbc 6108 903c 4541 e73b
00000110: 84fd b13c de5b a93b aed0 1d3c a315 cfbb
00000120: 1789 0ebc 2aa5 0d3c fd70 0cbb f2c4 89ba
00000130: b5f9 f7ba d3e8 46bc a73a 923c 75ff 0d3d
00000140: 1ff5 ddba 7135 59bc dd9e a1bc e635 89bc
00000150: fd5b 95bc c84c b9bc ba64 31bc 17e1 9f3c
00000160: a958 84bc 0d3f ae3b ca3e 77bb d94b 11bc
00000170: 4ea1 84bc 1de2 e33b 87e1 8cbb 79a3 9fbb
00000180: 606e 3e3b 9502 3abb c53f 47bc c6ce b9ba
00000190: bbec f13a 1049 753a 65fe d23c a9fc 123c
000001a0: 761b c33b c5fc 7cbc 2a66 03bc 39bb 213c
000001b0: 3dbc 9a3b aa17 993c 8d29 1bbc 9725 ca3b
000001c0: 12ff d039 8287 71bb 626a 183c 0c19 75bc
000001d0: 2e0e 413a 1f51 0f3c e2ca 77bc ce3b 0f3c
000001e0: b5ff ff3b ac74 89bc 89b2 38ba 9feb 2dbc
000001f0: 1ab9 3c3c 6177 0fbc 04a1 38bc 515d 9b3c
00000200: 9a1f a5bc b5a2 e83a 533e b5bc 8474 b9bc
00000210: fdf4 c8bc 61e4 603c 9e9b 7d3c 79af b2bb
00000220: 4b05 45bc 4757 21bc 61fd 6cbc b7c4 97bc
00000230: 2690 44bc 779e c7bb c873 de3b 23a6 703c
00000240: f6a2 0cbd 7085 c5bc ba7c ca3b 1f2e c7ba
00000250: 4e96 39ba db15 fb3b 96e4 343c c793 60bb
00000260: 22d5 6d3a 41bf 1fbc d478 84bc 7540 863b
00000270: 3645 e1bb 0e4f a938 1b78 d53c 20ba bf3b
00000280: b09a bc3c a339 b93c 0bf9 bbbb d227 603a
00000290: 6b8c 47bc 356a 773c bddd 80bc 0936 93bc
000002a0: dee5 c6bb 8668 8aba 0440 2b3c 6fa8 c13b
000002b0: d15c a83b e56e 7dbb 864b cdbb 072a 363c
000002c0: 9b93 0bbc b8a8 babc c50e 3a3c b027 253b
000002d0: 5c06 1cbb 2794 79bc 0a6b 66bc df70 8cba
000002e0: 4baa 80bc 3015 a23b 53c2 60bb 8a3f 81ba
000002f0: 76cd 2c3c 11a8 453b e45f 913c 9f94 a2b9
00000300: 2592 a03c 2322 4fbc 993c 86bb 52f9 513b
00000310: 713c 353d f610 8dbc be8e bbbc 5f83 09bd
00000320: 99f4 843b 09df 813c cc50 883c 5d79 bcbb
00000330: 17c4 863c 7306 9d3c 12e7 6fbc 5697 84bc
00000340: ba78 adbc 8755 0aba d432 26bd 6216 dcbb
00000350: 3982 bbbb a2cf 90bc 12f2 2abc 92c7 c13a
00000360: bb8b 413c 5368 f6bc 4afc 30bc d0e4 b23c
00000370: e532 84ba d06f ee3c 036a 55bc 839e 61bb
00000380: 4db5 1b3c 7a98 43bc 494f cbbc d8af 343c
00000390: 6330 77bc 3e47 153d a176 46bd 89f1 493c
000003a0: 8548 6d3c 87c5 cc3b 6b89 46bc b400 11bc
000003b0: bb23 8c3b 1060 73bb c0bd 2d3c 6993 bb3b
000003c0: 1359 ae3c 7e7a 843c 14f8 2ebc 07e3 c0bb
000003d0: c0ef 04bc 1334 943d 5b94 78bc 6874 eebc
000003e0: 7fd8 1d3d 56e2 85bb fb61 12bc 3130 b13b
000003f0: da96 59b8 d631 3a3d dfd6 ba3b 7c20 a93b

encoder.FC.L0.expr_L.bias f4 [45]
-0.17732412 0.047628462 -0.31130147 -0.039816316 -0.002719821 -0.015288611 0.0707855 -0.09103599
0.001602616 -0.079480894 0.079953276 0.048959807 -0.010165023 0.15659335 0.5539796 -0.04332616
0.06909628 -0.050691593 -0.012731774 -0.4451847 -0.075935535 -0.1683044 0.09593551 -0.002023494
-0.18695241 0.06256541 1.5938004 -0.061721206 -0.0769302 -0.39912298 -0.09045686 -0.17037418
0.1273446 0.026578713 -0.026412046 0.057082213 -0.0962569 -0.15858911 0.18501088 -0.13907948
-0.120731704 -0.5894 0.042869125 -0.031319983 0.5641648
00000000: 7494 35be 1016 433d e862 9fbe 6f16 23bd
00000010: 063f 32bb 157d 7abc fdf7 903d 1471 babd
00000020: df0e d23a e1c6 a2bd 8bbe a33d 148a 483d
00000030: 328b 26bc 025a 203e 9bd1 0d3f c676 31bd
00000040: 5a82 8d3d fda1 4fbd ee98 50bc 40ef e3be
00000050: 1784 9bbd fd57 2cbe d679 c43d 999c 04bb
00000060: 7470 3fbe 4b22 803d a701 cc3f 60cf 7cbd
00000070: 958d 9dbd d959 ccbe 7241 b9bd 9276 2ebe
00000080: 9f66 023e 9abb d93c 135e d8bc 0acf 693d
00000090: 5622 c5bd 2f65 22be 7e73 3d3e da6a 0ebe
000000a0: 2f42 f7bd ebe2 16bf 8997 2f3d 6249 00bd
000000b0: 1b6d 103f

encoder.FC.L0.cond_L.weight f4 [45, 10]
-0.06512719 -0.18404594 -0.035368834 -0.004843376 -0.24244948 -0.019202102 -0.07823119 0.038997933
-0.057743486 -0.317575 0.081034176 0.061033964 0.030251423 -0.06572266 0.109009184 0.08169617
0.012822099 0.040203705 -0.04717544 0.061421793 -0.07350696 0.006923512 -0.0039590914 -0.0035837034
-0.12425737 -0.07252269 -0.09916966 0.0895481 0.09324622 0.014853159 -0.0330451 0.06505734
0.048937805 -0.01351817 0.010995656 0.024311889 0.006208594 -0.0051647006 -0.030623056 0.00049643766
-0.007701735 -0.022580588 -0.008378431 -0.016217455 -0.0011461806 -0.039669357 0.0022610168 -0.014039348
0.002796492 -0.004863409 0.004862694 -0.118087016 -0.015662475 0.009632912 0.02721695 -0.03885563
-0.040517665 0.0025487687 0.008922417 0.049365185 -0.08251039 -0.022040509 -0.005871252 -0.047446575
0.017167764 0.03349153 0.020563249 -0.032808058 -0.06510719 -0.0822695 -0.0024315722 -0.03267199
0.005124333 0.0067168553 -0.06256552 -0.04075611 -0.020348236 0.0046545547 0.05060109 -0.01148882
-0.012625304 -0.24463323 -0.06088458 -0.018422369 -0.055095393 -0.03988396 -0.07191321 -0.028180921
0.042582557 0.055001255 -0.0108340895 -0.007813667 0.046718925 -0.012989091 0.024594052 -0.023444261
-0.031933375 0.006938751 -0.06087206 -0.0044918684 0.053287502 0.014279105 0.03263901 0.009493089
0.0499228 -0.002658159 0.06136579 0.004571746 0.02342171 0.03096302 0.102652684 0.038812485
0.036860522 -0.027515385 0.061347704 0.041308817 0.03123369 0.017824743 -0.005093744 0.03624842
0.00838337 -0.053896926 0.015660882 -0.020092584 0.009954786 -0.012953675 -0.0047049634 0.004382824
-0.011520899 -0.024374988 -0.12731285 0.09784364 -0.05958697 -0.023164587 0.03666546 0.07747748
0.02694442 -0.020396257 0.027947806 0.06973436 -0.07258523 0.024715131 -0.21326688 0.043468166
-0.16466187 -0.022355288 0.3097774 -0.20409454 0.24462216 -0.14010687 0.0062415926 0.051114585
0.050909523 0.036787365 0.05247893 0.047770455 -0.0026167994 0.015844326 -0.05687914 0.06051836
0.072239816 0.19630113 0.050153427 -0.022648506 0.16460851 0.094762936 0.030427687 -0.00091622985
0.018165037 0.26857322 0.051700816 0.014500114 0.06573214 -0.116549 0.07153548 -0.008712831
-0.028846625 0.051158097 -0.05485402 -0.025020238 0.00471541 -0.042560466 0.009209922 -0.016642746
0.0066615716 -0.017580645 -0.008249217 0.0026805524 -0.008903942 -0.01634728 0.021277828 -0.052044176
0.11771684 0.002283958 -0.040649697 -0.16407105 -0.16342518 0.060090493 -0.025773529 -0.13113528
0.073554605 0.067444086 0.12828937 0.038950294 0.08585626 0.028036475 0.013151769 0.019470284
-0.05472917 -0.05683165 -0.111570895 -0.05089402 0.058451083 -0.04948675 -0.014473605 0.030061489
-0.11936523 -0.0058551757 -0.115921594 1.7910168e-05 -0.032111876 0.065292425 -0.09853774 -0.009731218
-0.062029473 0.027076667 0.005894391 -0.059844963 0.04564641 -0.015515586 -0.14842284 0.004976822
-0.051919453 -0.034726046 0.10021333 0.03233367 -0.07866685 0.08751284 -0.080700025 0.007144756
-0.17915195 0.12893312 0.06841509 -0.020846115 0.10392481 -0.013990261 -0.13716577 0.0763106
-0.070399754 0.077867635 0.022883784 0.06205498 -0.0071941535 0.017235406 0.037121836 0.004241294
00000000: 6761 85bd 8a76 3cbe e9de 10bd 2fb5 9ebb
00000010: ad44 78be ba4d 9dbc ad37 a0bd 4cbc 1f3d
00000020: 6f84 6cbd 3199 a2be 3ff5 a53d c0fe 793d
00000030: d5d1 f73c 9a99 86bd 3540 df3d 5250 a73d
00000040: c813 523c a4ac 243d 093b 41bd 6b95 7b3d
00000050: d18a 96bd a1de e23b 44bb 81bb 91dc 6abb
00000060: a67a febd c786 94bd 7619 cbbd ff64 b73d
00000070: e0f7 be3d aa5a 733c 4c5a 07bd c83c 853d
00000080: 0273 483d 517b 5dbc 2027 343c ba29 c73c
00000090: 7671 cb3b a63c a9bb 34dd fabc 5e23 023a
000000a0: d65e fcbb edfa b8bc b045 09bc 78da 84bc
000000b0: 703b 96ba 567c 22bd 912d 143b 4b05 66bc
000000c0: 5a45 373b 3b5d 9fbb 3c57 9f3b 9bd7 f1bd
000000d0: 974e 80bc 5dd3 1d3c 15f6 de3c 1527 1fbd
000000e0: daf5 25bd 3e09 273b 542f 123c 2633 4a3d
000000f0: 35fb a8bd 4c8e b4bc a263 c0bb 5757 42bd
00000100: 69a3 8c3c 6a2e 093d 4274 a83c be61 06bd
00000110: eb56 85bd e97c a8bd 035b 1fbb 11d3 05bd
00000120: 05ea a73b 1119 dc3b 5a22 80bd e1ef 26bd
00000130: 58b1 a6bc 3c85 983b 1743 4f3d 9b3b 3cbc
00000140: 5dda 4ebc 2281 7abe 1c62 79bd 82ea 96bc
00000150: b5ab 61bd 5d5d 23bd 3c47 93bd addb e6bc
00000160: 0c6b 2e3d ff48 613d 7781 31bc e504 00bc
00000170: 585c 3f3d 32d0 54bc 7779 c93c 2e0e c0bc
00000180: 92cc 02bd 765e e33b fb54 79bd 8630 93bb
00000190: ff43 5a3d e8f2 693c 7cb0 053d e788 1b3c
000001a0: da7b 4c3d 8234 2ebb b25a 7b3d 96ce 953b
000001b0: e3de bf3c 29a6 fd3c 923b d23d d7f9 1e3d
000001c0: 0ffb 163d f267 e1bc bb47 7b3d 6f33 293d
000001d0: ccdd ff3c 3205 923c 6ce9 a6bb 3979 143d
000001e0: 675a 093c 06c3 5cbd 404b 803c 3499 a4bc
000001f0: 6619 233c a73b 54bc 182c 9abb cb9d 8f3b
00000200: 27c2 3cbc 0eae c7bc 4d5e 02be 3f62 c83d
00000210: 7711 74bd a9c3 bdbc 852e 163d 83ac 9e3d
00000220: 8bba dc3c 0d16 a7bc ccf2 e43c e3d0 8e3d
00000230: 91a7 94bd 6377 ca3c a262 5abe ad0b 323d
00000240: 1f9d 28be 7022 b7bc 259b 9e3e 29fe 50be
00000250: 3b7e 7a3e 2d78 0fbe 4686 cc3b 875d 513d
00000260: 8186 503d 59ae 163d 26f4 563d f4aa 433d
00000270: 9c7e 2bbb f6cb 813c 1afa 68bd 1ae2 773d
00000280: 78f2 933d 2a03 493e ae6d 4d3d 5c89 b9bc
00000290: 228f 283e 1213 c23d 7c43 f93c 252f 70ba
000002a0: d8ce 943c 6e82 893e 3cc4 533d e391 6d3c
000002b0: 929e 863d 3eb1 eebd 3281 923d 43c0 0ebc
000002c0: c24f ecbc 278b 513d 9cae 60bd 3ef7 ccbc
000002d0: ba83 9a3b e253 2ebd 36e5 163c 5e56 88bc
000002e0: 5049 da3b 4905 90bc b927 07bc 35ac 2f3b
000002f0: d7e1 11bc bbea 85bc d74e ae3c 462c 55bd
00000300: 8715 f13d 75ae 153b 4c80 26bd 3e02 28be
00000310: ee58 27be 7321 763d 0223 d3bc 5448 06be
00000320: cca3 963d 2020 8a3d 4a5e 033e 588a 1f3d
00000330: 68d5 af3d c0ac e53c 847a 573c 2580 9f3c
00000340: b22b 60bd 4ec8 68bd 487f e4bd 3f76 50bd
00000350: 676a 6f3d 9eb2 4abd b322 6dbc 8343 f63c
00000360: c275 f4bd c6dc bfbb 4d68 edbd cb3d 9637
00000370: be87 03bd 09b8 853d 28ce c9bd b06f 1fbc
00000380: 9e12 7ebd e3cf dd3c bc25 c13b fe1f 75bd
00000390: bbf7 3a3d 1635 7ebc 28fc 17be 9c14 a33b
000003a0: 7ea9 54bd e63c 0ebd a53c cd3d 4f70 043d
000003b0: 161c a1bd ef39 b33d 0e46 a5bd 8f1e ea3b
000003c0: 9c73 37be 0b07 043e 361d 8c3d 79c5 aabc
000003d0: 88d6 d43d 6837 65bc 2f75 0cbe bb48 9c3d
000003e0: bf2d 90bd 1179 9f3d c676 bb3c 5d2d 7e3d
000003f0: efbc ebbb 4431 8d3c 110d 183d 8efa 8a3b

encoder.mean_encoder.weight f4 [10, 45]
0.047897182 0.10003146 0.0171712 -0.032359824 0.017533204 0.014685648 -0.0034716853 -0.048675638
0.076971196 -0.068337016 0.02062974 0.08190621 0.010893009 -0.011550561 -0.012806101 -0.018070104
-0.00250221 0.16734074 0.012625485 -0.034178928 -0.04496416 -0.074225195 0.030171579 0.05022131
0.009524146 0.01601001 0.055996075 -0.057549145 -0.022189684 -0.03633972 -0.009704514 -0.019710077
0.0075899553 0.0421785 -0.0013314933 0.1299176 -0.059932712 -0.0002646835 0.058132347 0.0066027422
-0.08666411 -0.010317283 0.011459772 -0.014542952 0.040076856 -0.017439198 0.037522223 0.3064952
-0.03003289 0.066028684 -0.012301744 -0.0037059665 0.08402347 -0.0071842247 -0.047095574 -0.014226371
0.03250625 -0.011452931 0.0112016965 0.06279027 -0.026184373 0.0029048263 0.040903483 -0.012313286
0.09166767 0.00722432 -0.026713304 0.048926394 0.021841383 0.030789927 -0.058756202 -0.042880196
-0.060269844 -0.03635151 -0.06170032 -0.0009377325 -0.026037134 0.005864347 -0.021370327 -0.0036552525
0.04801717 -0.027672902 0.00051361497 0.056476217 0.26391116 -0.09401397 -0.030144969 -0.0921727
-0.0041956175 -0.08888263 0.00705011 -0.07713915 0.026783265 0.0041446923 0.0787054 0.0050804107
0.009490392 0.037467327 -0.0015591988 -0.019595554 -0.011536433 -0.061629 -0.0010018102 0.007085728
-0.049092386 -0.031827383 -0.008083179 -0.03537846 -0.00067107263 0.00058559654 0.020645265 0.023081873
-0.0043749297 0.009824672 0.012513628 0.10993243 -0.02725464 -0.037541647 0.010536225 -0.025178978
-0.028463647 -0.016128913 0.03740815 0.009160214 -0.002869863 -0.09369328 -0.017211733 -0.075537086
0.008578836 0.12498073 -0.048606046 0.04666133 0.17616571 0.0014856352 0.013562268 0.0012989669
-0.028576566 -0.23762406 0.009266372 -0.09606573 0.028990403 0.0041505313 -0.007866671 0.008120905
0.01935571 0.013081069 -0.025136424 0.018677142 0.0045829085 0.07356123 0.00035064376 -0.010951436
-0.024446316 0.018752284 -0.054551598 0.0144011155 0.03377598 -0.0062023243 -0.03646607 -0.044387344
0.04303626 0.10267297 0.010298389 0.024841893 0.017470313 0.0119561255 0.028305244 0.036875166
0.0016580286 0.00087827863 -0.032973964 0.016423402 -0.03346654 -2.1608019e-05 -0.07607567 0.00018624554
-0.07996219 0.06571077 0.004625341 0.014700768 -0.05875428 0.033133734 -0.078130856 -0.011438297
-0.038833562 0.048271026 -0.0059961737 0.11158021 0.047894515 0.010891604 0.025947392 0.019823112
0.0257161 0.005735948 -0.026646575 0.008246328 0.034394108 0.022905376 0.029274866 -0.040776078
-0.023677532 0.04912743 0.034754556 0.0027401785 -0.0105821 -0.14114897 0.03202172 -0.014809459
0.019194448 -0.026967913 0.018612986 -0.004046029 0.010507051 -0.055411495 0.0034120425 0.051567964
0.021806488 0.01207555 0.016847137 -0.05920509 0.012931121 0.019242456 -0.21263403 0.030596847
0.03877376 -0.012314474 -0.010203878 0.16913053 0.0122152 0.025212703 -0.014955669 -0.0061196852
0.046982627 0.0216473 0.013472625 -0.02937654 -0.013571515 -0.0235509 0.010092531 0.013307577
0.015934652 0.027031953 0.0224818 -0.0250962 0.043785643 -0.033144057 -0.02219258 -0.04226647
0.0068864976 0.026699016 0.0070332824 -0.06921346 0.010904463 0.023549369 0.05462442 0.0017390013
00000000: d62f 443d 4bdd cc3d 9eaa 8c3c bc8b 04bd
00000010: cba1 8f3c 129c 703c 3785 63bb 1b60 47bd
00000020: 13a3 9d3d 47f4 8bbd b3ff a83c 71be a73d
00000030: 9778 323c 903e 3dbc aed0 51bc c107 94bc
00000040: 1efc 23bb 5f5b 2b3e 1fdb 4e3c 34ff 0bbd
00000050: 572c 38bd 6103 98bd 632a f73c dcb4 4d3d
00000060: 2a0b 1c3c 6d27 833c 245c 653d a7b8 6bbd
00000070: 24c7 b5bc f5d8 14bd afff 1ebc 0777 a1bc
00000080: 29b5 f83b 5dc3 2c3d 8085 aeba 1f09 053e
00000090: 017c 75bd 38c5 8ab9 2f1c 6e3d d15b d83b
000000a0: f47c b1bd d209 29bc c4c1 3b3c 9045 6ebc
000000b0: a127 243d a6dc 8ebc e7b0 193d f0ec 9c3e
000000c0: 8907 f6bc 0c3a 873d 418d 49bc cddf 72bb
000000d0: 7f14 ac3d a569 ebbb 4ae7 40bd ba15 69bc
000000e0: 4625 053d 13a5 3bbc 5287 373c 2f98 803d
000000f0: 9c80 d6bc e65e 3e3b 698a 273d aabd 49bc
00000100: 42bc bb3d fdb9 ec3b dcd5 dabc 0b67 483d
00000110: b3ec b23c 283b fc3c 58aa 70bd 25a3 2fbd
00000120: 83dd 76bd 52e5 14bd 7ab9 7cbd 2ad2 75ba
00000130: d44b d5bc b529 c03b d310 afbc f68c 6fbb
00000140: a7ad 443d 48b2 e2bc 1ea4 063a 9b53 673d
00000150: 5d1f 873e 658a c0bd 95f2 f6bc 0ac5 bcbd
00000160: 647b 89bb 1908 b6bd 9c04 e73b 21fb 9dbd
00000170: 9468 db3c 33d0 873b 4c30 a13d 9379 a63b
00000180: 977d 1b3c 5777 193d 085e ccba db86 a0bc
00000190: 4f03 3dbc b16e 7cbd 2c4f 83ba 652f e83b
000001a0: 1915 49bd 6e5d 02bd 4f6f 04bc 01e9 10bd
000001b0: ecea 2fba b882 193a 4220 a93c 3216 bd3c
000001c0: 925b 8fbb a9f7 203c f605 4d3c 4124 e13d
000001d0: 1f45 dfbc 45c5 19bd 21a0 2c3c 2544 cebc
000001e0: 982c e9bc c820 84bc 4a39 193d b914 163c
000001f0: 5014 3cbb 43e2 bfbd 9fff 8cbc 30b3 9abd
00000200: 3f8e 0c3c e6f5 ff3d 2217 47bd f31f 3f3d
00000210: c964 343e a5b9 c23a 4634 5e3c 1942 aa3a
00000220: 6719 eabc b953 73be fbd1 173c 1cbe c4bd
00000230: 487d ed3c 2e01 883b 36e3 00bc 8b0d 053c
00000240: de8f 9e3c fb51 563c e7ea cdbc ce00 993c
00000250: 392c 963b 45a7 963d 9cd6 b739 a76d 33bc
00000260: a443 c8bc 649e 993c 7f71 5fbd a8f2 6b3c
00000270: af58 0a3d de3c cbbb 725d 15bd 81cf 35bd
00000280: ca46 303d 3546 d23d 93ba 283c 3a81 cb3c
00000290: e71d 8f3c a0e3 433c 66e0 e73c 6a0a 173d
000002a0: 3552 d93a 483c 663a b50f 07bd 5f8a 863c
000002b0: 3614 09bd de42 b5b7 90cd 9bbd e84a 4339
000002c0: 37c3 a3bd 5e93 863d 2c90 973b 7ddb 703c
000002d0: 54a8 70bd 3db7 073d 1203 a0bd b267 3bbc
000002e0: f10f 1fbd d7b7 453d 8d7b c4bb 2a84 e43d
000002f0: 0a2d 443d b372 323c a08f d43c 1464 a23c
00000300: 92aa d23c 9ff4 bb3b eb49 dabc 9b1b 073c
00000310: d6e0 0c3d 0ea4 bb3c d8d1 ef3c d104 27bd
00000320: 62f7 c1bc d839 493d cb5a 0e3d 9194 333b
00000330: 8b60 2dbc 5b89 10be 3529 033d 60a3 72bc
00000340: ad3d 9d3c d0eb dcbc 437a 983c 8d94 84bb
00000350: c425 2c3c 2af7 62bd 939c 5f3b ee38 533d
00000360: 85a3 b23c 87d8 453c 0203 8a3c 0981 72bd
00000370: 0ddd 533c 5ba2 9d3c bcbc 59be 3da6 fa3c
00000380: 3cd1 1e3d a6c2 49bc 2b2e 27bc 8e30 2d3e
00000390: 4322 483c df8a ce3c 9f08 75bc a487 c8bb
000003a0: db70 403d ae55 b13c 49bc 5c3c 12a7 f0bc
000003b0: 0f5b 5ebc d1ed c0bc 255b 253c 0608 5a3c
000003c0: 6389 823c 1d72 dd3c c02b b83c 8c96 cdbc
000003d0: 9358 333d 10c2 07bd 37cd b5bc 9b1f 2dbd
000003e0: 21a8 e13b e5b7 da3c 7377 e63b c9bf 8dbd
000003f0: a2a8 323c 9bea c03c dbbd 5f3d 33ef e33a

encoder.mean_encoder.bias f4 [10]
-0.3591822 0.07734832 -0.07249979 0.09992281 0.079429284 0.06279365 0.046213496 0.029781291
-0.3808557 -0.21350932
00000000: bbe6 b7be cc68 9e3d c57a 94bd 55a4 cc3d
00000010: d2ab a23d f599 803d 5d4a 3d3d e5f7 f33c
00000020: 85ff c2be 30a2 5abe

encoder.log_var_encoder.weight f4 [10, 45]
-0.105905205 -0.12716627 -0.38474807 -0.4775933 -0.25921094 -0.20993863 -0.7464533 -0.23406361
-0.16530195 -0.271838 -0.32326952 -0.1803275 -0.36083704 -0.5912908 -0.1275356 -0.45427758
-0.20798828 0.07724545 -0.37976277 -0.23905705 -0.4416132 -0.11911405 -0.36343157 -0.10647524
-0.33199224 -0.23788458 -0.110606246 -0.19891717 -0.17868367 -0.20198101 -0.5282452 -0.20471601
-0.19558573 -0.2459744 -0.8216567 -0.15137179 -0.29199347 -0.2478915 -0.07661835 -0.30262363
-0.108198196 -0.18108185 -0.19755378 -0.30558285 -0.13337615 -0.17292829 -0.19433756 -0.32444894
-0.42719594 -0.24130663 -0.22010621 -0.753232 -0.22628194 -0.24303153 -0.25620812 -0.33571535
-0.24326545 -0.36939713 -0.58375764 -0.06816951 -0.42693043 -0.24641435 -0.07856858 -0.38790587
-0.2710921 -0.4292358 -0.12822671 -0.4058785 -0.1815698 -0.3815169 -0.26144993 -0.064364225
-0.23667279 -0.18306604 -0.22076827 -0.5090899 -0.22465417 -0.17135683 -0.3084642 -0.8320904
-0.21652222 -0.28110397 -0.17994566 -0.1504179 -0.30080175 -0.07708691 -0.17590876 -0.18251318
-0.33361748 -0.17817144 -0.17846759 -0.25027737 -0.3508904 -0.418568 -0.21205877 -0.24855295
-0.7609036 -0.22350277 -0.28910974 -0.24913757 -0.40621343 -0.27393204 -0.43677816 -0.59512365
-0.1360022 -0.44538906 -0.25275043 -0.11600212 -0.44527665 -0.24043469 -0.46459335 -0.1361933
-0.40290484 -0.21704885 -0.37946475 -0.29151905 -0.13509771 -0.19504613 -0.1839311 -0.2161952
-0.49365708 -0.2300821 -0.18514253 -0.337895 -0.8576393 -0.24439903 -0.27778497 -0.15709226
-0.1660568 -0.29696605 -0.061523315 -0.15080363 -0.1819287 -0.34825018 -0.17769186 -0.20162036
-0.23713008 -0.2770163 -0.56706256 -0.120589286 -0.26677033 -0.83455 -0.15656097 -0.2773045
-0.38232204 -0.42325428 -0.2642297 -0.44545847 -0.65097237 -0.11185403 -0.5532463 -0.30234668
-0.13851053 -0.4444272 -0.23110244 -0.4940614 -0.20679612 -0.41158932 -0.23201758 -0.38559762
-0.28147268 -0.14123334 -0.28555724 -0.24535969 -0.24988429 -0.51906025 -0.24659325 -0.24957459
-0.386228 -0.9394952 -0.24221425 -0.41078496 -0.2301156 -0.2213829 -0.22794704 -0.037716866
-0.143924 -0.17202064 -0.37959832 -0.24075985 -0.14299902 -0.1671101 -0.3801259 -0.40919524
-0.2513772 -0.24628742 -0.7469523 -0.23943484 -0.26025686 -0.23956396 -0.3540378 -0.21483326
-0.39206827 -0.5981371 -0.08655876 -0.4058044 -0.22524442 -0.071912155 -0.43531162 -0.24423937
-0.4361368 -0.13511199 -0.40736592 -0.16808182 -0.3474146 -0.27611637 -0.10120207 -0.19568723
-0.17798187 -0.20848621 -0.51536804 -0.19152862 -0.20449746 -0.25030428 -0.8316689 -0.20554695
-0.2574716 -0.16754434 -0.15906636 -0.327761 -0.08626882 -0.13822903 -0.18714303 -0.3082668
-0.15969807 -0.15697703 -0.20409626 -0.35465944 -0.48165402 -0.1839089 -0.20288719 -0.8083817
-0.20071979 -0.26222813 -0.3154696 -0.40023595 -0.2505111 -0.45186734 -0.5906481 -0.122715995
-0.4900402 -0.24748373 -0.09649459 -0.4301424 -0.2650561 -0.4339121 -0.13277881 -0.35236204
-0.16254225 -0.35781482 -0.22232932 -0.10581536 -0.22908893 -0.2156569 -0.23561041 -0.53463304
00000000: d4e4 d8bd e037 02be b3fd c4be 1c87 f4be
00000010: 4cb7 84be 27fa 56be 9017 3fbf 5fae 6fbe
00000020: ea44 29be 5a2e 8bbe 9583 a5be c6a7 38be
00000030: a2bf b8be d55e 17bf b198 02be 1297 e8be
00000040: e1fa 54be dd32 9e3d 4470 c2be 5fcb 74be
00000050: 201b e2be 11f2 f3bd b413 babe b10f dabd
00000060: e3fa a9be 0498 73be 8785 e2bd f1b0 4bbe
00000070: daf8 36be 1cd4 4ebe 143b 07bf 13a1 51be
00000080: a047 48be b7e0 7bbe 1858 52bf 3501 1bbe
00000090: 2b80 95be 45d7 7dbe 15ea 9cbd 7cf1 9abe
000000a0: 0497 ddbd 856d 39be 8a4b 4abe 5b75 9cbe
000000b0: c293 08be 1d14 31be 6d00 47be 2c1e a6be
000000c0: 6db9 dabe 1619 77be 8663 61be d0d3 40bf
000000d0: 74b6 67be 42dd 78be b62d 83be e2e2 abbe
000000e0: 941a 79be 9f21 bdbe 2471 15bf 759c 8bbd
000000f0: a096 dabe 0b54 7cbe 90e8 a0bd 999b c6be
00000100: 95cc 8abe cbc4 dbbe dd4d 03be 4fcf cfbe
00000110: 6fed 39be 2f56 c3be c4dc 85be 64d1 83bd
00000120: 5a5a 72be aa75 3bbe 1411 62be b753 02bf
00000130: be0b 66be 2a78 2fbe 05ef 9dbe e003 55bf
00000140: 00b8 5dbe dcec 8fbe ad43 38be 2607 1abe
00000150: b002 9abe bedf 9dbd 6d21 34be bce4 3abe
00000160: e9cf aabe 9372 36be 35c0 36be 5b24 80be
00000170: e8a7 b3be 8b4e d6be ef25 59be aa84 7ebe
00000180: 94ca 42bf e9dd 64be 3106 94be eb1d 7fbe
00000190: 35fb cfbe d240 8cbe 63a1 dfbe 065a 18bf
000001a0: 2944 0bbe 090a e4be 8168 81be 8592 edbd
000001b0: 4dfb e3be 8334 76be 2edf edbe 4276 0bbe
000001c0: 8b49 cebe 0e42 5ebe 3449 c2be fc41 95be
000001d0: 0e57 0abe 2cba 47be 6f58 3cbe 4662 5dbe
000001e0: 9fc0 fcbe a49a 6bbe 0196 3dbe 9300 adbe
000001f0: 408e 5bbf bd43 7abe d539 8ebe cbdc 20be
00000200: cb0a 2abe ef0b 98be dfff 7bbd 446c 1abe
00000210: 844b 3abe d94d b2be dbf4 35be 9175 4ebe
00000220: 3ad2 72be 15d5 8dbe 032b 11bf 84f7 f6bd
00000230: 1f96 88be 12a5 55bf 8551 20be dbfa 8dbe
00000240: b7bf c3be c9b4 d8be 1e49 87be 2213 e4be
00000250: 20a6 26bf ba13 e5bd 8da1 0dbf 2fcd 9abe
00000260: b4d5 0dbe f68b e3be 1ea6 6cbe 9ef5 fcbe
00000270: 5dc2 53be d6bb d2be 0496 6dbe 0d6d c5be
00000280: 301d 90be 799f 10be 8f34 92be 923f 7bbe
00000290: abe1 7fbe 22e1 04bf f182 7cbe 7b90 7fbe
000002a0: adbf c5be c282 70bf 0307 78be 6852 d2be
000002b0: 6da3 6bbe 33b2 62be f36a 69be 007d 1abd
000002c0: d060 13be 2e26 30be b65a c2be c089 76be
000002d0: 566e 12be e91e 2bbe dd9f c2be 0a82 d1be
000002e0: 83b4 80be c532 7cbe 4438 3fbf 682e 75be
000002f0: 6340 85be 4150 75be 7144 b5be 40fd 5bbe
00000300: 2cbd c8be 831f 19bf b845 b1bd 98c5 cfbe
00000310: 79a6 66be ae46 93bd 2ae1 debe e319 7abe
00000320: 534d dfbe cc5a 0abe 4492 d0be a41d 2cbe
00000330: 54e0 b1be 205f 8dbe 0843 cfbd 3c62 48be
00000340: e140 36be 697d 55be 29ef 03bf 1420 44be
00000350: c867 51be e227 80be 41e8 54bf e67a 52be
00000360: 51d3 83be be90 2bbe 4be2 22be 4ad0 a7be
00000370: b5ad b0bd e98b 0dbe 6ca2 3fbe 25d5 9dbe
00000380: e487 23be 96be 20be 9cfe 50be ec95 b5be
00000390: 5b9b f6be 9d52 3cbe a9c1 4fbe 1af2 4ebf
000003a0: 7d89 4dbe c442 86be 3b85 a1be baeb ccbe
000003b0: fe42 80be 285b e7be b734 17bf 8652 fbbd
000003c0: 8de6 fabe 606c 7dbe f59e c5bd a03b dcbe
000003d0: 6fb5 87be ba29 debe 2bf7 07be cc68 b4be
000003e0: 7a71 26be 8133 b7be 4caa 63be b9b5 d8bd
000003f0: 4a96 6abe 2ad5 5cbe db43 71be b6dd 08bf

encoder.log_var_encoder.bias f4 [10]
-0.98342764 -0.9917205 -1.0259422 -1.0849644 -0.976581 -1.0063152 -1.009836 -1.0381929
-0.85647714 -0.9379818
00000000: eac1 7bbf 65e1 7dbf 1352 83bf 1de0 8abf
00000010: 3601 7abf f0ce 80bf 4e42 81bf 81e3 84bf
00000020: 1642 5bbf 931f 70bf

decoder.FirstL.L0.expr_L.weight f4 [45, 10]
0.07430471 -0.14128172 -0.12638636 0.03922878 0.021342445 0.36909142 -0.12814407 -0.03389411
-0.06656031 0.011595417 -0.1100517 -0.14020771 -0.06987793 -0.10875892 -0.018461322 -0.062095873
0.22727938 -0.27480835 0.020371066 0.09770383 0.03624242 0.011523461 0.16529661 0.06669862
0.06160478 -0.06892284 0.2428938 0.21023494 -0.0032325587 -0.10303549 0.033469398 -0.07686395
0.061404586 0.052637145 -0.028978685 0.075904794 -0.23351784 -0.19023536 0.0824319 0.20294708
0.08130117 -0.00837687 0.012681376 -0.046277665 0.029589375 -0.023872482 0.017984562 0.053628564
-0.024564018 -0.019744236 -0.1739385 -0.15478991 -0.13823983 -0.3163238 -0.07503703 -0.081283994
-0.12340801 -0.0031602315 -0.11914989 -0.10020101 -0.044959053 0.06067101 0.12048952 0.044194568
0.21354477 0.09611875 0.07610034 -0.23652957 -0.05157442 -0.08162913 0.043027326 0.018056048
-0.007697792 -8.365841e-05 0.014452251 -0.04224683 0.035178967 0.055055365 -0.012946356 -0.0525397
-0.01197076 -0.052022986 -0.093435846 0.066994846 -0.010337395 0.16634057 0.168667 0.014130866
-0.03843132 -0.06355463 -0.17554824 0.019892694 -0.109486185 0.044629816 -0.08921327 -0.3182176
0.096690744 -0.10437003 0.0356735 0.057901025 0.111455075 0.25083992 0.3417965 0.29890913
0.116151184 0.076215625 -0.052376635 0.47103035 0.027389284 0.047107846 -0.1663815 0.28637198
0.0031487106 -0.25805202 -0.18717252 0.29323336 -0.18663606 0.049790766 -0.09370268 0.12711743
-0.004959971 -0.28756204 -0.22093748 -0.27837867 -0.115740746 -0.057439238 0.021610621 -0.39553422
-0.028060943 -0.046621554 0.11138072 0.017836154 0.026464969 0.01985315 0.10522355 -0.010714663
0.15670715 -0.07518807 0.017926496 -0.06116205 0.09706112 -0.0608833 0.010665885 0.044973686
0.037801065 -0.09965713 0.058832422 0.041743793 0.022306245 -0.016523696 0.017486664 0.03276568
0.110873125 0.11355343 0.12924805 -0.030959105 0.004887581 0.08320729 -0.023002308 0.029684322
-0.12843679 0.093917996 0.06792388 0.1597007 -0.12480576 0.13392632 -0.14192614 -0.08841516
0.046186157 0.21264905 0.038161878 -0.0034248582 -0.002403604 0.062351264 0.0072659394 -0.042768575
0.04904577 0.0028923932 0.012253378 -0.017676944 -0.008291414 0.31210646 -0.32817823 0.6490785
-0.14437921 0.024574384 0.29125446 -0.16607621 -0.003957071 -0.022630833 -0.117514245 -0.049909506
-0.024083389 -0.24180116 -0.010546716 0.17271054 -0.05438748 -0.043259624 -0.0331281 0.028481543
-0.13481234 0.15256308 -4.2015992e-05 0.1399967 -0.1547595 -0.06447788 -0.31590113 0.33054072
-0.015327775 0.0853151 0.045492206 0.12651382 0.048327744 -0.06941951 -0.010304838 -0.04007735
0.13521667 0.11452472 -0.004945341 -0.009687682 -0.05638318 -0.056320395 -0.25559458 -0.13555343
-0.072717465 -0.10203946 0.06602584 -0.055493534 -0.010128092 -0.060628638 -0.083528526 -0.06879486
0.19082202 0.09291435 0.16373605 0.030880533 0.04741645 -0.23118676 0.054886505 0.17528334
0.15920843 -0.0550685 0.055102244 -0.04115811 0.0310042 -0.035362355 0.17684935 -0.03874782
0.035314243 0.055840474 -0.027431188 0.17403664 0.15326248 -0.080657005 0.0058185686 -0.30478337
00000000: 112d 983d 28ac 10be 6d6b 01be 5bae 203d
00000010: 5ad6 ae3c 8df9 bc3e 3338 03be 8dd4 0abd
00000020: c650 88bd b4fa 3d3c c962 e1bd 9c92 0fbe
00000030: 291c 8fbd ffbc debd 333c 97bc 3e58 7ebd
00000040: edbb 683e aeb3 8cbe 39e1 a63c f218 c83d
00000050: ef72 143d e6cc 3c3c 8443 293e 4999 883d
00000060: 4b55 7c3d 6b27 8dbd 27b9 783e d447 573e
00000070: 56d9 53bb 4504 d3bd 3517 093d d96a 9dbd
00000080: 6083 7b3d 0c9a 573d b564 edbc f973 9b3d
00000090: 4d1f 6fbe 0fcd 42be 0ed2 a83d 5cd1 4f3e
000000a0: 3a81 a63d 243f 09bc 8cc5 4f3c a68d 3dbd
000000b0: 6b65 f23c 3990 c3bc 5c54 933c a0a9 5b3d
000000c0: 7b3a c9bc aabe a1bc ef1c 32be 3f81 1ebe
000000d0: be8e 0dbe 31f5 a1be 04ad 99bd 3978 a6bd
000000e0: 57bd fcbd e31b 4fbb dc04 f4bd 3036 cdbd
000000f0: fc26 38bd 2a82 783d 36c3 f63d 5d05 353d
00000100: 7bab 5a3e e8d9 c43d 7fda 9b3d cf34 72be
00000110: b33f 53bd 2c2d a7bd 6c3d 303d 47ea 933c
00000120: c23d fcbb c471 afb8 22c9 6c3c 030b 2dbd
00000130: d217 103d bc81 613d f41c 54bc de33 57bd
00000140: 0221 44bc 0e16 55bd 4b5b bfbd 9834 893d
00000150: 2d5e 29bc 2f55 2a3e 0bb7 2c3e 2685 673c
00000160: 296a 1dbd ee28 82bd ebc2 33be 01f6 a23c
00000170: 4b3a e0bd c1cd 363d 72b5 b6bd 6bed a2be
00000180: cc05 c63d f4bf d5bd 601e 123d a029 6d3d
00000190: 8f42 e43d 176e 803e f3ff ae3e 9e0a 993e
000001a0: ace0 ed3d f016 9c3d e288 56bd e42a f13e
000001b0: 7e5f e03c 28f4 403d e95f 2abe 599f 923e
000001c0: 995a 4e3b 651f 84be 27aa 3fbe af22 963e
000001d0: 861d 3fbe 67f1 4b3d 31e7 bfbd 122b 023e
000001e0: 4187 a2bb 553b 93be 6f3d 62be a687 8ebe
000001f0: 7c09 edbd 6845 6bbd c208 b13c 7683 cabe
00000200: 10e0 e5bc 3ef6 3ebd 931b e43d 201d 923c
00000210: 10cd d83c 13a3 a23c 727f d73d 8e8c 2fbc
00000220: d777 203e 34fc 99bd 96da 923c 0f85 7abd
00000230: fbc7 c63d c460 79bd f7bf 2e3c 5436 383d
00000240: 4ad5 1a3d 0a19 ccbd 44fa 703d 8afb 2a3d
00000250: 96bb b63c b45c 87bc 3140 8f3c 4e35 063d
00000260: 7311 e33d b38e e83d 9a59 043e f39d fdbc
00000270: 0028 a03b 9568 aa3d 566f bcbc 892c f33c
00000280: ef84 03be 1458 c03d ad1b 8b3d 9588 233e
00000290: 2a9a ffbd fb23 093e 1655 11be 0213 b5bd
000002a0: b22d 3d3d acc0 593e a14f 1c3d 9673 60bb
000002b0: c985 1dbb 0a64 7f3d 1e17 ee3b 1a2e 2fbd
000002c0: 38e4 483d 4e8e 3d3b 64c2 483c 3dcf 90bc
000002d0: b6d8 07bc 6bcc 9f3e fa06 a8be 022a 263f
000002e0: 25d8 13be 3850 c93c 4e1f 953e e20f 2abe
000002f0: 51aa 81bb 4c64 b9bc 4fab f0bd e96d 4cbd
00000300: 874a c5bc b99a 77be 22cc 2cbc 08db 303e
00000310: 68c5 5ebd 0131 31bd 55b1 07bd 2052 e93c
00000320: 3f0c 0abe 7f39 1c3e 543a 30b8 4c5b 0f3e
00000330: 4679 1ebe fb0c 84bd cbbd a1be a23c a93e
00000340: 5921 7bbc afb9 ae3d 0956 3a3d d78c 013e
00000350: 50f3 453d d12b 8ebd a0d5 28bc 2628 24bd
00000360: 3d76 0a3e f08b ea3d 870c a2bb 15b9 1ebc
00000370: 0df2 66bd 37b0 66bd 4bdd 82be 85ce 0abe
00000380: e5ec 94bd 10fa d0bd 8e38 873d 304d 63bd
00000390: 4cf0 25bc bc55 78bd 0111 abbd 52e4 8cbd
000003a0: d966 433e e149 be3d 6caa 273e 2cf9 fc3c
000003b0: c037 423d 39bc 6cbe acd0 603d 7a7d 333e
000003c0: 8907 233e 828f 61bd e4b2 613d 6895 28bd
000003d0: 85fc fd3c 1ed8 10bd ff17 353e 09b6 1ebd
000003e0: aba5 103d fbb8 643d 5fb7 e0bc a936 323e
000003f0: d7f0 1c3e 802f a5bd b1a9 be3b 910c 9cbe

decoder.FirstL.L0.cond_L.weight f4 [45, 10]
0.016233278 0.002318179 0.01628208 0.012366799 -0.0048600165 0.0075361584 -0.025427785 0.003752164
0.015786199 -0.025965273 -0.0009345361 -0.0017540462 -0.030934663 -0.0054397113 0.0016234701 0.02957344
0.04658567 -0.0030672064 -0.0044795405 -0.030629171 -0.0018263708 0.00085648376 0.0074985866 0.00639257
-0.020061916 -0.020348221 -0.05240748 0.009448029 0.025784332 0.026598379 0.0036905557 -0.0076734256
-0.123295344 -0.03025009 0.08177786 -0.008680594 0.10320441 -0.13690357 -0.006962208 -0.014151338
-0.027240127 0.07424353 -0.029901333 0.014204609 -0.08458591 -0.1778639 0.032763787 -0.06711537
-0.0046315575 0.10419324 -0.06489756 -0.004310643 0.015097461 -0.09230361 -0.07904226 -0.040611044
-0.12985831 0.0067005875 0.007363421 0.026768303 0.0012253007 0.014260514 0.037959073 -0.0058561875
-0.08876568 0.016066184 -0.07446364 0.052858528 0.0033050536 -0.02062332 -0.07911892 -0.062388062
-0.059357453 -0.07983817 -0.04966161 -0.103933625 0.05233906 -0.075967066 -0.111691326 -0.051388096
0.010070316 -0.033374265 0.047643892 0.0012927088 0.008294266 0.0309825 -0.08026363 0.042077154
-0.017374694 -0.028297478 0.045223106 -0.0009248069 0.006654003 0.09643266 0.018954702 0.038357362
-0.06625487 0.058605295 0.0039472375 -0.04133461 -0.018250654 0.00035329672 -0.018360728 -0.00077302614
0.009997783 0.005517053 0.004335486 -0.0087896045 0.008378764 0.008207884 0.007937431 0.006583464
0.010016049 0.027802547 0.003223622 -0.019674748 -0.029403584 0.040559188 0.013031451 0.01737113
0.00662973 0.00405655 -0.041526448 -0.057050306 0.015863393 0.004280579 0.07070482 -0.072257556
-0.024303585 0.021325644 0.03054928 0.04101384 0.11570818 0.07184684 0.12048995 -0.016640212
0.113847055 -0.044081908 -0.076511525 0.07013469 -0.08664975 -0.07362275 0.10148169 -0.04654104
0.16000292 0.0578756 0.09771464 -0.05386348 0.1621878 -0.08467727 0.024353089 -0.038806997
0.001563426 0.01626272 0.044655316 0.034279853 -0.014653781 -0.00296392 -0.04340334 -0.0076793684
-0.046874125 -0.028401323 -0.07838424 -0.039565533 0.01666927 0.03286667 -0.0070249545 -0.015205118
-0.0012251909 0.0062938207 -0.06859912 0.063845314 -0.04704988 -0.0074502626 0.0836395 -0.13997099
0.050207917 0.19366969 0.009553349 -0.04878421 0.008571192 -0.0075303847 0.121320575 -0.022259407
-0.08868037 -0.019518768 -0.15041094 0.07421928 -0.017657783 0.029513335 0.048980623 0.018985251
0.06857864 0.031840175 -0.014354714 0.005725971 0.025659846 0.0053117345 -0.0008243977 0.049338162
-0.026003676 0.046647295 0.10834166 -0.0056858226 -0.09784249 0.010994535 -0.06710373 0.07862097
0.026284097 -0.005111574 0.1221643 -0.0039753355 -0.05371564 -0.02872495 -0.00082796847 0.006002159
0.046340138 -0.1998459 0.012526719 -0.07455344 0.047930032 0.018561335 0.013220134 0.04406958
-0.014473343 -0.022803424 -0.03162691 0.029096302 0.044133734 -0.02183276 0.035532907 0.023137005
-0.008707909 -0.029783525 0.031151554 -0.037072092 0.045812245 -0.07892229 0.033751458 0.0100429375
-0.12997958 -0.004484495 -0.17568369 0.0347806 0.033629294 0.060768895 0.132807 0.05616952
0.009729347 0.012477335 -0.011886548 0.022179313 -0.061091956 0.025130756 0.04050551 0.007377542
00000000: a7fb 843c 97ec 173b ff61 853c 1d9e 4a3c
00000010: c640 9fbb e1f1 f63b ee4d d0bc dee6 753b
00000020: 0f52 813c 20b5 d4bc a8fb 74ba 06e8 e5ba
00000030: b16a fdbc 9b3f b2bb 9eca d43a 0044 f23c
00000040: 9ed0 3e3d 2f03 49bb 1cc9 92bb 07ea fabc
00000050: d662 efba a785 603a b4b6 f53b c478 d13b
00000060: e358 a4bc 50b1 a6bc 3aa9 56bd e8cb 1a3c
00000070: aa39 d33c d8e4 d93c 40dd 713b 5c71 fbbb
00000080: 4582 fcbd 09cf f7bc 277b a73d 0d39 0ebc
00000090: d55c d33d 7330 0cbe 3c23 e4bb 03db 67bc
000000a0: b026 dfbc fe0c 983d a4f3 f4bc 73ba 683c
000000b0: 613b adbd f421 36be 5233 063d c873 89bd
000000c0: 52c4 97bb 4463 d53d 03e9 84bd 4b40 8dbb
000000d0: 575b 773c ad09 bdbd e9e0 a1bd c457 26bd
000000e0: 94f9 04be 9a90 db3b da48 f13b 3349 db3c
000000f0: 459a a03a eea4 693c f97a 1b3d 43e5 bfbb
00000100: c8ca b5bd 3b9d 833c 6580 98bd 2f82 583d
00000110: 9999 583b 3df2 a8bc 1a09 a2bd a08a 7fbd
00000120: cd20 73bd 3282 a3bd f969 4bbd 27db d4bd
00000130: 7b61 563d 9f94 9bbd 6cbe e4bd 537c 52bd
00000140: f7fd 243c 74b3 08bd 3e26 433d 1c70 a93a
00000150: ace4 073c 03cf fd3c 4261 a4bd 1859 2c3d
00000160: 6055 8ebc 1dd0 e7bc dd3b 393d be6e 72ba
00000170: d309 da3b 7d7e c53d e446 9b3c 9c1c 1d3d
00000180: a2b0 87bd 1b0c 703d d457 813b 7b4e 29bd
00000190: 6582 95bc af3a b939 3d69 96bc e8a4 4aba
000001a0: becd 233c 65c8 b43b b110 8e3b 4602 10bc
000001b0: 1547 093c 5c7a 063c 000c 023c 19ba d73b
000001c0: 5b1a 243c 2bc2 e33c 6743 533b f02c a1bc
000001d0: c9df f0bc 6421 263d de81 553c e64d 8e3c
000001e0: 353e d93b cfec 843b a317 2abd 95ad 69bd
000001f0: f2f3 813c 1944 8c3b b0cd 903d c5fb 93bd
00000200: 5018 c7bc 1eb3 ae3c 7c42 fa3c 21fe 273d
00000210: 69f8 ec3d 7024 933d 6fc3 f63d 0e51 88bc
00000220: a528 e93d 3b8f 34bd 13b2 9cbd c7a2 8f3d
00000230: 6d75 b1bd 86c7 96bd a2d5 cf3d d1a1 3ebd
00000240: ced7 233e f70e 6d3d 9d1e c83d f49f 5cbd
00000250: 8f14 263e 476b adbd 2180 c73c 16f4 1ebd
00000260: dfeb cc3a 6539 853c 7ee8 363d 0869 0c3d
00000270: 6a16 70bc 533e 42bb b3c7 31bd 36a3 fbbb
00000280: 15ff 3fbd e4a9 e8bc eb87 a0bd 780f 22bd
00000290: fe8d 883c 349f 063d 9731 e6bb e31e 79bc
000002a0: 9696 a0ba 653c ce3b b27d 8cbd 55c1 823d
000002b0: 60b7 40bd 5521 f4bb 304b ab3d 8e54 0fbe
000002c0: d1a6 4d3d 5951 463e a685 1c3c f4d1 47bd
000002d0: 2f6e 0c3c 72c1 f6bb ec76 f83d 5c59 b6bc
000002e0: 0e9e b5bd d3e5 9fbc 5305 1abe 4700 983d
000002f0: 0ea7 90bc f3c5 f13c e89f 483d f586 9b3c
00000300: f572 8c3d d86a 023d 0930 6bbc eda0 bb3b
00000310: 9934 d23c 0f0e ae3b 651c 58ba d016 4a3d
00000320: a905 d5bc 3c11 3f3d 3be2 dd3d 2350 babb
00000330: a561 c8bd 6c22 343c ae6d 89bd 0804 a13d
00000340: bf51 d73c fe7e a7bb 4731 fa3d 8843 82bb
00000350: ee04 5cbd 9650 ebbc 060c 59ba c2ad c43b
00000360: 28cf 3d3d 67a4 4cbe de3c 4d3c 79af 98bd
00000370: 4852 443d f10d 983c 4399 583c 4e82 343d
00000380: 9a21 6dbc 3fce babc 388b 01bd 5e5b ee3c
00000390: 93c5 343d 9eda b2bc f48a 113d d189 bd3c
000003a0: 9eab 0ebc 94fc f3bc 8b31 ff3c e8d8 17bd
000003b0: 9fa5 3b3d 02a2 a1bd f83e 0a3d 228b 243c
000003c0: 5e19 05be acf2 92bb 6de6 33be 1a76 0e3d
000003d0: dfbe 093d cee8 783d 8ffe 073e 0312 663d
000003e0: d767 1f3c bc6d 4c3c ccbf 42bc 64b1 b53c
000003f0: 8f3b 7abd 04df cd3c 1be9 253d 4fbf f13b
