models/reference_retraining22-rev2/model_params.pt (torch, 745474 bytes, 12 tensors)

embeddings.0.weight f4 [79, 10]
0	0x3e07d68d	0.13265438
1	0x3e488007	0.19580089
2	0x3dbe4cd0	0.092919946
3	0x3eec1767	0.46111605
4	0x3dca5625	0.09879712
5	0x3d14eb11	0.03635699
6	0xbe4b3a96	-0.19846568
7	0xbe59e568	-0.21278918
8	0xbd02e9cc	-0.031961247
9	0x3d70b7e3	0.058769118
10	0x3e002e80	0.12517738
11	0x3d1ccd05	0.03828146
12	0xbc1f1e92	-0.009711878
13	0x3e9995b4	0.29997027
14	0x3d81819e	0.06323551
15	0xbcc38ac8	-0.023869887
16	0xbe730786	-0.23733339
17	0xbe85cd7c	-0.26133335
18	0xbe0839f6	-0.1330336
19	0x3c6a089f	0.014284282
20	0x3e15b249	0.14618792
21	0x3df313a8	0.118689835
22	0x3cda1118	0.026619479
23	0x3ed1b9cc	0.40962064
24	0x3d8a04ef	0.06739222
25	0xbcba5889	-0.022747295
26	0xbe561526	-0.20906505
27	0xbe53d3fa	-0.20686331
28	0xbd901671	-0.0703553
29	0x3cbd816c	0.023133002
30	0xbd0edb99	-0.034877393
31	0x3e544f2c	0.20733327
32	0x3e991f30	0.29906607
33	0x3eac2b89	0.33626965
34	0x3d00b601	0.031423572
35	0x3ea1a1af	0.31568667
36	0xbeb96fa6	-0.36217993
37	0xbe206c3b	-0.15666287
38	0xbe96e4a8	-0.29471326
39	0xbe2ea2b1	-0.1705425
40	0x3e124720	0.14284945
41	0x3d9a59fc	0.075366944
42	0x3dbdc05e	0.09265207
43	0x3eacab59	0.33724478
44	0x3c6a4b0a	0.014300117
45	0x3e267a78	0.16257656
46	0xbea1f25d	-0.3163022
47	0xbe67753c	-0.22603315
48	0xbe41257f	-0.1886196
49	0xbe8e560d	-0.27800027
50	0x3e9392c5	0.28822914
51	0x3dcc05e0	0.09962058
52	0xbcb89a07	-0.022534383
53	0x3e977c7d	0.29587165
54	0xbd322d23	-0.043500077
55	0x3cde50dc	0.027138166
56	0xbe9d1bcc	-0.3068527
57	0xbd89b6da	-0.06724329
58	0xbe6a6b68	-0.22892535
59	0xbdd6edba	-0.104945615
60	0x3edc7dd4	0.4306475
61	0xbd6bad0f	-0.05753809
62	0x3dac645f	0.08417582
63	0x3ec201e4	0.37892067
64	0xbe61f7b7	-0.22067152
65	0x3dc3c877	0.0955972
66	0xbeb51629	-0.3536847
67	0xbde00ca2	-0.109399095
68	0xbd855a50	-0.06511366
69	0xbd5bf4e3	-0.05370034
70	0x3d6db8e6	0.05803766
71	0x3ec1b4b0	0.37833166
72	0x3e08bbbb	0.13352863
73	0x3eba87bf	0.3643169
74	0xbd1bc81f	-0.038032647
75	0x3d8f3b0b	0.069936834
76	0xbeb22f41	-0.34801677
77	0xbd9c7a63	-0.07640531
78	0xbdcbb62b	-0.09946855
79	0x3d41191a	0.04714308
80	0x3d28fbed	0.04125588
81	0xbc40a34f	-0.011757686
82	0x3e869285	0.2628366
83	0x3e219a30	0.15781474
84	0x3e8aa803	0.27081308
85	0xbf2bb4b3	-0.670726
86	0xbea166c0	-0.31523705
87	0xbca405f9	-0.02002238
88	0x3d807c26	0.062736794
89	0x3c92f5dd	0.017939502
90	0x3d2d6420	0.042331815
91	0xbd4087e3	-0.04700459
92	0x3e33b932	0.17551115
93	0x3e7aff1a	0.24511376
94	0x3e494c6d	0.1965806
95	0xbefa6e9c	-0.48912513
96	0xbeb78c2d	-0.35849133
97	0x3d8de303	0.06928065
98	0xbdcea577	-0.10090154
99	0xbe5e6eff	-0.21722029
100	0x3d01e6b6	0.031714164
101	0x3d1c6edf	0.038191672
102	0x3d78275c	0.06058441
103	0x3ec18294	0.37794936
104	0x3d9a0fb7	0.075225286
105	0xbe8fe98e	-0.28107876
106	0xbea28890	-0.31744814
107	0x3e15b90d	0.14621373
108	0xbe1b5c51	-0.15171935
109	0xbe79be89	-0.2438909
110	0x3ddf2996	0.10896604
111	0xbe175a33	-0.14780502
112	0x3d82ce03	0.0638695
113	0x3e6166c1	0.22011854
114	0xbe2c90e9	-0.16852154
115	0x3e494737	0.19656073
116	0xbeec319b	-0.46131596
117	0x3dc04dda	0.09389849
118	0xbe8c1101	-0.27356723
119	0x3e09c48a	0.1345388
120	0x3d3d3081	0.046188835
121	0xbd8f28f9	-0.06990237
122	0xbcbf2f63	-0.023338025
123	0x3e868d64	0.26279747
124	0xbe2af18d	-0.16693707
125	0x3c7130e9	0.014721134
126	0xbecd64f5	-0.40116087
127	0x3e51b143	0.20477776
128	0xbe2c8f47	-0.16851531
129	0x3e7f3d1f	0.2492566
130	0xbd4a5513	-0.04939754
131	0xbe1defb4	-0.1542347
132	0x3da44d0c	0.08022508
133	0x3e9eb8e8	0.31000447
134	0xbd8a84b7	-0.067635946
135	0xbe7ef1a5	-0.24896868
136	0xbecab379	-0.39590052
137	0x3bfa5a18	0.0076401345
138	0xbe218ff0	-0.15777564
139	0x3e43646f	0.19081281
140	0x3c83d45e	0.016092476
141	0xbd36baa3	-0.044611584
142	0x3bc616de	0.0060452064
143	0x3e55c582	0.20876125
144	0xbda95296	-0.08267705
145	0xbe81cc00	-0.25350952
146	0xbea86275	-0.32887617
147	0x3df7d5a9	0.12101299
148	0xbe0718b9	-0.13193025
149	0x3ed3c547	0.41361448
150	0xbd7bc98d	-0.06147151
151	0xbea9dd0f	-0.33176467
152	0x3d980be2	0.074241415
153	0x3e61873e	0.22024247
154	0xbdae92ff	-0.08524131
155	0xbd9bf2c6	-0.07614665
156	0xbee969bd	-0.45588484
157	0x3bddc670	0.0067680404
158	0xbe6be958	-0.23038232
159	0x3d5ea1b9	0.05435345
160	0x3dbb2673	0.09138193
161	0x3c90d1dd	0.017678196
162	0x3e05eab6	0.13077816
163	0x3e9d258b	0.30692706
164	0xbe542242	-0.20716193
165	0x3e499f6d	0.19689722
166	0xbef477a2	-0.47747523
167	0x3e216fe4	0.15765339
168	0xbdd31a1e	-0.10307716
169	0x3e2a3d55	0.16624959
170	0x3e15ebbf	0.14640711
171	0x3c17c9c6	0.009264415
172	0xbd1d04a8	-0.03833452
173	0x3eb82032	0.35962063
174	0xbdf8b89b	-0.12144586
175	0xbe2d6495	-0.169329
176	0xbe841f7a	-0.25805265
177	0x3ed3b7b2	0.41351086
178	0xbe35a05b	-0.17736952
179	0x3f3ae837	0.7301058
180	0x3bb3c5f1	0.005486243
181	0xbe12ee17	-0.14348637
182	0xbcab6252	-0.020920906
183	0x3e16baf9	0.14719762
184	0x3ed21fe7	0.41039965
185	0xbda145f1	-0.078746684
186	0xbea5ae40	-0.32359505
187	0x3e85e5e1	0.26151946
188	0x3b507f55	0.0031814177
189	0x3f0edc89	0.5580526
190	0xbce35476	-0.027750235
191	0xbe360a00	-0.17777252
192	0xbd69cddf	-0.0570811
193	0x3e4c58c9	0.19955744
194	0x3ef05a98	0.46944118
195	0x3ca4c806	0.02011491
196	0xbea3943f	-0.3194904
197	0x3e8c388e	0.27386898
198	0x3d0eebe2	0.034892924
199	0x3efa96fe	0.48943323
200	0x3d04e405	0.03244402
201	0xbeb2e929	-0.34943512
202	0xbe683b1a	-0.22678795
203	0x3e110cd7	0.14165054
204	0x3f20ba76	0.62784517
205	0x3d98994f	0.07451116
206	0xbeb89fb2	-0.36059338
207	0x3e54b807	0.20773326
208	0x3e399581	0.18123437
209	0x3e83c6b8	0.25737548
210	0x3c80168c	0.015635751
211	0xbeb6639b	-0.35622868
212	0xbe6b32eb	-0.22968642
213	0x3e1c913b	0.15289776
214	0x3f23f1b3	0.6404068
215	0x3d6895f9	0.05678365
216	0xbec0f7f5	-0.37689176
217	0x3e658dd7	0.22417389
218	0x3e36e9db	0.17862646
219	0x3e9045ec	0.28178346
220	0xbcaaf9b4	-0.02087102
221	0xbea1481d	-0.3150033
222	0xbe544c7c	-0.20732301
223	0x3e35a17e	0.17737386
224	0x3f2041a8	0.62600183
225	0xbcc148d5	-0.0235943
226	0xbea10381	-0.31447986
227	0x3e4596e6	0.19295844
228	0x3e2d0a2b	0.1689841
229	0x3e6605a1	0.22463085
230	0xbc81a8be	-0.015827533
231	0xbea3ab79	-0.3196676
232	0xbe4fc6ae	-0.20290634
233	0x3e467ced	0.19383593
234	0x3f1d0580	0.6133652
235	0xba4f60a2	-0.0007910823
236	0xbeaaf5f8	-0.33390784
237	0x3e47fe7c	0.19530672
238	0x3e2d96fe	0.1695213
239	0x3e8ba3bd	0.2727336
240	0x3bc09139	0.005876687
241	0xbe92a440	-0.28640938
242	0xbe3d9c5f	-0.18516682
243	0x3e577e74	0.21044332
244	0x3f183a02	0.5946351
245	0xbc12f0ae	-0.008968515
246	0xbe9f27c8	-0.31085038
247	0x3e47944c	0.19490165
248	0x3e2be75e	0.16787478
249	0x3e8d4a7c	0.2759589
250	0xbe9bf7ae	-0.30462402
251	0xbe82a2de	-0.25514883
252	0xbbfd2a28	-0.0077259727
253	0x3dbc3515	0.09189812
254	0x3e882b06	0.26595324
255	0xbe26baeb	-0.16282241

encoder.FC.L0.expr_L.weight f4 [45, 2000]
0	0xbcb941c8	-0.022614375
1	0xbc990df1	-0.018683406
2	0x3b8a4d86	0.0042206673
3	0x3d0a9e38	0.033842295
4	0x3a7328fd	0.0009275822
5	0x3a432963	0.0007444827
6	0xbab47540	-0.0013767853
7	0xbd0f19f8	-0.034936875
8	0x3a8ea596	0.0010883089
9	0xbc268491	-0.010163442
10	0xbc3f0472	-0.011658775
11	0xbbf77fbc	-0.007553069
12	0x3a5d83ac	0.00084501016
13	0x3b6f99c8	0.0036560167
14	0x3c668917	0.014070771
15	0xbca068a4	-0.019581147
16	0x3c222ead	0.009898824
17	0xbc53ce64	-0.012927625
18	0x3d0660ef	0.032807287
19	0xbb63e221	-0.0034772235
20	0x3ca1c230	0.019745916
21	0xbc301b75	-0.010748734
22	0x3d58daa6	0.052942894
23	0x3bea97d8	0.0071592145
24	0x3c04a314	0.0080955215
25	0x3bb59f92	0.005542704
26	0xbcf1394a	-0.029446263
27	0x3bdd3300	0.0067504644
28	0xbc1d96ab	-0.009618442
29	0xbc76fcbc	-0.015074905
30	0xbc632a99	-0.013865137
31	0xbd318e7c	-0.043348774
32	0x3b440245	0.002990858
33	0xbb0babb4	-0.002131206
34	0x38e68596	0.00010992137
35	0x3aa37c8e	0.0012473033
36	0x3b640c2e	0.0034797299
37	0xbc626c42	-0.013819756
38	0x3c80b5a8	0.01571162
39	0xbc06668c	-0.00820316
40	0xbc5ef9b8	-0.013609342
41	0x3dcb488d	0.09925947
42	0xbc0d28ec	-0.008615714
43	0x3cc7e1e4	0.024399705
44	0x3cbd6743	0.023120528
45	0xbc67f98f	-0.0141586205
46	0xbc8e21b8	-0.017350063
47	0xbc8413ca	-0.016122717
48	0x3bc1facc	0.00591979
49	0xb9c45d95	-0.00037453757
50	0x3be0266b	0.0068405173
51	0xbcc7f0c4	-0.024406798
52	0xbc5cc5ad	-0.013474864
53	0xbb88eebf	-0.0041788514
54	0x3bf2d1d9	0.0074102697
55	0xbbedbd80	-0.007255256
56	0x3ce446d7	0.02786581
57	0xb9bf1ea3	-0.00036453185
58	0x3cfbc7b0	0.030734867
59	0x3c033fbf	0.008010804
60	0x3ba5a774	0.0050553624
61	0x3b319c0f	0.0027101075
62	0x3d870c24	0.065941125
63	0x3cc62a90	0.024190217
64	0xbbab790a	-0.005232935
65	0xbb4d6583	-0.0031341023
66	0x3d0e914b	0.03480653
67	0xbb5c8f98	-0.0033654924
68	0x3cb95bf2	0.02262685
69	0xbc7b824e	-0.015350891
70	0xbb5564c7	-0.0032561289
71	0x3c3e9d14	0.01163413
72	0xbbae543d	-0.0053201006
73	0x3c9a6486	0.018846761
74	0x3bb60932	0.0055552954
75	0x3c8da815	0.017292062
76	0x3aec8547	0.0018045091
77	0xbc6caf44	-0.014446083
78	0xbcb76d55	-0.022391
79	0xbac9f229	-0.0015407252
80	0xbc263815	-0.010145207
81	0xbcd6eb33	-0.026235199
82	0x39b6b23c	0.0003484654
83	0x3c6808f1	0.014162288
84	0xbc16189d	-0.009161142
85	0x3cbe3e86	0.023223173
86	0xbc699a73	-0.014258015
87	0xbc233632	-0.009961652
88	0xbc99ae7a	-0.018759955
89	0xbc5d672c	-0.013513368
90	0x3c80d885	0.015728245
91	0xbc53ef1e	-0.012935428
92	0x3d059f1b	0.032622438
93	0x3cb7bcdd	0.022428924
94	0x3b11e5a5	0.0022262123
95	0xbbc41011	-0.0059833606
96	0x3c16c851	0.009203033
97	0x3c7e4421	0.015519173
98	0xbc21253b	-0.009835537
99	0x3d4234ea	0.047413744
100	0xbc9274e4	-0.017878003
101	0xbbf908ea	-0.0075999396
102	0x3b6c6763	0.0036072365
103	0xbcb3ba15	-0.021939317
104	0xbbbd4faa	-0.005777319
105	0xbbb711a1	-0.0055868183
106	0xbaf7c880	-0.0018904358
107	0xbbade934	-0.005307341
108	0x3b2e9c8e	0.0026643607
109	0x3c4ba4ce	0.012429429
110	0x3d7ac203	0.06122018
111	0x3c27685a	0.01021775
112	0xbc678abf	-0.014132201
113	0xbbcb577c	-0.0062054973
114	0xbc3c1deb	-0.011481742
115	0xbc50cc71	-0.012744055
116	0x3cae1dda	0.021254469
117	0x3c0eb54a	0.008710215
118	0xbc0f338c	-0.008740317
119	0xbc2b496b	-0.010454516
120	0xbc81d19e	-0.015847024
121	0xbbafa092	-0.0053597176
122	0x3be16334	0.006878281
123	0xbb76ffbb	-0.0037689048
124	0x3c938d48	0.018011704
125	0xbd037b9b	-0.0321003
126	0xba849aec	-0.0010116971
127	0xb9e3bf54	-0.00043439365
128	0x399ed5a0	0.0003029527
129	0xbc14eb7a	-0.009089345
130	0xbb70e7e3	-0.003675931
131	0x3cf21dea	0.02955528
132	0xbb44c283	-0.0030023165
133	0x3c128c0b	0.008944522
134	0x3b8b01ef	0.004242174
135	0x3b3cb7a7	0.0028795989
136	0x3c350282	0.011047961
137	0xbc4fc28f	-0.012680664
138	0xbbdb8a31	-0.0066998233
139	0x3c39dfb5	0.01134484
140	0xbc1b1225	-0.009464775
141	0x3ad2f05f	0.0016093365
142	0xbc88299c	-0.016621403
143	0xbc66f099	-0.014095449
144	0xbc5d7711	-0.013517157
145	0x3c435dd8	0.01192423
146	0xbc151dc0	-0.009101331
147	0x3b986215	0.004650364
148	0xbc6d5013	-0.014484423
149	0xbcb983ab	-0.022645792
150	0xbc64a23e	-0.013954697
151	0xbcac6730	-0.021045297
152	0xbb9db7f6	-0.0048131896
153	0xbc437bec	-0.011931401
154	0xbc3cb0fd	-0.011516807
155	0xbc968d55	-0.01837794
156	0xbca2767c	-0.019831888
157	0xbb2ac304	-0.002605618
158	0x3c960591	0.018313201
159	0xbc0f51ee	-0.008747561
160	0x3c244bc8	0.010027833
161	0x3c8702f0	0.016480893
162	0x3c31ad4d	0.010844541
163	0x3ae58fc8	0.0017514164
164	0xbba75930	-0.0051070675
165	0xbc89d619	-0.016825723
166	0xbba1f6e8	-0.0049427636
167	0xbb598a42	-0.003319398
168	0xbb9f2bf6	-0.0048575355
169	0xb9ee5fde	-0.00045466324
170	0xb973c0b3	-0.00023246072
171	0xbbdffd2c	-0.0068356004
172	0xbcea96c9	-0.028636353
173	0x3ad05a6a	0.0015896086
174	0x3ca6f510	0.020380527
175	0xb9e04861	-0.00042778536
176	0x3c3175af	0.010831281
177	0xbd83622c	-0.06415209
178	0x3ca1dfd7	0.019760055
179	0x3bf93f47	0.00760642
180	0xbb3e5eb1	-0.002904814
181	0x3c8d3fec	0.017242394
182	0xbc988cae	-0.018621769
183	0xbc0d6154	-0.008629162
184	0xbcc7c450	-0.024385601
185	0xbbd7610e	-0.006572849
186	0x3caeed17	0.021353288
187	0x3c238cb0	0.009982273
188	0xbc664a24	-0.014055762
189	0xbc011509	-0.00787855
190	0xbb8962e6	-0.004192698
191	0x3c1662a5	0.009178792
192	0x3cc5661a	0.024096537
193	0x3c611911	0.013738886
194	0xba6d1ca1	-0.00090450986
195	0x3ce007d6	0.027347486
196	0x3cdf790c	0.0272794
197	0x3c8f6b8c	0.017507337
198	0xbc8a1378	-0.016854987
199	0xbd1b259b	-0.03787766
200	0xb8e9920b	-0.000111375084
201	0xbad665d1	-0.0016357248
202	0x3bec6323	0.0072139665
203	0x3ba47cc2	0.005019755
204	0xbb52f5a3	-0.0032189868
205	0x3bb50c4f	0.005525149
206	0x3c877319	0.016534375
207	0xbcc9839b	-0.024598887
208	0xbd33fadb	-0.043940406
209	0x3b16ae12	0.0022991938
210	0x3d236268	0.03988877
211	0x3bdef56c	0.006804159
212	0x3bd73e7c	0.006568728
213	0xbaab23e9	-0.0013056967
214	0xbb4d0f89	-0.0031289777
215	0xbb49eabc	-0.0030810079
216	0x3aff345d	0.0019470562
217	0x3cd3ce88	0.025855318
218	0xbbbd23ec	-0.0057721045
219	0x3d53e712	0.051734038
220	0xbb8ed3d6	-0.004358749
221	0x3bdee29a	0.0068019154
222	0x3abded87	0.0014490344
223	0x3cc29079	0.02375053
224	0xbba892f5	-0.005144472
225	0xbce648d9	-0.028110908
226	0xbd787bea	-0.06066505
227	0x3abf810c	0.0014610603
228	0xbbda3a44	-0.006659778
229	0x3c8e9a12	0.01740745
230	0xbc7110f0	-0.014713511
231	0x3d2c29ed	0.04203217
232	0xbb40b394	-0.0029403912
233	0x3bd6d1cc	0.0065557715
234	0x3c3b33ea	0.0114259515
235	0xbd07e470	-0.03317684
236	0xbbd8f641	-0.0066211526
237	0x3cae8204	0.02130223
238	0x3ac967e2	0.0015366042
239	0xbc1abedc	-0.0094449185
240	0x3bd3b44e	0.006460703
241	0x3b2c80c6	0.0026321872
242	0x3ca82b85	0.020528564
243	0xbcc92121	-0.02455193
244	0xbd4d22a2	-0.050081857
245	0x3da8b367	0.08237343
246	0x3c8d4243	0.01724351
247	0x3cecce42	0.028906945
248	0x3dbaa53a	0.09113546
249	0x39fbd951	0.00048036364
250	0x3c2a8c56	0.010409435
251	0xbbf72845	-0.0075426423
252	0xbd98fb55	-0.07469813
253	0x3d8c5cd4	0.06853643
254	0x3d4e1b23	0.05031885
255	0xbc033131	-0.008007334

encoder.FC.L0.expr_L.bias f4 [45]
0	0xbd496e36	-0.04917737
1	0xbe3db10f	-0.18524574
2	0xbddf1b91	-0.1089393
3	0xbe13a9f7	-0.14420305
4	0x3d27e302	0.040987976
5	0x3c65b19a	0.014019394
6	0x3e0adf9b	0.13561861
7	0xbdd37eba	-0.103269055
8	0xbe03df27	-0.12878095
9	0xbd892a4b	-0.0669752
10	0xbdc50b66	-0.09621315
11	0xbdc6fa41	-0.09715701
12	0xbc3c6050	-0.011497572
13	0x3dfba576	0.122874185
14	0xbf121f58	-0.57079077
15	0xbd96d7a9	-0.07365353
16	0xbcbe911a	-0.02326255
17	0xbd912542	-0.070871845
18	0x3e1d8838	0.15383995
19	0x3fc78b96	1.5589473
20	0xbdd4065c	-0.103527755
21	0x3e169f53	0.14709215
22	0x3d10e52f	0.035374817
23	0x3db91992	0.0903808
24	0x3df6a8f5	0.12043945
25	0x3d2e02e8	0.04248324
26	0xbdf41e83	-0.11919882
27	0x3dfde76e	0.12397657
28	0x3f250724	0.6446402
29	0x3d4c8248	0.049928933
30	0xbce75082	-0.028236631
31	0xbe060744	-0.13088709
32	0x3f216460	0.63043785
33	0x3d05527b	0.032549363
34	0xbe224f62	-0.15850595
35	0xbd5c5033	-0.05378742
36	0xbb59414c	-0.0033150492
37	0x3b036508	0.0020049233
38	0xbeaa174b	-0.33220896
39	0xbf13fb10	-0.57804966
40	0xbe1e0358	-0.15430963
41	0xbe01912a	-0.12653032
42	0xbdbdae26	-0.09261732
43	0xbda9eb43	-0.08296826
44	0x3b3b4471	0.002857473

encoder.FC.L0.cond_L.weight f4 [45, 10]
0	0x3cecb0e2	0.028892938
1	0x3db215c5	0.086955585
2	0x3dcf7312	0.1012937
3	0x3d3a7289	0.045519385
4	0x3d9187ad	0.07105956
5	0x3d2bd842	0.041954286
6	0x3cfb131f	0.030648766
7	0x3daa0ae1	0.08302856
8	0x3d07ac5d	0.033123363
9	0x3ddbf36f	0.10739791
10	0x3cdf3dea	0.027251203
11	0xbe069789	-0.13143744
12	0xbd6caa4d	-0.0577796
13	0xbd5d312e	-0.05400198
14	0xbce60ca5	-0.028082201
15	0xbd94028d	-0.07227049
16	0x3d8d82b1	0.06909693
17	0x3d12c1ef	0.03582948
18	0xbcdd8394	-0.02704028
19	0xbd5ecb7d	-0.05439328
20	0xbcc00cc3	-0.023443585
21	0x3e07afd5	0.13250668
22	0x3c94440a	0.01809885
23	0x3d9b844f	0.07593595
24	0x3d8770de	0.066133246
25	0x3e069d07	0.13145839
26	0x3db92fb4	0.09042302
27	0xbc220ca5	-0.00989071
28	0x3d24e7bb	0.040260058
29	0xbe93dc0f	-0.2887883
30	0x3d8448cd	0.06459198
31	0xbb67f2e2	-0.0035392572
32	0xbddd9f53	-0.10821404
33	0x3c6b3f70	0.014358386
34	0xbd74fef7	-0.059813466
35	0x3dc0338d	0.093848325
36	0x3cf65ccf	0.030073551
37	0xbda6e4f9	-0.08149142
38	0x3e08fc7f	0.1337757
39	0xbe23fb45	-0.1601382
40	0x3b185818	0.0023245867
41	0xbce821ee	-0.028336491
42	0xbbbcd826	-0.0057630716
43	0x3c804d7e	0.015661951
44	0xbbb4d8cf	-0.0055190097
45	0xbd562a65	-0.052286524
46	0xbcc6b909	-0.024258154
47	0x3c979dca	0.018507857
48	0xbcb3168f	-0.021861343
49	0xbca0053b	-0.019533744
50	0x3c695d71	0.01424347
51	0x3d340253	0.04394753
52	0x3cfc682c	0.030811392
53	0x3ca42761	0.020038309
54	0xbb2bedf0	-0.002623435
55	0x3d0331d6	0.03202995
56	0xbbab9da0	-0.005237296
57	0x3cc51b8c	0.024060987
58	0xb81e4b04	-3.774e-05
59	0x3be4cc69	0.0069823754
60	0xbd97767c	-0.07395646
61	0x3d12c509	0.03583244
62	0x3d4e0a78	0.050302953
63	0x3d303740	0.04302144
64	0x3cce60f1	0.02519271
65	0xbbe5a574	-0.007008249
66	0xbd18bd75	-0.037290055
67	0x3c44639f	0.011986642
68	0x3cede5cd	0.029040242
69	0x3d88a00e	0.06671153
70	0x3d7b51b3	0.06135721
71	0x3d4de989	0.050271545
72	0x3aee41aa	0.0018177528
73	0xbc4abfce	-0.012374831
74	0xbb6790d8	-0.0035334136
75	0xba84ec71	-0.0010141266
76	0x3d322928	0.04349628
77	0x3d8e0532	0.06934585
78	0xbc9d33cf	-0.019189743
79	0x3d8a5b9c	0.06755754
80	0xbcc6ea48	-0.024281636
81	0xbdc71761	-0.09721256
82	0xbd6eb877	-0.058281388
83	0xbd8895bc	-0.066691846
84	0xbc1b452e	-0.009476943
85	0xbbb3ac56	-0.0054831905
86	0x3d2cfa6c	0.04223101
87	0xbc97514e	-0.018471386
88	0x3c2803d5	0.01025482
89	0xbda18828	-0.07887298
90	0x3ce53668	0.027980044
91	0x3d524c3f	0.051342245
92	0xbbd9b0b5	-0.0066433796
93	0xbd330f70	-0.043715894
94	0xbc801edd	-0.015639717
95	0xbce4db42	-0.027936582
96	0x3d354aab	0.044260662
97	0x3c85ff5e	0.01635712
98	0xbd6e695e	-0.058205955
99	0x3e019ebf	0.12658213
100	0x3e09cac9	0.13456263
101	0x3d9ed58d	0.07755575
102	0xbdaf78a1	-0.0856793
103	0x3d7f02ee	0.062258653
104	0xbdd61472	-0.104531184
105	0x3db7a158	0.08966321
106	0x3d856c92	0.06514849
107	0xbdf2cae3	-0.11855104
108	0x3ce319d0	0.02772227
109	0xbd18d80e	-0.03731542
110	0x3cd67cb2	0.026182506
111	0xbd68db55	-0.056849796
112	0xbd28d53e	-0.04121899
113	0xbd117c49	-0.03551892
114	0xbd4086d7	-0.047003593
115	0x3d0e1aee	0.03469365
116	0xbc84dee8	-0.016219571
117	0xbc4bcb50	-0.01243861
118	0x3c8ea80c	0.017414115
119	0xbd839281	-0.06424428
120	0x3cc5f36d	0.024163926
121	0x3ba02872	0.004887634
122	0x3c88dd53	0.016707098
123	0x3c2f5a72	0.010702716
124	0x3c127236	0.008938363
125	0x3c937105	0.017998228
126	0xbbdf1eff	-0.006809115
127	0x3d1c9e0c	0.038236663
128	0x3cb33eb1	0.02188048
129	0x3c102879	0.008798712
130	0x3be89ae0	0.0070985407
131	0xbce87638	-0.028376684
132	0xbca17f04	-0.019713886
133	0x3d9c79c4	0.076404124
134	0xbe266d0f	-0.1625254
135	0xbd0c68d8	-0.034279674
136	0xbd60b766	-0.054862402
137	0xbe23aa9b	-0.1598305
138	0x3db28457	0.08716648
139	0xbd02276f	-0.031775888
140	0x3dc59ded	0.096492626
141	0x3dc33d8a	0.09533222
142	0x3d81ed8a	0.06344135
143	0x3a6ec5e8	0.000910847
144	0xbe448f06	-0.19195184
145	0x3e7cf55c	0.24702972
146	0x3db5c198	0.08874816
147	0x3d50dc14	0.050991133
148	0x3e0fb090	0.14032197
149	0xbe02237f	-0.12708853
150	0x3d1132ae	0.035448723
151	0x3cb1f96b	0.021725377
152	0x3c44deca	0.012016008
153	0x3ce96325	0.028489659
154	0x3a2f7150	0.0006692605
155	0x3d372f68	0.044722944
156	0x3cb4f516	0.022089522
157	0x3d9c5416	0.076332256
158	0x3d637685	0.05553295
159	0x3d5b8276	0.053591214
160	0x3c80ffc8	0.015746966
161	0x3c163305	0.009167437
162	0x3d1fa965	0.038979907
163	0x3cd82bf7	0.026388152
164	0xbbbdc7c1	-0.005791635
165	0x3c3cde68	0.011527635
166	0xbba67035	-0.005079294
167	0x3cebda78	0.028790697
168	0x3c6a3469	0.014294722
169	0x3c205ab9	0.009787255
170	0xbdb2fa88	-0.08739191
171	0xbcdb5e2a	-0.0267783
172	0xbcd18554	-0.025576271
173	0xbc8a02de	-0.01684707
174	0x3ce6f0c6	0.028190982
175	0xbab1824c	-0.001354286
176	0x3c9fc726	0.019504141
177	0xbc9d2a1d	-0.01918512
178	0xbd16dc1a	-0.036831
179	0xbe05adda	-0.130546
180	0xbd9e4f1a	-0.07729931
181	0x3d81cf15	0.06338326
182	0x3dba8331	0.09107054
183	0x3d457be3	0.04821385
184	0x3c163ceb	0.009169797
185	0xbca926a8	-0.020648316
186	0xbd441154	-0.047868088
187	0x3d4b9f88	0.049712688
188	0xbc3579e2	-0.011076422
189	0x3e11648c	0.14198512
190	0xbd97493b	-0.073870145
191	0xbe8744d8	-0.2641971
192	0xbe770dad	-0.2412631
193	0xbc897767	-0.016780568
194	0x3e9dae58	0.30797076
195	0xbe97b651	-0.29631284
196	0xbea7cf9b	-0.32775578
197	0xbeb8bb8c	-0.36080587
198	0xbe7876b0	-0.24264026
199	0xbd11c1fb	-0.035585385
200	0xbc6593d5	-0.014012297
201	0x3d5e5007	0.05427554
202	0x3c87af62	0.016563121
203	0xbd9388c7	-0.072038226
204	0x3de36c60	0.11104655
205	0x3d906148	0.07049805
206	0x3d580626	0.05274024
207	0x3e2c548c	0.16829127
208	0xbe12c8f5	-0.14334472
209	0x3d1a0d36	0.037610255
210	0xbd49d1ea	-0.049272455
211	0x3b27ab68	0.0025584344
212	0x3d1264ec	0.035740778
213	0x3cb144aa	0.021639187
214	0x3ab5492f	0.0013831015
215	0xbd86f9af	-0.06590592
216	0xbd5f31d9	-0.054490898
217	0x3cd90454	0.026491322
218	0xbcc0af73	-0.02352116
219	0x3e0b8ca6	0.13627872
220	0xbcb6d5b7	-0.022318704
221	0x3baabf59	0.0052107987
222	0x3d2922bb	0.041292887
223	0xbc3f15b3	-0.011662888
224	0xbc182e99	-0.0092884535
225	0xbd9428c3	-0.07234337
226	0xbce26936	-0.02763806
227	0x3c8bba6f	0.017056672
228	0xbc0d65d8	-0.0086302385
229	0x3dbf122d	0.09329639
230	0xbc3e0a5c	-0.01159915
231	0xbd0fadda	-0.035077907
232	0x3ca3fbae	0.020017471
233	0xbd63175d	-0.055442203
234	0xbcfcda32	-0.030865762
235	0xbd8d7759	-0.069075294
236	0xbd692640	-0.056921244
237	0x3cd0b798	0.02547817
238	0xbda42e39	-0.08016629
239	0x3e0e4884	0.1389485
240	0xbd97579e	-0.073897585
241	0x3d3eb5c9	0.046560083
242	0x3d90e363	0.070746206
243	0x3d8e6c45	0.069542445
244	0xbcc099bf	-0.023510812
245	0x3db6c888	0.08924967
246	0xbd467d02	-0.04845906
247	0xbcaeec41	-0.021352889
248	0x3d97014d	0.07373295
249	0xbd8d1991	-0.06889642
250	0xbc9a10d4	-0.018806852
251	0x3bb80f5d	0.005617066
252	0x3d2a2c9e	0.041546457
253	0x3d507a4a	0.050897874
254	0xbe26e442	-0.16298011
255	0xbc472921	-0.012155802

encoder.mean_encoder.weight f4 [10, 45]
0	0xbc7adeb2	-0.015311884
1	0xbdb61c99	-0.08892173
2	0xbbf0d3fb	-0.007349489
3	0xbc0bf2e5	-0.008541797
4	0x3d4a624e	0.049410157
5	0x3c872bb2	0.016500328
6	0x3bb50a01	0.005524874
7	0xbbe808ee	-0.0070811426
8	0x3dfaa7d5	0.12239043
9	0xbb4149e0	-0.0029493496
10	0x3c87106b	0.01648732
11	0xbdd96a33	-0.10615959
12	0x3c93e655	0.018054167
13	0x3d2ba995	0.041909773
14	0x388583c0	6.3664746e-05
15	0x3b1e7058	0.0024175849
16	0x3c20fa6e	0.009825332
17	0xbc6ec663	-0.014573666
18	0x3a93c443	0.00112737
19	0xbd04b9e2	-0.032403834
20	0xbc8f85a0	-0.017519772
21	0xbce7969b	-0.028270056
22	0x3c4004b6	0.011719873
23	0xbd125bee	-0.035732202
24	0x3d0449d1	0.03229696
25	0x3d092408	0.033481628
26	0x3b9cf3bd	0.004789798
27	0xbc8a39be	-0.016873237
28	0xbba3b9b4	-0.004996503
29	0x3c8cbd90	0.017180234
30	0xba8bec08	-0.0010675201
31	0x3be42054	0.0069618616
32	0xbcc54f67	-0.024085714
33	0x3cd604ed	0.026125396
34	0xbd44baf7	-0.048029866
35	0xbc8d289c	-0.017231278
36	0xbbf9a2e4	-0.007618295
37	0xbc2f48e6	-0.010698533
38	0xbebd6a39	-0.36995104
39	0x3c9a767e	0.01885533
40	0x3b8cd5d0	0.0042979494
41	0x3e05073f	0.12991045
42	0xbbc5e72f	-0.006039522
43	0xbd884536	-0.06653826
44	0x3cb5afa0	0.022178471
45	0x3d5eb903	0.05437566
46	0xbc6313e4	-0.013859723
47	0xbd569f93	-0.052398276
48	0xbd879971	-0.066210635
49	0xbc75ee80	-0.015010476
50	0xbc267e60	-0.010161966
51	0xb9429f19	-0.0001856055
52	0x3b90b41a	0.004416001
53	0x3da6d09c	0.08145258
54	0x39f79234	0.0004722044
55	0xbd399289	-0.045305762
56	0xbde1fb3a	-0.11034246
57	0xbc2315c6	-0.009953922
58	0xbbc01eac	-0.0058630314
59	0x3d05302b	0.03251664
60	0x3c70cf08	0.014697798
61	0xbb95156c	-0.004549673
62	0xbcda213e	-0.02662718
63	0x3c1d4d88	0.009601004
64	0xbca376cf	-0.019954113
65	0x3c32f940	0.010923684
66	0xbb91e48a	-0.004452293
67	0x3b31f222	0.002715238
68	0xbb941501	-0.0045191054
69	0xbc10666d	-0.008813483
70	0x3c0f436e	0.008744104
71	0x3b8afd60	0.0042416304
72	0xbc7fbcb5	-0.015608956
73	0x3d20c4fc	0.03925036
74	0xbc288c57	-0.010287366
75	0xbb20c877	-0.002453355
76	0x3b7d24f6	0.0038626767
77	0xbb6e4aa3	-0.0036360405
78	0x3caf9dca	0.021437544
79	0xbe2e34fa	-0.17012396
80	0xbc2fdda0	-0.010733992
81	0xbac18e5f	-0.0014767161
82	0x3ca256f2	0.01981685
83	0x3dab942c	0.08377871
84	0xbc1d9de6	-0.009620165
85	0xbdf2d4f9	-0.118570276
86	0xbda87be0	-0.08226752
87	0x3d440f5f	0.04786622
88	0x3c7de6d9	0.015496933
89	0xbaf526ff	-0.0018703638
90	0x3d12cd27	0.03584018
91	0xbcc00be2	-0.023443166
92	0xbd99de36	-0.075130865
93	0x3cbbf02d	0.022941673
94	0xbc838cf2	-0.016058419
95	0xbc98a177	-0.01863168
96	0xbe001722	-0.12508824
97	0x3d0ddf56	0.034636818
98	0x3d0c0e71	0.03419346
99	0x3ca987a3	0.02069456
100	0x3c4bfbfd	0.012450215
101	0xbd05fce0	-0.032711864
102	0xbcd44ada	-0.025914598
103	0xbc5e5828	-0.013570823
104	0x3d651394	0.055926874
105	0x3c800611	0.015627893
106	0xbcf40ea7	-0.029792143
107	0xbd909773	-0.07060137
108	0xbdce3dfa	-0.10070415
109	0xbd5cb606	-0.05388453
110	0x3d8b4c27	0.06801634
111	0xbdb1428b	-0.0865527
112	0xbd106b3f	-0.035258528
113	0xbce93f76	-0.028472643
114	0xbe205b50	-0.15659833
115	0x3c034d49	0.008014032
116	0x3d02c9ff	0.03193092
117	0xbd2b6c53	-0.041851353
118	0xbc97a8ce	-0.01851311
119	0xbd2025f7	-0.039098706
120	0xbc93dd4f	-0.018049864
121	0x3d489ee4	0.048979655
122	0xbc5f6df5	-0.013637056
123	0x3cf42b23	0.029805725
124	0x3c899f90	0.016799718
125	0xbdfd8f8e	-0.123808965
126	0x3c014eac	0.007892292
127	0xbc9abc8d	-0.018888736
128	0xbc3150b3	-0.010822463
129	0x3c8c38c2	0.017116908
130	0x3c889e08	0.016676918
131	0xbbb64821	-0.0055627977
132	0x3da2650e	0.07929431
133	0x3cd7e92f	0.026356308
134	0xbd3750e1	-0.044754867
135	0xbb931c26	-0.0044894395
136	0x3ea4a551	0.32157376
137	0xbcd28eb4	-0.025702812
138	0xbcc87ad9	-0.02447264
139	0x3be7399a	0.007056427
140	0xbc544b6f	-0.012957438
141	0xbb320022	-0.0027160724
142	0xbb9fd4f5	-0.0048776814
143	0x3d093a90	0.033503115
144	0x39fd3c01	0.00048300627
145	0x3c2729a0	0.010202795
146	0xbd4852cb	-0.048907083
147	0xbc19dbee	-0.009390814
148	0xbb794a7c	-0.003803878
149	0xbc3c5e04	-0.011497024
150	0x3b5b5e5d	0.0033472993
151	0xbc9e3285	-0.019311199
152	0x3d2e1f79	0.042510483
153	0x3b272683	0.0025505133
154	0xbd1043e0	-0.03522098
155	0xbbb4c646	-0.0055168
156	0xbc2a3f20	-0.010391027
157	0x3b445982	0.0029960577
158	0xbbcef2be	-0.006315558
159	0x3c3330d6	0.010936936
160	0xbcdd12e6	-0.02698655
161	0xba36c3bc	-0.0006971916
162	0x3c5f1673	0.013616192
163	0xbd78877b	-0.06067608
164	0xbc75d3d6	-0.015004119
165	0xbaa23333	-0.0012374878
166	0xbb25bd52	-0.0025289846
167	0x3d68f436	0.056873523
168	0x3b2758a9	0.0025535023
169	0xbbfd024c	-0.007721221
170	0xbb7b380c	-0.0038332967
171	0x3a58b56e	0.0008266781
172	0x3cb4bbd8	0.022062227
173	0xbe0011a4	-0.1250673
174	0xbd68085c	-0.056648597
175	0x3e2d5ecd	0.16930695
176	0x3b6cf370	0.0036155842
177	0xbc263f5c	-0.010146942
178	0xbccd466e	-0.025057998
179	0xbba29501	-0.0049616103
180	0x3c9ddc6a	0.01927014
181	0xbd343ef7	-0.04400536
182	0xbc541509	-0.012944468
183	0xbc3ee7aa	-0.011651913
184	0x3da7cddc	0.081935614
185	0x3c5bfb7a	0.013426656
186	0xbccdb185	-0.025109062
187	0x3a205735	0.00061165105
188	0xbe4ba9e2	-0.19889024
189	0xbb3fdf54	-0.00292774
190	0x3cabed05	0.020987043
191	0xbc78cf47	-0.0151861375
192	0x3c04e54a	0.008111307
193	0x3c8bee36	0.017081361
194	0xbcecb21b	-0.028893521
195	0x3caba88c	0.020954393
196	0x3b9f14e4	0.0048547853
197	0xbd70a6de	-0.058752887
198	0xbc914788	-0.017734304
199	0xbb3f3867	-0.0029177906
200	0x3bc2e2fd	0.0059474693
201	0xbce2632e	-0.027635183
202	0xbbef6c2b	-0.007306596
203	0xbc19544b	-0.009358476
204	0xbc8da267	-0.017289354
205	0xbd411afe	-0.047144882
206	0x3c2abd16	0.010421058
207	0x3d8394c1	0.06424857
208	0x3ce2725f	0.027642427
209	0x3b202c98	0.0024440642
210	0x3e1d85ba	0.15383044
211	0x3b55d7e4	0.0032629902
212	0xbcf58aff	-0.029973505
213	0xbd0fcd32	-0.0351078
214	0x3d22977f	0.03969526
215	0xbd4a2a56	-0.04935678
216	0xbbbbbdc2	-0.005729408
217	0xbc83791c	-0.01604896
218	0xbde26177	-0.11053746
219	0x3cb328f8	0.021870121
220	0xbc723780	-0.01478374
221	0xbd613a05	-0.054986972
222	0x3c66ebcc	0.014094304
223	0xbc6e55a3	-0.014546785
224	0x3ca097c2	0.019603614
225	0xbc72de45	-0.014823501
226	0x3d5958dc	0.05306326
227	0x3aaeed15	0.0013345802
228	0xbabd50a2	-0.0014443586
229	0xbd2d8cb1	-0.042370502
230	0xbb7538bb	-0.0037417847
231	0xbc50370b	-0.012708436
232	0x3bad318e	0.0052854484
233	0x3e576905	0.21036156
234	0x3b9bbdba	0.004752842
235	0xbc4ada8c	-0.012381207
236	0xbca83c50	-0.020536572
237	0x3cac38ac	0.021023117
238	0xbcfe6951	-0.031056078
239	0xbd0af87c	-0.03392838
240	0xb9c9651a	-0.00038413034
241	0x3ca15a41	0.019696357
242	0xbd05d588	-0.032674342
243	0xbc885109	-0.016640203
244	0x3d53f4a0	0.051746964
245	0x3ce6b00e	0.028160121
246	0xbc7cde7d	-0.015433905
247	0x3c4b2f0a	0.012401352
248	0xbceb8476	-0.028749686
249	0xbc80bddb	-0.01571553
250	0x3b54274f	0.0032372063
251	0x3b7e1cf2	0.0038774577
252	0x3cd92988	0.026509061
253	0x3cbd754c	0.02312722
254	0x3c6d1623	0.01447061
255	0xbdbb1532	-0.09134902

encoder.mean_encoder.bias f4 [10]
0	0xbcd21d3f	-0.025648711
1	0x3ac70755	0.001518468
2	0x3ef4cc10	0.47811937
3	0x3e0c5dbe	0.13707635
4	0x3c7a59a8	0.015280165
5	0xbd1d2d5c	-0.038373336
6	0xbe2fc9a0	-0.17166758
7	0x3e2351b5	0.15949138
8	0x3cbd7c26	0.023130488
9	0xbe14ffd6	-0.14550719

encoder.log_var_encoder.weight f4 [10, 45]
0	0xbe8f0776	-0.2793538
1	0xbe907cc6	-0.28220195
2	0xbe2279bf	-0.15866755
3	0xbe87f41b	-0.26553425
4	0xbecc06ea	-0.39849025
5	0xbece0fcf	-0.40246436
6	0xbe252f9e	-0.16131446
7	0xbf00697e	-0.5016097
8	0xbe603529	-0.21895279
9	0xbf3148e5	-0.69251853
10	0xbea3fe12	-0.32029778
11	0xbe5c5c85	-0.21519668
12	0xbebc1e60	-0.36741924
13	0xbef85fcb	-0.48510584
14	0xbe35a4ec	-0.17738694
15	0xbf20a0ab	-0.6274516
16	0xbeaba61f	-0.33525178
17	0xbe561947	-0.2090808
18	0xbe15b168	-0.14618456
19	0xbe05e43f	-0.1307535
20	0xbe82946c	-0.25503862
21	0xbe860015	-0.26171938
22	0xbf041af9	-0.51603657
23	0xbf06aff4	-0.52612233
24	0xbdc2ee37	-0.09518092
25	0xbeaac01e	-0.333497
26	0xbee8ab62	-0.45443255
27	0xbe615377	-0.22004496
28	0xbe5fdb3b	-0.21860974
29	0xbeb87226	-0.36024588
30	0xbe7d95de	-0.24764201
31	0xbee62260	-0.449481
32	0xbde2a7e4	-0.11067179
33	0xbea6d568	-0.3258469
34	0xbe284d01	-0.16435625
35	0xbe26bbfe	-0.16282651
36	0xbf7393c7	-0.95147365
37	0xbe9a2348	-0.30105042
38	0xbe948a7f	-0.29011914
39	0xbe0b0f4d	-0.13580056
40	0xbe2ed944	-0.17075068
41	0xbe0ac8fd	-0.13553233
42	0xbe6ea4f0	-0.23305106
43	0xbeafd1f3	-0.34339866
44	0xbe3a28b1	-0.18179585
45	0xbe848afb	-0.25887284
46	0xbea0ed8a	-0.31431228
47	0xbe389a25	-0.18027551
48	0xbe7b9342	-0.24567893
49	0xbeeca826	-0.46222037
50	0xbed0023a	-0.406267
51	0xbe31f090	-0.17376924
52	0xbef28dfa	-0.47373945
53	0xbe7f2e65	-0.24920042
54	0xbf2424cf	-0.64118665
55	0xbea51840	-0.32245064
56	0xbe6b9193	-0.23004751
57	0xbea3c423	-0.31985578
58	0xbef40639	-0.47660998
59	0xbe314e42	-0.17315009
60	0xbf0d17b7	-0.5511431
61	0xbea11662	-0.3146239
62	0xbe58ec95	-0.21183999
63	0xbe0b8f4e	-0.13628885
64	0xbdcf6a93	-0.10127749
65	0xbe777daf	-0.24169038
66	0xbe86d36d	-0.2633318
67	0xbeedbb63	-0.46432027
68	0xbf008e7e	-0.50217426
69	0xbd916882	-0.071000114
70	0xbeacedca	-0.3377517
71	0xbee39411	-0.44448903
72	0xbe56df48	-0.20983613
73	0xbe272b4f	-0.16325115
74	0xbeac5c9d	-0.33664408
75	0xbe87422d	-0.26417676
76	0xbecb5daf	-0.39719912
77	0xbe03c063	-0.12866358
78	0xbeb26e69	-0.3484986
79	0xbe211624	-0.15731102
80	0xbe3468b4	-0.17618066
81	0xbf706bbb	-0.93914384
82	0xbe96e361	-0.2947035
83	0xbead14f5	-0.3380505
84	0xbe0f4c8d	-0.13994046
85	0xbe2e2284	-0.17005354
86	0xbe307f0a	-0.17235962
87	0xbe50a5d7	-0.20375763
88	0xbeaebfc7	-0.3413069
89	0xbe0ba026	-0.1363531
90	0xbe6ab661	-0.22921135
91	0xbeaa7a0d	-0.33296242
92	0xbe1dc2a2	-0.15406278
93	0xbe836093	-0.25659618
94	0xbeea853c	-0.45804775
95	0xbed34d1e	-0.41269773
96	0xbdfe83ba	-0.124274686
97	0xbef96e6f	-0.48717067
98	0xbe7cafd8	-0.24676454
99	0xbf24df9c	-0.644037
100	0xbe9e158e	-0.3087582
101	0xbe8a747d	-0.27041999
102	0xbea7b0d0	-0.32752085
103	0xbed7533c	-0.4205569
104	0xbe116d12	-0.14201763
105	0xbf1470c9	-0.57984596
106	0xbea64ece	-0.32481998
107	0xbe6f0edb	-0.2334551
108	0xbdb5e8da	-0.088823035
109	0xbdd4edcb	-0.10396918
110	0xbe8c58b5	-0.27411428
111	0xbe7317b3	-0.2373951
112	0xbef627c8	-0.48077226
113	0xbeef8361	-0.46779922
114	0x3c8e4f57	0.017371817
115	0xbe9f1ed5	-0.3107821
116	0xbee20bae	-0.44149536
117	0xbe24e4c5	-0.16102894
118	0xbe46455a	-0.19362393
119	0xbebc2b9c	-0.3675202
120	0xbe8824ec	-0.2659067
121	0xbed8f0c6	-0.42371196
122	0xbd92718c	-0.071505636
123	0xbeb15e38	-0.34642196
124	0xbe3a8efc	-0.18218607
125	0xbe4c6397	-0.19959866
126	0xbf72b66b	-0.948096
127	0xbe84edc3	-0.25962648
128	0xbea67dc6	-0.32517833
129	0xbe404dc9	-0.18779673
130	0xbe31b793	-0.17355184
131	0xbe203855	-0.15646489
132	0xbe5bcce8	-0.21464884
133	0xbeb8dafb	-0.3610457
134	0xbe1e305b	-0.15448134
135	0xbe916c9e	-0.2840318
136	0xbe65dca0	-0.22447443
137	0xbe663a21	-0.22483112
138	0xbeaa22fa	-0.3322981
139	0xbeba0d46	-0.36338252
140	0xbef3f5b7	-0.47648403
141	0xbe518418	-0.20460546
142	0xbf0dbfc3	-0.5537073
143	0xbe1a9c6f	-0.15098737
144	0xbf367a62	-0.7128049
145	0xbeb6486f	-0.35602137
146	0xbe5845bb	-0.2112035
147	0xbee7e7cd	-0.45294037
148	0xbf06bb8a	-0.5262991
149	0xbe43bfac	-0.19116086
150	0xbf286a70	-0.6578741
151	0xbee0af71	-0.4388385
152	0xbe1454e9	-0.14485516
153	0xbe535af8	-0.2064017
154	0xbe14a9b6	-0.14517865
155	0xbe8c5a24	-0.27412522
156	0xbe9e74bf	-0.30948445
157	0xbf0f3423	-0.5593893
158	0xbf0cb2b2	-0.5496017
159	0xbe0d7555	-0.1381429
160	0xbec66d35	-0.38755193
161	0xbf08ff73	-0.53514785
162	0xbe8cafbb	-0.27477822
163	0xbe99cb7a	-0.30038053
164	0xbeff9700	-0.4991989
165	0xbe5bd6ed	-0.21468706
166	0xbef0c364	-0.4702407
167	0xbd8d2f43	-0.0689378
168	0xbeb53b72	-0.35396916
169	0xbe216de2	-0.15764573
170	0xbe1b6849	-0.151765
171	0xbf7b6127	-0.9819512
172	0xbe9df166	-0.30848235
173	0xbe900026	-0.28125113
174	0xbe866c42	-0.2625447
175	0xbe12387b	-0.14279358
176	0xbdf18c59	-0.11794347
177	0xbe5d8d79	-0.21635999
178	0xbeb30be8	-0.3497002
179	0xbe4bb034	-0.19891435
180	0xbe87f442	-0.2655354
181	0xbe91f263	-0.2850524
182	0xbe5a8a16	-0.21341738
183	0xbe9cf9bb	-0.3065928
184	0xbecadac6	-0.39620036
185	0xbeda67dc	-0.42657363
186	0xbe47e82a	-0.19522157
187	0xbf0fb523	-0.5613577
188	0xbe2f57c2	-0.1712332
189	0xbf31aa64	-0.6940062
190	0xbead311b	-0.33826527
191	0xbe4ca2cd	-0.19983979
192	0xbed0d326	-0.40786093
193	0xbeff7d55	-0.49900308
194	0xbe381039	-0.17974938
195	0xbf233a53	-0.6376087
196	0xbec79e24	-0.3898784
197	0xbe1420a5	-0.14465578
198	0xbe41b6a8	-0.18917334
199	0xbe07e9af	-0.13272737
200	0xbe9b1ee2	-0.30297
201	0xbea44495	-0.32083574
202	0xbf125861	-0.57166106
203	0xbf041c9c	-0.51606154
204	0xbdedf64b	-0.11619242
205	0xbebbb54d	-0.3666176
206	0xbf01c669	-0.50693375
207	0xbe29dfb1	-0.16589238
208	0xbe3f0be8	-0.18656886
209	0xbee6bede	-0.45067495
210	0xbe6fb679	-0.23409452
211	0xbefd527b	-0.4947699
212	0xbe14b95a	-0.14523831
213	0xbebeafcc	-0.37243497
214	0xbe1681e3	-0.14697985
215	0xbe4a1452	-0.19734314
216	0xbf77a934	-0.9674256
217	0xbea7a4be	-0.32742876
218	0xbea1c31e	-0.31594175
219	0xbe40d001	-0.18829347
220	0xbe223698	-0.15841138
221	0xbdfcee61	-0.12350155
222	0xbe56bf66	-0.2097145
223	0xbeb21115	-0.34778658
224	0xbe43be5b	-0.19115584
225	0xbe8785d1	-0.2646928
226	0xbe86d8ba	-0.26337224
227	0xbe1bf713	-0.1523097
228	0xbe8e25f8	-0.27763343
229	0xbec9fd84	-0.3945123
230	0xbed9df34	-0.42553103
231	0xbe0f1e3c	-0.13976377
232	0xbf0e5ec7	-0.5561337
233	0xbe36c7d8	-0.17849672
234	0xbf33925f	-0.7014522
235	0xbea3998b	-0.3195308
236	0xbe5a1e76	-0.21300682
237	0xbec37124	-0.38172257
238	0xbefe7a45	-0.4970266
239	0xbe3d2622	-0.18471578
240	0xbf23259b	-0.63729256
241	0xbeb7fc5b	-0.3593472
242	0xbe486801	-0.19570924
243	0xbdd1f9dd	-0.10252736
244	0xbde1078b	-0.10987767
245	0xbe99381b	-0.29925618
246	0xbe767f50	-0.24072003
247	0xbefa0c1d	-0.48837367
248	0xbf05178d	-0.5198906
249	0xbd4fed9b	-0.050763708
250	0xbeba15e1	-0.36344817
251	0xbf00a5d7	-0.5025305
252	0xbe62d80c	-0.22152728
253	0xbe73ea09	-0.23819746
254	0xbec270b3	-0.37976608
255	0xbe6ed0cd	-0.23321839

encoder.log_var_encoder.bias f4 [10]
0	0xbf869ded	-1.0516945
1	0xbf84e750	-1.0383091
2	0xbf8466f0	-1.0343914
3	0xbf9052ea	-1.1275303
4	0xbf8d5ceb	-1.1043981
5	0xbf8b3370	-1.0875072
6	0xbf852cfd	-1.0404354
7	0xbf8c14f2	-1.0943892
8	0xbf8f86e0	-1.1213036
9	0xbf7246b9	-0.94639164

decoder.FirstL.L0.expr_L.weight f4 [45, 10]
0	0xbd1af036	-0.03782674
1	0xbdc122b7	-0.094304495
2	0x3da52fa0	0.080657244
3	0xbd2ece5f	-0.04267728
4	0x3d4870a7	0.04893556
5	0x3da0c2b3	0.07849636
6	0x3e7801a0	0.2421937
7	0xbe2770bf	-0.16351603
8	0x3dad6741	0.0846696
9	0x3c45f136	0.012081435
10	0x3d2c0b61	0.04200304
11	0x3dcdaa25	0.10042218
12	0xbd754349	-0.05987862
13	0x3db11ba6	0.08647852
14	0x3ea4e134	0.32203066
15	0x3e08b246	0.13349256
16	0x3e27224a	0.16321674
17	0xbe14923a	-0.14508906
18	0xbdcc7023	-0.09982326
19	0xbbd454d5	-0.0064798393
20	0x3e38bb7a	0.18040267
21	0xbd3c3c58	-0.045955986
22	0xbd11ac76	-0.035564862
23	0xbe41bce1	-0.18919708
24	0xbdeb31b3	-0.11484089
25	0x3c08c605	0.008347993
26	0xbd9231b3	-0.071383856
27	0xbd42f708	-0.04759887
28	0xbe592b7c	-0.21207994
29	0x3c1b5e1d	0.009482888
30	0xbe0597cf	-0.13046192
31	0x3ce7d8d7	0.02830164
32	0x3c67bcaa	0.014144102
33	0x3e8cd51f	0.27506348
34	0x3e38a892	0.18033054
35	0x3e2b628b	0.1673681
36	0x3d3ee599	0.04660568
37	0xbd55beac	-0.052183792
38	0x3c161389	0.009159931
39	0xbda65b78	-0.08122915
40	0x3d4918f1	0.04909605
41	0xbcff8ddc	-0.031195574
42	0xbb048011	-0.0020217935
43	0xbd4869b1	-0.04892892
44	0x3b7b946c	0.0038388027
45	0xbc9aab1e	-0.018880423
46	0x3b705b33	0.0036675453
47	0xbdc5ea7e	-0.096638665
48	0x3d2eb6c4	0.042654768
49	0x3ce99710	0.028514415
50	0x3d30ce4c	0.04316549
51	0xbdc973e7	-0.0983656
52	0xbd0dbe9c	-0.034605607
53	0x3ca211cc	0.019783877
54	0x3d59ca8e	0.053171687
55	0x3adacf86	0.0016693927
56	0x3d427047	0.047470357
57	0x3dd9343f	0.10605668
58	0xbe0752b1	-0.13215138
59	0x3be323c2	0.006931753
60	0x3e6db56a	0.23213735
61	0x3c206e49	0.009791919
62	0x3e17449b	0.14772265
63	0xbdcedbbf	-0.10100507
64	0x3e3bf637	0.18355642
65	0xbd5c820a	-0.053834952
66	0x3e274fbf	0.16339014
67	0xbe222694	-0.15835029
68	0xbd26834d	-0.040652562
69	0xbcfc36e9	-0.030787902
70	0x3d35dcdf	0.044400092
71	0x3b2d84b1	0.0026476795
72	0xbdd5bf0d	-0.10436831
73	0xbd36cc7b	-0.0446286
74	0x3c19d538	0.009389214
75	0x3da7a875	0.081864275
76	0x3c91b22f	0.01778516
77	0x3cff66be	0.031176921
78	0xbe25759e	-0.16158149
79	0x3d197cba	0.037472464
80	0x3e1d15ea	0.15340391
81	0x3d8b390a	0.06797989
82	0x3df97e52	0.12182297
83	0xbd9b819b	-0.0759308
84	0xbdf37622	-0.118877664
85	0x3e5f09f9	0.21781148
86	0xbcb9e7d3	-0.02269355
87	0xbe1bf7ce	-0.15231249
88	0x3ce96595	0.02849082
89	0x3c712b91	0.01471986
90	0xbe205aa9	-0.15659584
91	0x3d876c35	0.06612436
92	0xbdc8be5d	-0.09801934
93	0xbd288bd5	-0.04114898
94	0x3e42f8d4	0.19040233
95	0x3de74ed8	0.11294335
96	0x3c90d123	0.01767785
97	0x3e57f115	0.21088059
98	0x3e6e07cf	0.23245166
99	0x3d2c1a24	0.042017117
100	0x3e0c9551	0.13728835
101	0xbe02415a	-0.12720242
102	0xbccee36c	-0.025254928
103	0x3e2ce91f	0.16885804
104	0x3e2a9014	0.16656524
105	0xbcf8aba7	-0.030355288
106	0x3da2ffcb	0.07958945
107	0x3dbbfe03	0.09179308
108	0xbcbc2f8d	-0.022971893
109	0x3d62e430	0.055393398
110	0x3d222e02	0.039594658
111	0x3d37031f	0.04468071
112	0x3dceda44	0.101002246
113	0x3d19f670	0.037588537
114	0x3d94516f	0.07242095
115	0x3d6b100d	0.057388354
116	0xbcb0c8f8	-0.021580204
117	0xbd8ef0d6	-0.069795296
118	0x3cb4c9d7	0.022068901
119	0xbbbf6a0f	-0.0058415006
120	0x3d089f83	0.033355247
121	0x3b006108	0.0019589085
122	0x3c719ac7	0.014746374
123	0xbda34f7a	-0.07974143
124	0xbca7a352	-0.02046362
125	0xbdd52098	-0.104066074
126	0xbda46ae8	-0.08028203
127	0x3cf44792	0.029819284
128	0x3e052fc4	0.13006502
129	0xbd9293f6	-0.071571276
130	0x3aad729c	0.0013233009
131	0xbbd7f868	-0.0065908916
132	0xbc9cc109	-0.019135015
133	0x3d0826c3	0.03324009
134	0x3bbffab5	0.005858744
135	0xbccbdb02	-0.024884705
136	0xbca73310	-0.02041009
137	0x3cf8fb13	0.030393159
138	0xbd007652	-0.03136284
139	0xba44a26e	-0.00075010106
140	0x3e2604b7	0.16212736
141	0x3e0bf8ea	0.13669172
142	0x3d825c19	0.063652225
143	0x3e6c8251	0.23096587
144	0xbdd8d65d	-0.105877616
145	0x3dd18d09	0.102319784
146	0xbc8bbf55	-0.017059008
147	0xbe1abd90	-0.15111375
148	0xbe1016cb	-0.14071195
149	0xbda4e208	-0.080509245
150	0x3e05b994	0.13059074
151	0xbd92acd0	-0.071618676
152	0x3da1badf	0.07896971
153	0x3e60be44	0.2194758
154	0xbc9a78e4	-0.018856473
155	0xbe62930b	-0.22126405
156	0x3d919c60	0.07109904
157	0xbdc0c9fb	-0.09413525
158	0xbe5ff28e	-0.21869871
159	0xbde40e2b	-0.11135515
160	0x3decab92	0.11556162
161	0xbd74c4b0	-0.05975789
162	0x3e5049a3	0.2034059
163	0x3d9e7c48	0.077385485
164	0xbcf38cc7	-0.029730214
165	0xbeb0a210	-0.34498644
166	0x3e0dd4e2	0.1385074
167	0xbddb822d	-0.107181884
168	0x3c946b62	0.01811761
169	0xbd280c96	-0.041027628
170	0x3dc6d66e	0.09708868
171	0x3db07eef	0.08617961
172	0x3caac158	0.020844147
173	0x3d736304	0.0594206
174	0xbe890230	-0.2675948
175	0x3e1b6779	0.1517619
176	0x3c9cded9	0.01914923
177	0xbd7e12e1	-0.062029723
178	0xbe005489	-0.12532248
179	0xbca663de	-0.020311292
180	0xbd304905	-0.043038387
181	0x3dfca2a7	0.12335711
182	0xbe11854e	-0.14211008
183	0xbf03d98c	-0.51503825
184	0x3e05ff44	0.13085657
185	0x3e9b9eb6	0.30394524
186	0xbde478fc	-0.111558884
187	0x3e49e992	0.19718006
188	0xbe567f3d	-0.20946975
189	0x3d36333e	0.044482462
190	0xbbab82e7	-0.0052341106
191	0xbce2b55f	-0.027674375
192	0xbc463d98	-0.012099646
193	0x3cf53095	0.029930392
194	0xbba5bb32	-0.005057716
195	0x3bd58f50	0.0065173283
196	0xba8d5f4b	-0.0010785846
197	0xbd0e43e6	-0.03473272
198	0xbd573948	-0.052544862
199	0x3c6be2d3	0.014397341
200	0xbe98edf5	-0.29869047
201	0xbd13a31a	-0.036044218
202	0xbde33279	-0.11093611
203	0x3f00cac9	0.50309426
204	0xbe8564e4	-0.26053536
205	0x3db709ad	0.089373924
206	0xbc96d702	-0.01841307
207	0x3eedb7d5	0.46429315
208	0xbf02e119	-0.5112472
209	0xbdb5e25d	-0.08881066
210	0xbe49d6f0	-0.19710898
211	0x3dd5db42	0.10442211
212	0x3d1d7dfb	0.038450222
213	0xbd5dc942	-0.054147013
214	0xbe159295	-0.14606698
215	0xbde543c4	-0.11194566
216	0xbe2c0102	-0.1679726
217	0xbd45f484	-0.04832889
218	0x3e6b9b4a	0.23008457
219	0xbdf4f548	-0.11960846
220	0x3d052f62	0.03251589
221	0xbd2fba67	-0.042902377
222	0xbca9dc2b	-0.020734867
223	0xbe2f418b	-0.17114846
224	0xbe860edb	-0.2618321
225	0xbe665c6f	-0.22496198
226	0xbb388afd	-0.0028159015
227	0x3e2a3278	0.16620815
228	0x3e38e784	0.18057066
229	0xbcee200c	-0.029068016
230	0xbe3265d6	-0.1742166
231	0x3c89a56a	0.016802508
232	0x3ddbbefb	0.10729786
233	0x3e89cca2	0.26913935
234	0x3d2ecd8f	0.042676505
235	0x3ddba392	0.10724558
236	0xbd895f49	-0.06707627
237	0xbd14ab07	-0.036295917
238	0x3ec58561	0.38578323
239	0x3a823af7	0.0009935786
240	0x3e17e579	0.1483363
241	0x3ce69ef1	0.028151961
242	0xbc4420fa	-0.011970753
243	0xbe79060d	-0.24318714
244	0xbc87f98f	-0.016598491
245	0xbe03425b	-0.12818281
246	0x3e2bbccb	0.16771238
247	0x3dacad3a	0.08431478
248	0xbedd950d	-0.4327778
249	0x3ae4f6be	0.0017468554
250	0xbdd25670	-0.10270393
251	0xbd3bb8fa	-0.045830704
252	0x3d4d038d	0.050052214
253	0x3c0a99fa	0.008459562
254	0x3e7103b9	0.23536576
255	0x3e933f6b	0.28759322

decoder.FirstL.L0.cond_L.weight f4 [45, 10]
0	0x3b7f8cdd	0.0038993873
1	0x3c7634c8	0.0150272325
2	0xbcb9c2bc	-0.022675864
3	0x3c5f1026	0.01361469
4	0x3cad7c09	0.021177309
5	0xbc6cf770	-0.014463291
6	0xbd795ef0	-0.060881555
7	0xbc390f6e	-0.011295183
8	0xbbb2c81b	-0.0054559833
9	0xbb967af9	-0.004592296
10	0x3cc2c27d	0.02377438
11	0x3cd11858	0.025524303
12	0xbd505be0	-0.05086887
13	0x3d45e4c0	0.048313856
14	0x3d851100	0.06497383
15	0xbb6e2cef	-0.00363427
16	0xbde5de59	-0.1122405
17	0xbd840cb6	-0.06447737
18	0xbd269c7c	-0.04067658
19	0xbb144b56	-0.0022627912
20	0x3cd780c2	0.026306514
21	0x3c61704d	0.013759685
22	0x3b325768	0.0027212743
23	0x3d28b73f	0.041190382
24	0x3d03e3a7	0.032199528
25	0xbd186b7b	-0.037211876
26	0xbd9142cc	-0.070928186
27	0xbd09a56c	-0.033605024
28	0xbd4d4e9a	-0.05012379
29	0x3c77e4cb	0.015130232
30	0x3d089f86	0.03335526
31	0x3ca5c484	0.020235308
32	0x3d243646	0.04009082
33	0x3c8d53a1	0.017251791
34	0xbbfd4a59	-0.00772981
35	0xbce85b2e	-0.02836379
36	0x3d797ad1	0.060908142
37	0x3c26bf69	0.010177472
38	0xbb8ec76c	-0.004357269
39	0xbbe2043a	-0.0068974765
40	0xbd0751bc	-0.033036932
41	0x3d09655c	0.03354393
42	0xbdd695cc	-0.1047779
43	0xbe28d86b	-0.16488807
44	0x3d2e35a8	0.04253164
45	0x3b9ec4ea	0.0048452513
46	0xbdeb697c	-0.11494729
47	0x3cca3b82	0.024686579
48	0xbd85e296	-0.065373585
49	0xbc29db21	-0.010367186
50	0x3e31ce0d	0.17363758
51	0xbd0fa475	-0.035068948
52	0x3dc73cb4	0.09728375
53	0xbd69645d	-0.05698048
54	0xbd189bb0	-0.03725785
55	0x3d38e2b7	0.045138087
56	0xbd86b453	-0.06577363
57	0x3cdf905b	0.027290514
58	0xbdb00ca3	-0.0859616
59	0x3c3a2b9e	0.011362938
60	0xbbf0322c	-0.0073301997
61	0xbcb9ba37	-0.022671802
62	0x3c7be526	0.015374457
63	0x3c0e1222	0.008671315
64	0x3d183a88	0.037165195
65	0x3c54f028	0.012996711
66	0x3d2e1a47	0.04250553
67	0xbcc36314	-0.023850955
68	0xbd5a0f14	-0.053237036
69	0x3b1a8d08	0.0023582596
70	0xbd2e3173	-0.042527627
71	0x3e2b7477	0.16743647
72	0x3aa2492e	0.0012381428
73	0x3d90d4f5	0.07071868
74	0x3dd6a2cc	0.1048027
75	0xbd346299	-0.044039343
76	0xbd9107d6	-0.07081573
77	0x3cb85333	0.02250061
78	0xbd8b4200	-0.06799698
79	0x3dadf748	0.08494431
80	0x3c0467d6	0.008081397
81	0xbc1fa11c	-0.009743001
82	0xbcc36c5b	-0.023855379
83	0x388402df	6.294785e-05
84	0x3d0e2a6b	0.03470842
85	0x3c7e69d2	0.015528159
86	0x3d046968	0.032327086
87	0xba400044	-0.00073242583
88	0xbc560bfb	-0.01306438
89	0x3c55c2aa	0.0130469
90	0x3b14a939	0.0022683872
91	0xbcbfd7f1	-0.023418399
92	0x3b9f7820	0.004866615
93	0x3ba0eabf	0.0049107964
94	0xbc0a2674	-0.0084320195
95	0x3b861c5d	0.0040927366
96	0x3ceb95ff	0.028758047
97	0xbc398f4f	-0.011325671
98	0xbc90f67b	-0.017695656
99	0xbba38491	-0.0049901684
100	0xbc784267	-0.01515255
101	0x3c2f46b7	0.010698012
102	0xbda4b326	-0.08041982
103	0x3c876c8c	0.016531251
104	0x3d29f9a6	0.04149785
105	0xbd8264ef	-0.06366908
106	0x3d8738e2	0.066026464
107	0x38bc42d9	8.97699e-05
108	0x3cc6ba7e	0.024258848
109	0x3c318b82	0.010836484
110	0x3b9780bf	0.004623502
111	0xbd75a7aa	-0.05997435
112	0x3d920fa8	0.071318924
113	0xbb8dd215	-0.0043280222
114	0xbd171d3d	-0.03689312
115	0x3cf9fabd	0.03051507
116	0xbd58df8c	-0.052947566
117	0xbcdc1c76	-0.02686904
118	0x3db82476	0.08991329
119	0x3bc5b539	0.0060335663
120	0xbcf2eba6	-0.029653382
121	0xbd9519f0	-0.07280338
122	0xbd6e39cc	-0.05816059
123	0xbdcdaa19	-0.10042209
124	0xbcc79af5	-0.024365881
125	0x3c166597	0.009179494
126	0x3d06f099	0.032944296
127	0xbc52c72a	-0.012864867
128	0x3d3634bb	0.04448388
129	0x3cc41a38	0.023938283
130	0x3b1e6135	0.0024166827
131	0x3d17f959	0.03710303
132	0x3e015b55	0.12632497
133	0x3d075002	0.033035286
134	0x3d2ea0dd	0.04263388
135	0xbdf99b68	-0.121878445
136	0xbd4cf8e1	-0.050042037
137	0x3dafc31a	0.085821345
138	0x3d869ec5	0.06573252
139	0xbde2d781	-0.1107626
140	0xbb8343b4	-0.0040058736
141	0xbc3d4b77	-0.011553637
142	0x3c9ad990	0.01890257
143	0xbc877df9	-0.01653956
144	0x3ad7bb3e	0.0016459001
145	0xba8fa5be	-0.0010959429
146	0x3d5edd23	0.05441011
147	0xbc66f499	-0.014096403
148	0xbcb33034	-0.021873571
149	0xbc7faedd	-0.0156056555
150	0x3a3d20db	0.00072146737
151	0x3c39f5e0	0.011350125
152	0x3cf629aa	0.030049164
153	0xbc08603e	-0.008323727
154	0xbbd2bce4	-0.006431209
155	0x3c29d05b	0.010364617
156	0x3d9a9bad	0.07549224
157	0xbcce7a11	-0.02520469
158	0xbc22d261	-0.009937854
159	0xbc9a01b3	-0.018799638
160	0xbd11ba33	-0.035577964
161	0xbcbd3828	-0.023098066
162	0xbbfe484f	-0.0077600847
163	0xbda50a1a	-0.08058567
164	0xbd2880b2	-0.04113836
165	0xbbec6fd5	-0.00721548
166	0x3dab93d6	0.08377807
167	0x3d35d62a	0.044393696
168	0x3d05b7b6	0.032645904
169	0xbc9f36c7	-0.0194353
170	0x3d02a3ef	0.03189462
171	0x3bc97f58	0.0061492138
172	0xbca8e637	-0.020617587
173	0x3ce5b280	0.028039217
174	0x3bd06ab5	0.0063603767
175	0x3bd8ebb6	0.006619896
176	0x3b50b7e0	0.003184788
177	0x3b9df3af	0.004820309
178	0xbc4c93b0	-0.012486383
179	0x3ca7c62a	0.020480234
180	0x3c07fd90	0.0083002
181	0x3d7b1db8	0.06130764
182	0xbb1e08fa	-0.0024114237
183	0x3d273b20	0.04082787
184	0x3ca8a0e3	0.02058453
185	0xbca12037	-0.019668682
186	0xbd597cc9	-0.05309752
187	0xbcf89291	-0.030343326
188	0xbd60eaf7	-0.05491158
189	0xbc4a8efc	-0.012363192
190	0xbde5ec66	-0.1122673
191	0xbde99023	-0.11404445
192	0xbd0255c6	-0.03182008
193	0x3e30fa76	0.17283043
194	0xbc980a8d	-0.018559719
195	0xbcb2b392	-0.021814141
196	0x3b18f1ce	0.0023337486
197	0x3df19e6e	0.11797796
198	0xbe09cc87	-0.13456927
199	0xbbf7bb02	-0.007560135
200	0xbc360792	-0.011110203
201	0xbd50241a	-0.05081568
202	0x3b792b2f	0.0038020124
203	0xbe041e46	-0.12902173
204	0xbdadc77f	-0.084853165
205	0x3d20ec61	0.03928793
206	0x3e2cf199	0.16889037
207	0x3db9a39c	0.09064409
208	0x3d93d737	0.07218783
209	0x3c404b6e	0.011736734
210	0xbb8057f8	-0.0039167367
211	0x3d282a62	0.041056044
212	0x3d4e1216	0.050310217
213	0xbd16de85	-0.036833305
214	0xbdb87e5f	-0.090084784
215	0xbd5252ee	-0.05134862
216	0x3db47510	0.088113904
217	0x3b80c832	0.003930115
218	0xbd134d28	-0.035962254
219	0xbccd45ae	-0.02505764
220	0x3ce5c1ec	0.02804657
221	0xbceb1c54	-0.028700031
222	0xbd3f2e42	-0.046674974
223	0xbd3b76bf	-0.045767542
224	0x3d314f29	0.043288384
225	0x3d51674a	0.051123895
226	0x3d30f7be	0.043205015
227	0xbc584079	-0.013198965
228	0x3dbf56e6	0.093427464
229	0x368aae66	4.133023e-06
230	0x3b7f442a	0.003895054
231	0xbd1fe68d	-0.03903823
232	0x3c9ed48c	0.01938846
233	0xbda8924c	-0.08231029
234	0xbc6f1bdd	-0.0145940455
235	0xbc6f545e	-0.014607517
236	0x3e117bee	0.14207432
237	0x3d08e868	0.033424765
238	0x3cb28ffa	0.021797169
239	0x3b3d55cf	0.0028890257
240	0x3c686023	0.014183077
241	0x3ce7af97	0.02828197
242	0xbce9c6cf	-0.028537182
243	0x3d14e23a	0.03634856
244	0x3cff43b8	0.03116022
245	0xbc44aa2f	-0.012003466
246	0xbd229523	-0.03969301
247	0xbd0493c9	-0.0323675
248	0xbcb4baac	-0.022061668
249	0x3ac9f065	0.0015406726
250	0xbc6d0900	-0.014467478
251	0x3cfbccbb	0.030737272
252	0xbd8e7257	-0.06955402
253	0xbd49e495	-0.04929026
254	0xbd9b74e2	-0.07590653
255	0xbc732d6f	-0.014842375
